models/weights_generation_1.pt (torch, 631044 bytes, 22 tensors)

features.0.weight f4 [32, 4, 3, 3]
0.15951076 0.16806757 -0.043186184 -0.124233976 0.070022225 -0.11146426 0.1597915 0.05762661
-0.097714454 0.039738256 0.18104331 0.0061949757 -0.021561643 0.13299331 0.0789851 0.038846143
-0.060931236 -0.051633526 -0.12075529 -0.11900162 0.07981476 -0.012018133 -0.039313328 0.16135843
-0.12486962 0.07767487 0.10693508 -0.04873892 0.07515244 0.14023615 -0.060882926 0.05143732
0.16394503 0.11738567 -0.003890276 -0.10050005 -0.09653019 0.11715551 0.13484687 -0.0662716
-0.065359056 0.1482871 0.11742536 -0.04372429 -0.022324981 0.16138947 -0.1456872 0.14798175
0.14175066 0.13573988 -0.089160815 -0.09196236 -0.08753125 0.14755481 0.06093807 -0.06519252
0.1179783 -0.0892461 0.037760586 -0.10961003 -0.12888573 -0.056062117 0.051730413 -0.10740926
-0.1302365 -0.0863298 -0.16601044 0.072860435 0.0713222 0.027272105 0.12158753 0.10820378
0.08061129 0.17233066 -0.091237254 0.11233318 -0.12443142 -0.103882164 -0.030015009 0.112419546
0.025912095 0.04458472 0.027170975 -0.08259353 -0.0943019 -0.112670965 0.0014066107 0.1486816
-0.025109928 -0.02781508 0.09141167 -0.10768391 0.019125814 0.11318858 0.06047315 -0.06575726
-0.05807038 0.18209173 0.17656429 0.004413262 0.08169383 -0.03453876 -0.09959358 -0.11089786
-0.15121053 0.16091116 -0.10126549 0.1157126 0.12092629 -0.12404646 0.09618647 -0.16326693
0.05070884 0.11797206 -0.13625531 0.17772502 0.14510044 0.17112723 0.032948375 0.11709989
-0.027659815 -0.095221825 0.089752205 0.02044269 0.16995086 0.06543761 -0.102959424 -0.04940403
0.090604626 0.13450743 0.05883326 0.13525803 0.17753468 -0.113066465 -0.07715118 0.15308516
0.12868549 0.1315511 0.06938453 0.15677626 -0.078150734 0.14371447 -0.10675143 0.05973755
0.078620635 0.11697665 0.10367854 0.13704115 -0.0706153 0.057140615 -0.07147319 -0.030265464
0.12202337 -0.031202316 0.016168604 0.08897887 -0.0039646775 -0.08118106 -0.051298264 -0.082329385
-0.033416137 -0.06395563 -0.09544874 -0.14406332 -0.12057415 0.19150338 0.04265237 -0.0038845388
-0.1311291 0.022748923 0.006919659 0.054427072 0.15072311 0.109066024 -0.0084373355 -0.1296559
0.09565963 0.055312946 -0.10555428 0.092293754 0.15142979 -0.044437543 -0.17575595 -0.15970224
0.13908857 -0.07183023 0.13208738 -0.0493191 0.13396601 -0.104258426 0.19409142 -0.021227675
0.019475836 0.1135653 0.08465666 -0.13980421 0.058768425 -0.16301602 0.1637851 0.027312292
0.17655146 0.13460928 -0.19243884 0.09087198 0.12854646 0.13086411 -0.120009504 0.031371236
-0.017330363 0.14241095 0.016051173 -0.013376191 -0.07897236 -0.16490546 0.08736999 -0.105477855
0.032645643 0.02500563 -0.015989246 -0.016302891 0.1204071 -0.16243961 0.15091404 -0.025261825
-0.11774481 0.035153337 0.013464648 0.033797827 0.021240491 0.16463242 0.041238017 0.16980083
0.03576865 -0.031616427 0.17980391 0.0029294952 -0.093559906 -0.06519992 -0.15912127 0.1650678
-0.0023432293 -0.12278722 0.051848184 -0.0028700083 -0.13967696 0.0984339 0.13629071 -0.15950254
0.12151079 -0.082821 0.022605255 0.021679819 -0.079442464 -0.11874284 0.1767747 0.12919676
00000000: ca56 233e e819 2c3e ffe3 30bd 626e febd
00000010: d067 8f3d 6047 e4bd 62a0 233e e109 6c3d
00000020: 841e c8bd 95c4 223d 6b63 393e 39ff ca3b
00000030: 0ba2 b0bc 662f 083e f1c2 a13d 221d 1f3d
00000040: 0893 79bd ad7d 53bd 8d4e f7bd 1fb7 f3bd
00000050: ec75 a33d b4e7 44bc 0307 21bd 253b 253e
00000060: a5bb ffbd 0114 9f3d c700 db3d 76a2 47bd
00000070: 86e9 993d 119a 0f3e 6060 79bd f0af 523d
00000080: 35e1 273e e667 f03d 00f4 7ebb f8d2 cdbd
00000090: 9fb1 c5bd 3aef ef3d 4c15 0a3e 68b9 87bd
000000a0: f8da 85bd 93d8 173e b57c f03d 3e18 33bd
000000b0: e1e2 b6bc 4843 253e 062f 15be 8788 173e
000000c0: 1627 113e 65ff 0a3e f299 b6bd c356 bcbd
000000d0: 9643 b3bd 9c18 173e 339a 793d a883 85bd
000000e0: 9b9e f13d a9c6 b6bd d8aa 1a3d 397b e0bd
000000f0: 9ffa 03be 64a1 65bd 45e3 533d 63f9 dbbd
00000100: b85c 05be aecd b0bd a4fe 29be da37 953d
00000110: 6011 923d c069 df3c e202 f93d f299 dd3d
00000120: 8817 a53d 7377 303e 99da babd f00e e63d
00000130: e6d5 febd 2cc0 d4bd 09e2 f5bc 383c e63d
00000140: 9a45 d43c 789e 363d aa95 de3c cc26 a9bd
00000150: 5b21 c1bd 09c0 e6bd 065e b83a fd3f 183e
00000160: 56b3 cdbc 73dc e3bc 0b36 bb3d 6289 dcbd
00000170: bdad 9c3c 6acf e73d b2b2 773d beab 86bd
00000180: 35db 6dbd 4176 3a3e 45cd 343e 209d 903b
00000190: 184f a73d 8478 0dbd b8f7 cbbd 6b1e e3bd
000001a0: efd6 1abe e5c5 243e 4864 cfbd bafa ec3d
000001b0: 34a8 f73d 120c febd 69fd c43d 722f 27be
000001c0: 13b4 4f3d 569b f13d 8386 0bbe 8cfd 353e
000001d0: 3695 143e fa3b 2f3e e0f4 063d 11d2 ef3d
000001e0: d696 e2bc a903 c3bd 01d0 b73d 6e77 a73c
000001f0: 9907 2e3e 2704 863d 64dc d2bd e15b 4abd
00000200: eb8e b93d 51bc 093e 25fb 703d 1581 0a3e
00000210: a7cb 353e 648f e7bd 7001 9ebd 5bc2 1c3e
00000220: 21c6 033e 55b5 063e 7a19 8e3d f589 203e
00000230: 7e0d a0bd e329 133e 7ea0 dabd 5caf 743d
00000240: db03 a13d 7491 ef3d 6a55 d43d 8454 0c3e
00000250: c19e 90bd 470c 6a3d 8960 92bd 47ef f7bc
00000260: 63e7 f93d 009c ffbc 0574 843c 8e3a b63d
00000270: 20ea 81bb 4142 a6bd 211e 52bd 4f9c a8bd
00000280: 5cdf 08bd 2bfb 82bd a17a c3bd 5685 13be
00000290: 94ef f6bd 7619 443e 40b4 2e3d bf93 7ebb
000002a0: b546 06be f35b ba3c 4fbe e23b ecee 5e3d
000002b0: 2957 1a3e 025e df3d c03c 0abc 84c4 04be
000002c0: 32e9 c33d d48f 623d d82c d8bd 8204 bd3d
000002d0: 6910 1b3e 2404 36bd 5ef9 33be fc88 23be
000002e0: 3c6d 0e3e ba1b 93bd ea41 073e d302 4abd
000002f0: 632e 093e 7185 d5bd e7bf 463e a9e5 adbc
00000300: ca8b 9f3c ed94 e83d 7960 ad3d d628 0fbe
00000310: 29b7 703d aced 26be 48b7 273e 07be df3c
00000320: e8c9 343e 04d7 093e b00e 45be 171b ba3d
00000330: afa1 033e 3e01 063e 8bc7 f5bd 207f 003d
00000340: 68f8 8dbc 2dd4 113e c07d 833c d027 5bbc
00000350: 43bc a1bd fadc 28be 0aef b23d c604 d8bd
00000360: 70b7 053d 9bd8 cc3c e1fb 82bc a48d 85bc
00000370: ff97 f63d 9256 26be 3689 1a3e e3f1 cebc
00000380: 3124 f1bd f2fc 0f3d d49a 5c3c 976f 0a3d
00000390: 8a00 ae3c 6795 283e 32e9 283d 45e0 2d3e
000003a0: 2682 123d 3a80 01bd 841e 383e c6fc 3f3b
000003b0: 569c bfbd 8987 85bd b0f0 22be 8907 293e
000003c0: dd90 19bb de77 fbbd c35e 543d c016 3cbb
000003d0: 7a07 0fbe b697 c93d cb8f 0b3e a254 23be
000003e0: a6da f83d 0e9e a9bd a82e b93c e099 b13c
000003f0: bbb2 a2bd 722f f3bd 6d04 353e 284c 043e

features.0.bias f4 [32]
0.17334478 0.12857263 0.09001728 -0.014647198 -0.14027855 -0.009063405 0.16414656 -0.031039655
-0.11740832 0.15773499 -0.02942501 -0.07108269 0.06405022 0.021606056 -0.03875719 -0.07458918
0.12085015 0.07327086 0.026201863 0.056977224 0.06156816 0.0004032166 -0.08786269 -0.10692878
-0.13792533 -0.11055186 0.01125552 0.06774919 -0.059518684 0.047736954 -0.07029211 -0.097523
00000000: 4b81 313e 8ba8 033e fb5a b83d cdfa 6fbc
00000010: 2ea5 0fbe ad7e 14bc 0916 283e e046 febc
00000020: c673 f0bd 4885 213e b80c f1bc cd93 91bd
00000030: c32c 833d 2fff b03c dcbf 1ebd 36c2 98bd
00000040: 4980 f73d 080f 963d 4aa5 d63c f360 693d
00000050: e52e 7c3d d166 d339 5bf1 b3bd 7afd dabd
00000060: 4c3c 0dbe 0369 e2bd 1369 383c 16c0 8a3d
00000070: ddc9 73bd d387 433d 4ff5 8fbd 23ba c7bd

features.residual_block_0.conv1.weight f4 [32, 32, 3, 3]
-0.045540437 -0.057661578 -0.003372658 0.0054540597 -0.0437488 0.050924756 -0.07217001 -0.050215367
0.037966415 -0.032558467 0.05313045 0.004466336 0.017788123 0.051939234 0.05503337 -0.007690268
-0.05098636 0.056469113 -0.036569413 -0.05567719 0.030157482 -0.047655668 0.021549204 0.03828483
0.054952897 0.055227496 0.02497422 0.027007427 0.04028546 -0.010069905 0.011114234 0.042693336
0.0608046 -0.0408989 0.059491336 0.06825025 -0.02248538 -0.072982475 -0.032904584 0.008056966
0.037146993 0.03858915 -0.00045465984 0.038071606 -0.021963857 -0.036671877 0.044603504 0.030235032
-0.039554797 -0.029016629 6.219936e-05 -0.048348993 0.047034055 -0.028805617 -0.037957948 -0.045037314
0.022095563 0.018259112 0.022856744 0.026304867 -0.06634447 0.026164103 -0.037574608 0.056788392
0.04016307 0.073486574 0.019668454 -0.045524105 0.015307506 0.050298966 -0.014296039 0.063503765
-0.0512846 -0.02454779 0.044275157 0.019387756 -0.022898503 -0.037731674 -0.034127627 0.002535617
-0.026702957 -0.029705843 0.058039688 0.0365883 0.027485644 -0.038168296 -0.010030194 0.041161228
0.016111158 0.0110550495 0.060022403 -0.009489293 -0.016972741 0.015688939 -0.062344566 -0.0065849572
0.041318707 -0.054230902 0.03850471 0.038452566 0.047461748 -0.0057001063 0.032047197 -0.015414962
-0.027484406 0.060204037 0.021539563 0.062009737 0.012841869 0.04660242 -0.037900098 -0.0071300664
-0.03131865 0.005380235 0.0347236 0.0031166233 0.034091454 -0.0040903077 0.05359061 -0.0062991823
0.032427296 0.08004837 0.009205031 -0.03926189 -0.0056396862 -0.04897322 0.013215405 0.05753728
0.025546448 0.014485336 -0.031251013 -0.040981956 -0.057303116 -0.0058992673 -0.046875447 -0.0019366354
0.010098582 -0.035636015 0.051427025 -0.01790542 0.048818722 -0.038315512 0.016228735 0.017233515
0.057520755 0.025636626 0.032867156 0.0209074 0.009692279 0.012546126 -0.023774026 -0.003910623
0.02398334 -0.033451602 0.042213995 -0.0060542445 -0.07542452 -0.05978229 0.0388889 0.002311071
0.01664255 -0.004349782 -0.013153522 -0.02282929 -0.019349787 -0.012705474 -0.03210739 -0.010230144
-0.06473188 0.00078859174 -0.036409765 -0.023092344 0.06276637 -0.026640855 -0.06918865 -0.014494781
0.013415605 0.008968742 0.04283189 0.058697674 -0.051984858 -0.003017688 0.054114405 0.0069422424
-0.054061104 -0.063106366 0.036283422 0.038842753 -0.0014930535 -0.039110705 0.04049816 -0.03792055
0.029986959 0.074405625 -0.009318706 0.015951917 -0.027725706 0.038441353 0.024778368 0.020240935
0.014587467 0.030691886 0.04968884 0.047661282 -0.037465204 -0.006220887 -0.024635425 -0.04639356
0.015361418 0.04773037 0.05935688 0.05019485 -0.0035974777 -0.008638416 -0.002693507 0.042131633
0.046335865 0.029078629 0.014819998 0.06778663 -0.021930065 -0.0017741289 0.04511172 -0.052891243
0.042961743 0.033135615 0.045216497 0.032140277 0.0121535035 0.052565258 -0.0020524163 0.0011959771
0.0006787894 -0.021675533 -0.018087104 0.054540027 -0.026188256 -0.057109907 0.06727498 0.005393098
-0.066647716 0.025980046 0.056474324 -0.055943828 -0.06736416 -0.042198922 -0.009096601 0.017728047
0.008396776 -0.008308094 0.04034543 -0.022110963 -0.036360294 -0.014110838 -0.010481228 -0.011111998
00000000: 9c88 3abd 8c2e 6cbd d007 5dbb f8b7 b23b
00000010: f131 33bd 7a96 503d dfcd 93bd a1ae 4dbd
00000020: ac82 1b3d 075c 05bd 519f 593d 585a 923b
00000030: 66b8 913c 3cbe 543d ac6a 613d a5fe fbbb
00000040: 13d7 50bd 284c 673d cfc9 15bd c40d 64bd
00000050: d30c f73c 9732 43bd f587 b03c 8ed0 1c3d
00000060: 4a16 613d 3a36 623d bc96 cc3c ae3e dd3c
00000070: 5e02 253d 3efc 24bc 7a18 363c 35df 2e3d
00000080: 3f0e 793d 9b85 27bd 30ad 733d c9c6 8b3d
00000090: 4233 b8bc d677 95bd f5c6 06bd 5d01 043c
000000a0: 7227 183d a80f 1e3d 695f eeb9 f9f0 1b3d
000000b0: 8ced b3bc 4035 16bd 2ab2 363d 75af f73c
000000c0: 3604 22bd 48b4 edbc 0771 8238 9809 46bd
000000d0: c8a6 403d c2f9 ebbc cb79 1bbd 0c79 38bd
000000e0: c101 b53c 2294 953c 113e bb3c 4e7d d73c
000000f0: 9cdf 87bd 1a56 d63c d5e7 19bd f29a 683d
00000100: 0882 243d 2180 963d bd1f a13c 7c77 3abd
00000110: 55cc 7a3c 4a06 4e3d ef39 6abc 430e 823d
00000120: cd0f 52bd 7218 c9bc de59 353d 12d3 9e3c
00000130: a495 bbbc 878c 1abd 69c9 0bbd 982c 263b
00000140: 29c0 dabc ab59 f3bc 06bb 6d3d 9ddd 153d
00000150: 9329 e13c 5c56 1cbd af55 24bc ad98 283d
00000160: 8cfb 833c 3d20 353c 0dda 753d fb78 1bbc
00000170: 6b0a 8bbc 1786 803c 045d 7fbd a0c6 d7bb
00000180: ce3d 293d 3921 5ebd 1db7 1d3d 7080 1d3d
00000190: 4067 423d f5c7 babb ec43 033d 098f 7cbc
000001a0: fa26 e1bc 8298 763d bd73 b03c ecfd 7d3d
000001b0: b466 523c 2ee2 3e3d 223d 1bbd 55a3 e9bb
000001c0: fc47 00bd af4c b03b 553a 0e3d 4340 4c3b
000001d0: 7ba3 0b3d fd07 86bb d481 5b3d 5f69 cebb
000001e0: 7cd2 043d 66f0 a33d b3d0 163c 13d1 20bd
000001f0: 1ecd b8bb 2598 48bd 6d85 583c 36ac 6b3d
00000200: c946 d13c e753 6d3c 1001 00bd b2dc 27bd
00000210: acb6 6abd a44e c1bb 7800 40bd b3d6 fdba
00000220: 8674 253c 12f7 11bd 25a5 523d 63ae 92bc
00000230: 24f6 473d baf0 1cbd 20f2 843c 4d2d 8d3c
00000240: e29a 6b3d e703 d23c b69f 063d ff45 ab3c
00000250: 5dcc 1e3c 448e 4d3c bfc1 c2bc af24 80bb
00000260: b678 c43c 8c04 09bd 95e8 2c3d af62 c6bb
00000270: 2c78 9abd 46de 74bd f849 1f3d 5675 173b
00000280: f555 883c 9e88 8ebb df81 57bc 7e04 bbbc
00000290: 7283 9ebc 9f2a 50bc 0a83 03bd 559c 27bc
000002a0: 2692 84bd 7fb9 4e3a 6822 15bd 282c bdbc
000002b0: a88b 803d ec3d dabc c7b2 8dbd 857b 6dbc
000002c0: 20cd 5b3c a1f1 123c 7e70 2f3d f96c 703d
000002d0: 13ee 54bd 67c4 45bb 11a7 5d3d c07b e33b
000002e0: 2d6f 5dbd e93d 81bd ed9d 143d 9419 1f3d
000002f0: 90b2 c3ba 8c32 20bd 66e1 253d 9452 1bbd
00000300: 36a7 f53c fa61 983d 7cad 18bc 98ad 823c
00000310: 0521 e3bc ae74 1d3d 01fc ca3c 51d0 a53c
00000320: 4500 6f3c 8d6d fb3c 8686 4b3d 7a38 433d
00000330: 1d75 19bd 95d8 cbbb 3bd0 c9bc 2c07 3ebd
00000340: 75ae 7b3c ec80 433d 3320 733d 1d99 4d3d
00000350: a9c3 6bbb 2588 0dbc 8c85 30bb 3892 2c3d
00000360: adca 3d3d 4e36 ee3c 94cf 723c b7d3 8a3d
00000370: aea6 b3bc e389 e8ba 11c7 383d 7da4 58bd
00000380: a7f8 2f3d 36b9 073d ef34 393d 86a5 033d
00000390: 7d1f 473c ab4e 573d d581 06bb 55c2 9c3a
000003a0: c9f0 313a e390 b1bc 682b 94bc 5d65 5f3d
000003b0: c188 d6bc 14ec 69bd 77c7 893d 96b8 b03b
000003c0: 997e 88bd 1bd4 d43c 9f51 673d 5b25 65bd
000003d0: 39f6 89bd c7d8 2cbd e909 15bc 693a 913c
000003e0: a292 093c ac1e 08bc 4041 253d 0d22 b5bc
000003f0: 88ee 14bd 2531 67bc 75b9 2bbc 190f 36bc

features.residual_block_0.conv1.bias f4 [32]
0.026425617 0.026406968 0.04271646 0.027918613 0.022119535 0.03214428 -0.048415642 0.038552612
-0.021452378 0.006979869 -0.011947443 0.04282532 -0.005014496 0.03458991 0.05092852 -0.026222143
-0.03951256 0.04980128 0.04931799 -0.004000896 -0.030114617 -0.009967641 0.051527645 -0.028012468
-0.041688234 -0.0068768 0.019048842 -0.027894564 0.0310933 -0.019029232 0.05027435 -0.009296477
00000000: 897a d83c 6d53 d83c 74f7 2e3d 93b5 e43c
00000010: 0734 b53c b8a9 033d 7b4f 46bd 58e9 1d3d
00000020: e6bc afbc 63b7 e43b 35bf 43bc 9a69 2f3d
00000030: a450 a4bb 26ae 0d3d 6c9a 503d d2cf d6bc
00000040: ecd7 21bd 6dfc 4b3d a901 4a3d f319 83bb
00000050: eeb2 f6bc 514f 23bc a70e 533d 677a e5bc
00000060: 48c1 2abd c856 e1bb 510c 9c3c 2483 e4bc
00000070: 60b7 fe3c 31e3 9bbc 7aec 4d3d 4050 18bc

features.residual_block_0.bn1.weight f4 [32]
1.0315673 1.030015 1.0333941 1.0177615 1.0305318 1.0306 1.0208915 1.0151252
1.0302703 1.0242051 1.0204225 1.0384941 1.0278654 1.0290563 1.014746 1.0247636
1.036007 1.0322791 1.0253346 1.0300705 1.0350058 1.0354826 1.0241139 1.0362858
1.0299442 1.0352154 1.0332142 1.0257035 1.0323049 1.028583 1.027182 1.0404994
00000000: 660a 843f 88d7 833f 4246 843f 0246 823f
00000010: 77e8 833f b3ea 833f 93ac 823f 9fef 813f
00000020: e6df 833f 2719 833f 349d 823f 60ed 843f
00000030: 1891 833f 1eb8 833f 32e3 813f 742b 833f
00000040: e19b 843f b921 843f 2a3e 833f 5ad9 833f
00000050: 127b 843f b28a 843f 2a16 833f 03a5 843f
00000060: 36d5 833f f081 843f 5d40 843f 414a 833f
00000070: 9122 843f 9ca8 833f b37a 833f 162f 853f

features.residual_block_0.bn1.bias f4 [32]
0.011032965 0.015324393 0.008929419 0.00027120498 0.008135184 0.015916154 0.004304926 0.0043285266
0.0043177903 0.0062397555 0.0056597423 0.016499119 0.0059102173 0.009303562 0.0060149385 0.0024561957
0.01478816 0.012696515 0.008982358 0.011294399 0.0105160745 0.007677138 -0.0026487026 0.012583712
0.008786266 0.012953659 0.009943724 0.006285372 0.014651037 0.014245854 0.003568353 0.0117320195
00000000: 9cc3 343c 2a13 7b3c b34c 123c 8430 8e39
00000010: 6f49 053c 9862 823c 5610 8d3b 50d6 8d3b
00000020: 407c 8d3b dd76 cc3b 5c75 b93b 2929 873c
00000030: 7faa c13b f86d 183c f618 c53b 20f8 203b
00000040: 0a4a 723c 0b05 503c bd2a 133c 250c 393c
00000050: 9d4b 2c3c 8090 fb3b db95 2dbb ea2b 4e3c
00000060: 45f4 0f3c 953b 543c 00eb 223c 86f5 cd3b
00000070: e70a 703c 7167 693c 07db 693b a837 403c

features.residual_block_0.bn1.running_mean f4 [32]
0.0 0.0 0.0 0.0 0.0 0.0 0.0 0.0
0.0 0.0 0.0 0.0 0.0 0.0 0.0 0.0
0.0 0.0 0.0 0.0 0.0 0.0 0.0 0.0
0.0 0.0 0.0 0.0 0.0 0.0 0.0 0.0
00000000: 0000 0000 0000 0000 0000 0000 0000 0000
00000010: 0000 0000 0000 0000 0000 0000 0000 0000
00000020: 0000 0000 0000 0000 0000 0000 0000 0000
00000030: 0000 0000 0000 0000 0000 0000 0000 0000
00000040: 0000 0000 0000 0000 0000 0000 0000 0000
00000050: 0000 0000 0000 0000 0000 0000 0000 0000
00000060: 0000 0000 0000 0000 0000 0000 0000 0000
00000070: 0000 0000 0000 0000 0000 0000 0000 0000

features.residual_block_0.bn1.running_var f4 [32]
1.0 1.0 1.0 1.0 1.0 1.0 1.0 1.0
1.0 1.0 1.0 1.0 1.0 1.0 1.0 1.0
1.0 1.0 1.0 1.0 1.0 1.0 1.0 1.0
1.0 1.0 1.0 1.0 1.0 1.0 1.0 1.0
00000000: 0000 803f 0000 803f 0000 803f 0000 803f
00000010: 0000 803f 0000 803f 0000 803f 0000 803f
00000020: 0000 803f 0000 803f 0000 803f 0000 803f
00000030: 0000 803f 0000 803f 0000 803f 0000 803f
00000040: 0000 803f 0000 803f 0000 803f 0000 803f
00000050: 0000 803f 0000 803f 0000 803f 0000 803f
00000060: 0000 803f 0000 803f 0000 803f 0000 803f
00000070: 0000 803f 0000 803f 0000 803f 0000 803f

features.residual_block_0.conv2.weight f4 [32, 32, 3, 3]
0.025362946 0.05398212 0.045108404 -0.024543788 0.02753899 0.0583138 -0.04830555 -0.021225117
0.0383816 -0.057234865 -0.04624405 -0.03315831 -0.06701005 0.0051402287 -0.041542783 0.0077609885
0.007708391 -0.0052619935 0.04328376 -0.016071063 0.049493372 0.017240958 0.0642231 0.07222004
0.03661928 0.023551516 -0.002061779 -0.060184404 -0.012588714 0.009975898 0.03797896 0.06182034
-0.022176694 -0.015108103 -0.055525593 0.029627683 0.045072403 -0.012979578 -0.05112822 0.002192289
-0.016593706 -0.07394178 -0.00257248 -0.022342665 0.047060672 0.074809656 -0.039772205 -0.010212819
0.030114105 -0.028435372 0.052224524 0.032794364 -0.031009156 0.0016651241 0.03955092 -0.014025584
-0.011600262 -0.014008574 -0.0625894 -0.0031813704 0.06159975 0.023774898 -0.039470553 0.051830888
0.0665191 -0.037601978 0.040951785 -0.01269047 -0.006672744 -0.015747057 0.06127181 -0.027209118
0.018214205 -0.019439213 0.053165283 -0.016207812 0.0073023154 0.06417075 0.02034383 0.038622156
0.03417322 -0.06319102 0.02036712 -0.057736654 -0.012168972 0.057199936 -0.012824833 -0.0048204116
0.027269846 0.03212197 -0.022431953 -0.021771295 -0.019748272 0.025672294 -0.052210595 0.05829302
-0.0057526045 0.026904503 -0.00060434465 0.04587116 -0.00632325 0.04750606 0.06435484 -0.028568724
-0.0064552976 0.0284657 -0.07017049 0.021019896 0.05876957 0.042731147 -0.0024845037 0.015862739
-0.057355586 0.039962903 -0.0605922 0.034935664 -0.05047314 0.009714836 0.007227502 -0.015487076
-0.008607218 -0.027038127 0.0823351 -0.056776907 -0.0131605705 -0.0020307251 0.015804019 -0.037618138
0.035873175 0.014507627 0.04910833 0.0064766575 0.043327477 0.02723989 -0.012098505 0.044597365
-0.050975103 -0.026542002 0.035033356 -0.033615947 0.024593752 0.06843506 -0.071454145 -0.021607818
-0.04004198 -0.05709718 -0.034666076 -0.009776071 0.028106172 -0.0060931463 0.068617165 0.004910833
0.028118536 0.07425958 -0.028248833 -0.026956247 -0.039578557 0.07461319 0.07989154 0.02516539
0.060938153 -0.0026480262 -0.014103506 0.036597 -0.010726806 -0.036680177 0.059417065 0.03433252
-0.008831811 0.00427028 -0.009953447 -0.04947145 0.016966458 -0.052404877 0.060744278 0.0262065
0.017906856 -0.029417286 -0.04367694 0.040488716 0.03978516 -0.053868305 -0.043949988 -0.041427188
0.0574994 0.0015976103 0.0023345386 -0.05281523 0.016918115 0.0609487 -0.025133422 -0.043501604
-0.028418006 0.07923507 0.010730213 -0.043766696 0.00019072223 -0.041951865 0.002756677 -0.05517323
-0.053646974 -0.038446132 0.03186257 -0.025316121 -0.005219228 -0.044767637 -0.03137643 0.029204415
0.043687068 0.045261208 -0.0153078 0.013446123 -0.015892303 -0.036491197 0.019529385 0.037866697
-0.013161804 0.064334095 0.05476786 0.016456526 -0.0020318034 0.051718123 -0.04283047 -0.0017728098
0.045949623 -0.037546027 -0.062342096 -0.032149144 -0.0048205396 0.021750003 0.07179582 -0.03739613
0.009601616 0.03774303 0.05820361 0.06865528 -0.04119887 -0.0032741649 -0.043677453 -0.06213274
0.0076578213 -0.03142017 -0.007880202 0.012148844 0.021993618 -0.0011706738 -0.050382163 0.05853404
0.021495787 0.009580288 0.04207932 0.056026198 -0.0012096685 0.01071773 -0.020008741 -0.043654002
00000000: f4c5 cf3c 5b1c 5d3d 97c3 383d 0e10 c9bc
00000010: 7399 e13c 73da 6e3d 0adc 45bd 4ce0 adbc
00000020: 0636 1d3d 1b6f 6abd 676a 3dbd 02d1 07bd
00000030: 913c 89bd 5d6f a83b c428 2abd e44f fe3b
00000040: ac96 fc3b cd6c acbb 504a 313d 76a7 83bc
00000050: 90b9 4a3d e93c 8d3c 6787 833d 1ae8 933d
00000060: 19fe 153d 1cef c03c e91e 07bb ec83 76bd
00000070: e540 4ebc f371 233c d38f 1b3d 5337 7d3d
00000080: e6ab b5bc fa87 77bc ce6e 63bd c1b5 f23c
00000090: d79d 383d 4ca8 54bc d36b 51bd 82ac 0f3b
000000a0: 86ef 87bc ca6e 97bd 0d97 28bb f707 b7bc
000000b0: b1c2 403d ce35 993d 2ee8 22bd ab53 27bc
000000c0: dbb1 f63c 4cf1 e8bc 62e9 553d 6253 063d
000000d0: ea06 febc 4b40 da3a 2500 223d 90cb 65bc
000000e0: 060f 3ebc 3884 65bc df2e 80bd 8a7e 50bb
000000f0: 0550 7c3d 93c3 c23c e0ab 21bd a04c 543d
00000100: 2a3b 883d 8804 1abd 0fbd 273d b0eb 4fbc
00000110: 09a7 dabb f9ff 80bc 26f8 7a3d a8e5 debc
00000120: f535 953c fc3e 9fbc d7c3 593d 3fc6 84bc
00000130: 4348 ef3b f46b 833d 1ba8 a63c 4432 1e3d
00000140: 38f9 0b3d 4b6a 81bd f2d8 a63c 457d 6cbd
00000150: 5e60 47bc 7b4a 6a3d 401f 52bc 8bf4 9dbb
00000160: 0365 df3c 5492 033d 37c3 b7bc b759 b2bc
00000170: 21c7 a1bc b44e d23c c7da 55bd a9c4 6e3d
00000180: 5880 bcbb d566 dc3c e26c 1eba 66e3 3b3d
00000190: 4433 cfbb b795 423d 78cc 833d f508 eabc
000001a0: f686 d3bb e630 e93c 8cb5 8fbd eb31 ac3c
000001b0: 5cb8 703d db06 2f3d 0ed3 22bb 93f2 813c
000001c0: b1ed 6abd 24b0 233d 872f 78bd b318 0f3d
000001d0: ecbc 4ebd fa2a 1f3c aed4 ec3b 81bd 7dbc
000001e0: 4a05 0dbc 107f ddbc 4e9f a83d e78e 68bd
000001f0: 6f9f 57bc ea15 05bb 6e77 813c 7a15 1abd
00000200: c0ef 123d 66b1 6d3c d125 493d 243a d43b
00000210: 2778 313d 3126 df3c cf38 46bc baab 363d
00000220: 45cb 50bd 9d6e d9bc 237f 0f3d e0b0 09bd
00000230: d678 c93c ae27 8c3d 8d56 92bd e102 b1bc
00000240: 0f03 24bd bcde 69bd 04fe 0dbd d02b 20bc
00000250: ea3e e63c 04a9 c7bb 2887 8c3d 0eeb a03b
00000260: d858 e63c 6815 983d 196a e7bc 59d3 dcbc
00000270: 201d 22bd cdce 983d 2d9e a33d a627 ce3c
00000280: 499a 793d 828a 2dbb 6412 67bc bce6 153d
00000290: 7cbf 2fbc f43d 16bd 4f5f 733d 42a0 0c3d
000002a0: 4db3 10bc b4ed 8b3b c813 23bc 93a2 4abd
000002b0: 3efd 8a3c 7fa6 56bd fece 783d 04af d63c
000002c0: 66b1 923c 85fc f0bc 97e6 32bd 7fd7 253d
000002d0: c4f5 223d 03a5 5cbd e704 34bd 8eaf 29bd
000002e0: 7e84 6b3d e866 d13a 0fff 183b c854 58bd
000002f0: dc97 8a3c 58a5 793d 9be4 cdbc bd2e 32bd
00000300: e1cc e8bc ff45 a23d c6cd 2f3c b544 33bd
00000310: 9cfc 4739 b8d5 2bbd 5ea9 343b 53fd 61bd
00000320: eebc 5bbd b179 1dbd 5482 023d c163 cfbc
00000330: 0f06 abbb 455e 37bd 9284 00bd 193e ef3c
00000340: 36f1 323d d163 393d 91cd 7abc 214d 5c3c
00000350: 9330 82bc cb77 15bd 17fc 9f3c 1c1a 1b3d
00000360: 9ba4 57bc 98c1 833d 4354 603d d6cf 863c
00000370: 0128 05bb 62d6 533d 016f 2fbd a05d e8ba
00000380: ac35 3c3d ddc9 19bd 6d5a 7fbd d2ae 03bd
00000390: 9ef5 9dbb 102d b23c b009 933d af2c 19bd
000003a0: 1950 1d3c 6f98 1a3d e966 6e3d 249b 8c3d
000003b0: 25c0 28bd 5f93 56bb 21e7 32bd e67e 7ebd
000003c0: 76ee fa3b 70b2 00bd f61b 01bc f20b 473c
000003d0: f62b b43c 4b71 99ba 875d 4ebd 64c1 6f3d
000003e0: ef17 b03c a4f6 1c3c 5d5b 2c3d ba7b 653d
000003f0: bd8d 9eba 6b99 2f3c 5fe9 a3bc 8ace 32bd

features.residual_block_0.conv2.bias f4 [32]
-0.03934465 0.06430759 -0.024823932 0.04381907 -0.042901482 -0.046606954 -0.021495875 0.03648954
3.8853617e-05 -0.0137152895 0.03978619 -0.00904216 -0.038147163 0.046857394 0.014269225 0.021825694
-0.015971703 -0.0069008977 -0.040777177 -0.015802389 0.010003959 0.007449916 -0.032540917 0.035316568
0.04858463 0.052037206 0.020287463 -0.0030974618 0.049621195 -0.0093375705 0.010428108 0.043040432
00000000: db27 21bd b3b3 833d 8f5b cbbc a07b 333d
00000010: 77b9 2fbd efe6 3ebd 1e18 b0bc 0e76 153d
00000020: c1f6 2238 18b6 60bc d8f6 223d 9125 14bc
00000030: 3340 1cbd 8aed 3f3d 78c9 693c cccb b23c
00000040: 17d7 82bc ed20 e2bb f805 27bd 0374 81bc
00000050: a5e7 233c 6d1e f43b a049 05bd 1ba8 103d
00000060: ad00 473d f724 553d e531 a63c c9fe 4abb
00000070: 983f 4b3d 9cfc 18bc a8da 2a3c 2a4b 303d

features.residual_block_0.bn2.weight f4 [32]
1.0285224 1.022615 1.0211418 1.0231645 1.0259936 1.0260574 1.0244443 1.0231799
1.0283602 1.0217452 1.0282886 1.0170882 1.0345172 1.0293363 1.0339092 1.0109175
1.0199337 1.0296346 1.0227488 1.0333472 1.0217227 1.0264016 1.0177608 1.0262864
1.0243086 1.0238266 1.0253025 1.0198716 1.0121535 1.0255924 1.0314636 1.028194
00000000: 9fa6 833f 0ce5 823f c6b4 823f 0ef7 823f
00000010: c253 833f d955 833f fe20 833f 8ff7 823f
00000020: 4fa1 833f 8cc8 823f f69e 833f f22f 823f
00000030: 0f6b 843f 4bc1 833f 2357 843f bf65 813f
00000040: 308d 823f 11cb 833f 6fe9 823f b944 843f
00000050: cfc7 823f 2161 833f fc45 823f 5a5d 833f
00000060: 8b1c 833f c00c 833f 1d3d 833f 278b 823f
00000070: 3f8e 813f 9d46 833f 0007 843f dc9b 833f

features.residual_block_0.bn2.bias f4 [32]
0.005341223 0.006128458 0.014761764 0.0103992745 0.004633844 0.010985404 0.011348827 0.0049120868
0.0065585524 0.008655217 0.0071342727 0.0026626796 0.007734659 0.005510029 0.010814036 0.0034386278
0.009240078 0.009476835 0.008407415 0.013241764 0.006788659 0.009471564 0.006519119 0.0047590467
0.0065554725 0.0059500462 0.0032650938 0.0052606002 -0.0002693988 0.010674606 0.006354877 0.0049051237
00000000: 6d05 af3b 3bd1 c83b 53db 713c b861 2a3c
00000010: 80d7 973b 20fc 333c 6ef0 393c 92f5 a03b
00000020: 20e9 d63b 9cce 0d3c 9ec6 e93b 5a80 2e3b
00000030: 0673 fd3b 798d b43b 5b2d 313c 9a5a 613b
00000040: b263 173c ba44 1b3c 41bf 093c fcf3 583c
00000050: 6673 de3b 9e2e 1b3c 559e d53b c7f1 9b3b
00000060: 4acf d63b 9bf8 c23b 2ffb 553b 1d61 ac3b
00000070: 183e 8db9 8be4 2e3c 923c d03b 29bb a03b

features.residual_block_0.bn2.running_mean f4 [32]
0.0 0.0 0.0 0.0 0.0 0.0 0.0 0.0
0.0 0.0 0.0 0.0 0.0 0.0 0.0 0.0
0.0 0.0 0.0 0.0 0.0 0.0 0.0 0.0
0.0 0.0 0.0 0.0 0.0 0.0 0.0 0.0
00000000: 0000 0000 0000 0000 0000 0000 0000 0000
00000010: 0000 0000 0000 0000 0000 0000 0000 0000
00000020: 0000 0000 0000 0000 0000 0000 0000 0000
00000030: 0000 0000 0000 0000 0000 0000 0000 0000
00000040: 0000 0000 0000 0000 0000 0000 0000 0000
00000050: 0000 0000 0000 0000 0000 0000 0000 0000
00000060: 0000 0000 0000 0000 0000 0000 0000 0000
00000070: 0000 0000 0000 0000 0000 0000 0000 0000

features.residual_block_0.bn2.running_var f4 [32]
1.0 1.0 1.0 1.0 1.0 1.0 1.0 1.0
1.0 1.0 1.0 1.0 1.0 1.0 1.0 1.0
1.0 1.0 1.0 1.0 1.0 1.0 1.0 1.0
1.0 1.0 1.0 1.0 1.0 1.0 1.0 1.0
00000000: 0000 803f 0000 803f 0000 803f 0000 803f
00000010: 0000 803f 0000 803f 0000 803f 0000 803f
00000020: 0000 803f 0000 803f 0000 803f 0000 803f
00000030: 0000 803f 0000 803f 0000 803f 0000 803f
00000040: 0000 803f 0000 803f 0000 803f 0000 803f
00000050: 0000 803f 0000 803f 0000 803f 0000 803f
00000060: 0000 803f 0000 803f 0000 803f 0000 803f
00000070: 0000 803f 0000 803f 0000 803f 0000 803f

features.batch_norm_0.weight f4 [32]
1.0329118 1.0265238 1.035124 1.0353135 1.0270689 1.0315348 1.0360522 1.0237814
1.0325776 1.0269504 1.0297021 1.0269319 1.0324795 1.0337971 1.0369334 1.0233824
1.02068 1.028563 1.0361856 1.0386608 1.0233439 1.0318699 1.0355593 1.0335404
1.0342488 1.0269982 1.0277898 1.0296401 1.0204492 1.0349958 1.0340762 1.0305412
00000000: 7436 843f 2265 833f f17e 843f 2785 843f
00000010: fe76 833f 5509 843f 5c9d 843f 450b 833f
00000020: 812b 843f 1c73 833f 47cd 833f 8172 833f
00000030: 4a28 843f 7753 843f 3cba 843f 32fe 823f
00000040: a4a5 823f f4a7 833f bba1 843f d6f2 843f
00000050: effc 823f 5014 843f 358d 843f 0d4b 843f
00000060: 4462 843f ad74 833f 9e8e 833f 3fcb 833f
00000070: 149e 823f be7a 843f 9c5c 843f c6e8 833f

features.batch_norm_0.bias f4 [32]
-6.537929e-06 0.0041756867 -0.00059605495 0.0041444874 0.0047520106 0.00032307155 0.006064328 0.0026951313
0.0019578282 0.0043905363 0.00498387 -0.00015790938 -3.6964986e-05 0.0033059989 0.00042148822 0.0021984475
0.0091206785 0.00027455235 -0.00025707288 0.0018793922 0.0026599995 0.0025863792 0.0011605456 0.0010987762
0.0037175626 0.003150206 -0.0007211653 0.0011307552 -0.00033857857 0.00087729207 -0.0005150096 -0.00016912802
00000000: 6260 dbb6 33d4 883b 9240 1cba 7bce 873b
00000010: c1b6 9b3b ee61 a939 45b7 c63b cda0 303b
00000020: e84e 003b 7dde 8f3b bb4f a33b 7a94 25b9
00000030: da0a 1bb8 75a9 583b 31fb dc39 d413 103b
00000040: e66e 153c cbf1 8f39 bdc7 86b9 f055 f63a
00000050: 6353 2e3b 3e80 293b 731d 983a d004 903a
00000060: 5aa2 733b b073 4e3b 960c 3dba d935 943a
00000070: 3f83 b1b9 13fa 653a b601 07ba f557 31b9

features.batch_norm_0.running_mean f4 [32]
0.0 0.0 0.0 0.0 0.0 0.0 0.0 0.0
0.0 0.0 0.0 0.0 0.0 0.0 0.0 0.0
0.0 0.0 0.0 0.0 0.0 0.0 0.0 0.0
0.0 0.0 0.0 0.0 0.0 0.0 0.0 0.0
00000000: 0000 0000 0000 0000 0000 0000 0000 0000
00000010: 0000 0000 0000 0000 0000 0000 0000 0000
00000020: 0000 0000 0000 0000 0000 0000 0000 0000
00000030: 0000 0000 0000 0000 0000 0000 0000 0000
00000040: 0000 0000 0000 0000 0000 0000 0000 0000
00000050: 0000 0000 0000 0000 0000 0000 0000 0000
00000060: 0000 0000 0000 0000 0000 0000 0000 0000
00000070: 0000 0000 0000 0000 0000 0000 0000 0000

features.batch_norm_0.running_var f4 [32]
1.0 1.0 1.0 1.0 1.0 1.0 1.0 1.0
1.0 1.0 1.0 1.0 1.0 1.0 1.0 1.0
1.0 1.0 1.0 1.0 1.0 1.0 1.0 1.0
1.0 1.0 1.0 1.0 1.0 1.0 1.0 1.0
00000000: 0000 803f 0000 803f 0000 803f 0000 803f
00000010: 0000 803f 0000 803f 0000 803f 0000 803f
00000020: 0000 803f 0000 803f 0000 803f 0000 803f
00000030: 0000 803f 0000 803f 0000 803f 0000 803f
00000040: 0000 803f 0000 803f 0000 803f 0000 803f
00000050: 0000 803f 0000 803f 0000 803f 0000 803f
00000060: 0000 803f 0000 803f 0000 803f 0000 803f
00000070: 0000 803f 0000 803f 0000 803f 0000 803f

policy_head.0.weight f4 [256, 512]
0.041722406 0.0018173105 0.043509573 0.017828578 -0.03351859 -0.029071888 -0.009810974 -0.029621191
-0.037123222 0.01240548 0.023366936 0.040613048 0.021626579 0.024708377 -0.0013863639 0.018098641
-0.03584024 -0.023424756 0.011012014 -0.014829169 0.033826977 0.016178094 0.019110527 -0.02048921
0.04098353 -0.028017847 -0.02101183 0.0119911125 -0.008763123 0.016262924 0.010053072 0.010184961
-0.03188389 0.014457504 -0.037928708 -0.035930865 0.012482151 -0.041084662 0.021191923 -0.033710185
0.0003644176 -0.014566184 0.03951955 0.0335961 0.041674383 0.023595922 -0.025860665 0.03538184
0.028448744 -0.04017914 -0.0027267525 0.00092695444 0.0063265124 -0.030264594 -0.03921809 -0.010572605
0.03973539 0.014535183 -0.0012437442 0.0018619505 0.025742667 0.019470556 0.025421126 0.020512944
-0.046361614 0.032291308 0.03588006 0.010182255 -0.0030367177 -0.028583016 0.014733645 0.0093389405
0.025910929 -0.032869976 -0.015521778 -0.03761273 -0.023900883 0.016578613 0.018414581 -0.0013815457
0.042219833 0.009335863 -0.038375698 0.0038712563 0.021897411 0.023334067 0.016272409 -0.011310191
-0.029089453 0.028151358 -0.01720993 -0.03521519 0.021229688 0.030474577 -0.014482745 0.0023034962
-0.010222541 -0.044725064 -0.04419691 0.030291954 0.012141905 -0.0421598 0.029417628 0.025638597
-0.0001585615 0.029703725 -0.00074107357 -0.021551015 0.026217466 0.033508196 0.043374132 -0.021217212
0.0425385 -0.041096896 0.023449672 -0.013949972 -0.045425877 0.02127865 -0.012557901 0.036882393
-0.045764416 -0.0378427 -0.020129643 0.0029850493 -0.033843018 -0.028144993 0.022563664 0.0034353742
0.03276802 -0.038851086 -0.032020204 0.014024432 -0.0077916062 0.009050159 0.011273301 -0.00570723
-0.041543867 0.030543556 0.02315056 -0.020032594 0.02457198 0.033097368 -0.010580188 0.023322525
0.039465412 -0.011664963 -0.039078325 -0.008539035 0.016202917 -0.013823035 -0.044151574 -0.016401105
-0.011734473 0.008492674 -0.016086962 0.023458365 -0.021950988 -0.035624593 0.010253426 0.026276987
0.009539736 0.0349422 -0.015015422 -0.012856659 0.0035748777 -0.018815171 0.030422779 0.0059842095
-0.04283968 -0.013576367 0.02897341 0.011206266 0.01181577 -0.037541177 -0.027738912 -0.013396574
-0.01494695 0.009961057 0.03967273 0.02070051 0.02267938 0.0123258475 0.021847242 0.021335881
0.02082994 0.017206676 0.02020675 -0.018783744 -0.006181934 -0.007468748 -0.019823538 0.029109623
-0.02394769 -0.017519454 0.03373056 -0.0015479419 -0.00609426 -0.046248928 0.024131427 0.004833525
-0.037747186 0.013941009 -0.027445855 -0.0018298352 0.006777028 -0.038992934 0.038771905 -0.019165229
-0.024759091 0.009491408 -0.01771052 -0.028819118 0.014247468 -0.016778253 -0.047290444 0.0034340315
-0.0420751 0.02500275 0.0045489264 -0.030794265 0.036848295 0.041853335 -0.017223513 -0.017719459
0.034608953 0.0038266396 0.034374587 0.006553464 0.028205825 0.02372332 -0.042265773 -0.016364641
0.019176966 -0.029933827 0.028467596 0.031258997 0.029019091 -0.013947969 -0.01876585 0.005575015
-0.039381936 0.035778113 -0.0063793943 -0.024762744 -0.033329528 -0.020404283 -0.015912194 -0.034383927
-0.019244667 -0.004425121 0.027600957 -0.02978727 0.015496617 0.010622873 0.0029193775 0.018066045
00000000: 1de5 2a3d d232 ee3a 1837 323d 3d0d 923c
00000010: ca4a 09bd 2b28 eebc 35be 20bc 24a8 f2bc
00000020: 850e 18bd 5b40 4b3c 046c bf3c de59 263d
00000030: 392a b13c 3969 ca3c a7b6 b5ba 9a43 943c
00000040: 37cd 12bd 46e5 bfbc bc6b 343c 0bf6 72bc
00000050: 288e 0a3d ec87 843c ae8d 9c3c fdd8 a7bc
00000060: 59de 273d af85 e5bc 0021 acbc 5f76 443c
00000070: 3493 0fbc d339 853c a4b5 243c d3de 263c
00000080: af98 02bd 2bdf 6c3c 225b 1bbd 3e2c 13bd
00000090: f081 4c3c 6448 28bd af9a ad3c b113 0abd
000000a0: 4d0f bf39 01a7 6ebc 40df 213d 109c 093d
000000b0: c2b2 2a3d 3c4c c13c bfd9 d3bc 8cec 103d
000000c0: 570d e93c e292 24bd 51b3 32bb dcfe 723a
000000d0: a24e cf3b 74ed f7bc 26a3 20bd b838 2dbc
000000e0: 94c1 223d fa24 6e3c 2105 a3ba b10c f43a
000000f0: 49e2 d23c b780 9f3c f73f d03c c30a a83c
00000100: ade5 3dbd e443 043d f8f6 123d 79d3 263c
00000110: ab03 47bb ee26 eabc 6365 713c 5b02 193c
00000120: 2843 d43c aba2 06bd 0e4f 7ebc ce0f 1abd
00000130: c9cb c3bc dfcf 873c 2dda 963c fb14 b5ba
00000140: b4ee 2c3d 73f5 183c d62f 1dbd e7b4 7d3b
00000150: 3362 b33c 1627 bf3c b74d 853c 614e 39bc
00000160: 014d eebc ad9d e63c d7fb 8cbc ce3d 10bd
00000170: e2e9 ad3c d2a5 f93c 0949 6dbc 41f6 163b
00000180: 727c 27bc a131 37bd d207 35bd d526 f83c
00000190: d7ee 463c c1af 2cbd 3dfd f03c 0908 d23c
000001a0: 8743 26b9 3a55 f33c 9b44 42ba c18b b0bc
000001b0: 03c6 d63c e43f 093d 13a9 313d b8cf adbc
000001c0: da3c 2e3d 3855 28bd 8719 c03c 6c8e 64bc
000001d0: 7c10 3abd 9050 ae3c a8bf 4dbc fe11 173d
000001e0: 7873 3bbd f200 1bbd ece6 a4bc d1a0 433b
000001f0: fa9e 0abd 5490 e6bc 6fd7 b83c 0424 613b
00000200: c237 063d 5122 1fbd 9e27 03bd bbc6 653c
00000210: bb50 ffbb 1e47 143c a7b3 383c b703 bbbb
00000220: e729 2abd 7b36 fa3c 3ea6 bd3c 651b a4bc
00000230: 2d4b c93c 1b91 073d 8658 2dbc e10e bf3c
00000240: 7ca6 213d 671e 3fbc 9810 20bd 4fe7 0bbc
00000250: fbbb 843c 037a 62bc 48d8 34bd 9c5b 86bc
00000260: f241 40bc db24 0b3c cec8 83bc c22b c03c
00000270: 8fd2 b3bc 18eb 11bd fcfd 273c d642 d73c
00000280: 8e4c 1c3c 8d1f 0f3d 3f03 76bc bca4 52bc
00000290: 7f48 6a3b 4622 9abc 3139 f93c 3017 c43b
000002a0: a978 2fbd 696f 5ebc a559 ed3c 7c9a 373c
000002b0: ee96 413c c7c4 19bd b73c e3bc 4e7d 5bbc
000002c0: 0de4 74bc b433 233c df7f 223d 1e94 a93c
000002d0: 1bca b93c 5af2 493c fdf8 b23c 96c8 ae3c
000002e0: 8da3 aa3c 04f5 8c3c a088 a53c 5ee0 99bc
000002f0: d291 cabb 66bc f4bb f964 a2bc 4e77 ee3c
00000300: f22d c4bc f584 8fbc 0e29 0a3d 50e4 caba
00000310: 5cb2 c7bb 846f 3dbd 45af c53c 8c62 9e3b
00000320: cb9c 1abd d468 643c 21d6 e0bc 15d7 efba
00000330: d511 de3b 0eb7 1fbd 4acf 1e3d 6600 9dbc
00000340: 94d3 cabc da81 1b3c a715 91bc 1216 ecbc
00000350: 366e 693c 8c72 89bc a0b3 41bd 7d0d 613b
00000360: f156 2cbd 91d2 cc3c 290f 953b 4144 fcbc
00000370: 3dee 163d 676e 2b3d 5318 8dbc 6628 91bc
00000380: 1ec2 0d3d 5cc8 7a3b 5ecc 0c3d 71be d63b
00000390: e70f e73c 6857 c23c e01e 2dbd 240f 86bc
000003a0: 0319 9d3c c937 f5bc e034 e93c 6f09 003d
000003b0: 72b9 ed3c 0686 64bc d7ba 99bc 9eae b63b
000003c0: f44e 21bd 128c 123d 3d0a d1bb 3ddb cabc
000003d0: 8b84 08bd e226 a7bc 4a5a 82bc 29d6 0cbd
000003e0: fea6 9dbc 9b00 91bb 671b e23c 6f04 f4bc
000003f0: 86e5 7d3c 8f0b 2e3c 0753 3f3b 3eff 933c

policy_head.0.bias f4 [256]
-0.011587412 0.036517084 -0.035078865 -0.008581083 -0.02627595 0.023687957 0.004198552 0.03422148
0.044229414 -0.025801172 0.027098482 0.024901325 -0.021750154 0.03203073 0.00622345 -0.029735224
0.047446247 0.037393082 -0.03554566 -0.028609082 -0.0017068908 -0.040982597 0.02591341 0.0025941613
-0.03562628 -0.01883252 -0.017198661 -0.018063365 -0.014890642 -0.011966793 -0.024833027 0.0124006
0.043803886 0.037240934 -0.037479125 0.015590192 0.033321038 -0.027938886 0.015634447 0.025529824
0.031108396 0.02395765 -0.0312579 0.040681683 -0.014840149 -0.020596342 -0.022229701 0.043973196
0.0346454 -0.0018110963 -0.027381381 0.014981884 -0.01937714 0.002129271 -0.010456036 -0.0040188525
0.0171582 0.015419277 0.032668434 -0.024832604 8.2027e-05 0.03653206 0.00338717 0.017596379
0.0026683186 -0.035652053 0.014092276 -0.020651605 0.00025102936 0.045317244 -0.0037062166 -0.03121965
0.017167047 0.024286184 -0.0131749455 -0.03608392 -0.0010637119 -0.044300836 0.04179935 0.030064574
-0.025528422 0.035770673 -0.024656512 0.0073128687 0.016123055 -0.019368494 0.03325717 -0.03461609
-0.027097275 -0.035801247 0.036242906 -0.025421275 -0.019673673 0.03453237 0.0231325 -0.039277047
-0.019845352 0.04191575 -0.015401519 -0.013097938 0.00050349825 0.008383933 -0.0023720998 0.019928724
0.028991632 0.01936639 0.030238561 0.014030376 -0.03885522 0.027530639 -0.016874617 0.013776515
-0.009675625 -0.02428363 -0.03684707 0.01137241 0.039521005 0.01782346 0.004902819 0.0042378977
0.026935158 0.008852472 -0.016385874 0.040583063 0.00096989796 0.023924595 -0.025367033 0.037664205
0.007254126 0.025283787 0.037456702 -0.037165273 0.0194087 0.026303627 -0.0038011558 -0.0051046372
-0.017871955 0.009219956 -0.023753082 0.0011278751 -0.037357148 0.027973354 0.026595037 0.0059367046
-0.038141523 -0.024110394 0.0053648422 0.042207308 -0.004683496 0.035109695 0.012834352 -0.0036303925
-0.008580614 0.0015740667 -0.019046975 -0.015371107 0.041075796 -0.024545148 0.008515323 -0.018734772
0.03490273 -0.040344737 0.015729334 0.012567136 0.04142007 0.011016741 0.012555689 -0.0150116505
0.034605656 0.011177933 0.015888264 -0.027460063 -0.010062002 0.01836781 -0.024612127 0.035315685
-0.0024206885 0.0016291442 -0.03136748 -0.0070932894 -0.024144767 0.041021604 0.0066436506 -0.015966533
-0.020344302 0.0071874484 0.03800718 -0.016585944 -0.025277924 0.019085428 0.0023714765 0.013066951
-0.0027404272 0.025287164 -0.032451395 0.03105657 -0.0065276735 -0.026225632 -0.006172475 0.02169071
0.04972781 -0.041221164 0.03992511 -0.029982353 -0.032761138 0.010852704 0.0019656208 0.04273091
-0.010075789 -0.018175462 0.0269602 0.043555036 -0.027678017 0.001022683 -0.036632694 0.015337169
-0.031403277 -0.022293737 -0.017011397 0.0026007001 0.03650805 0.0029701043 -0.024797799 -0.012452927
-0.02321197 -0.034265246 -0.02513869 0.032659926 -0.0258242 0.024109323 0.022485388 -0.033395037
0.024679914 -0.035848554 -0.024167698 0.02390777 0.015968986 0.004354562 -0.026872018 -0.02291941
-0.027747726 0.03893123 -0.006398589 -0.03827621 -0.0050215647 -0.036859564 -0.0023918313 -0.008470927
-0.024516774 0.008650149 0.0288199 -0.041837137 0.03251311 -0.010108068 0.035387605 0.0061999774
00000000: 21d9 3dbc f092 153d dbae 0fbd ac97 0cbc
00000010: a940 d7bc 3f0d c23c 0294 893b d32b 0c3d
00000020: e729 353d fb5c d3bc a3fd dd3c ddfd cb3c
00000030: 612d b2bc a832 033d 15ee cb3b 4997 f3bc
00000040: ff56 423d 7d29 193d 5398 11bd 985d eabc
00000050: c0b9 dfba 5edd 27bd 5c48 d43c ce02 2a3b
00000060: ddec 11bd a846 9abc 35e4 8cbc 9ff9 93bc
00000070: e1f7 73bc 5e10 44bc a26e cbbc e32b 4b3c
00000080: b46b 333d f389 183d b683 19bd 016e 7f3c
00000090: a47b 083d 17e0 e4bc d013 803c ec23 d13c
000000a0: 09d7 fe3c d542 c43c 4908 00bd d6a1 263d
000000b0: 1924 73bc a9b9 a8bc 101b b6bc 3d1d 343d
000000c0: 56e8 0d3d 4f62 edba eb4e e0bc 9376 753c
000000d0: cfbc 9ebc 3d8b 0b3b cb4f 2bbc 94b0 83bb
000000e0: 5a8f 8c3c 23a1 7c3c 56cf 053d bf6d cbbc
000000f0: e905 ac38 a4a2 153d 48fb 5d3b 4826 903c
00000100: f5de 2e3b e307 12bd 4ae3 663c 8e2d a9bc
00000110: 979c 8339 939e 393d ffe3 72bb 5ac0 ffbc
00000120: e8a1 8c3c d2f3 c63c badb 57bc bccc 13bd
00000130: 406c 8bba cb74 35bd cc35 2b3d fb49 f63c
00000140: fb20 d1bc 4584 123d 74fc c9bc caa0 ef3b
00000150: 7f14 843c adaa 9ebc ac38 083d 9ac9 0dbd
00000160: 1bfb ddbc 54a4 12bd 7173 143d 4740 d0bc
00000170: af2a a1bc d071 0d3d 5e80 bd3c f8e0 20bd
00000180: b892 a2bc d9af 2b3d a756 7cbc bc98 56bc
00000190: 32fd 033a c45c 093c 3b75 1bbb 9041 a33c
000001a0: dc7f ed3c 43a6 9e3c dcb6 f73c aadf 653c
000001b0: a726 1fbd ef87 e13c a33c 8abc e4b6 613c
000001c0: 8386 1ebc 77ee c6bc f4ec 16bd 5853 3a3c
000001d0: c7e0 213d 8102 923c d4a7 a03b 10de 8a3b
000001e0: 1fa7 dc3c f509 113c ab3b 86bc 6d3a 263d
000001f0: c040 7e3a 83fd c33c 86ce cfbc c845 1a3d
00000200: 05b4 ed3b f21f cf3c 336c 193d 9d3a 18bd
00000210: fefe 9e3c b47a d73c d01c 79bb cd44 a7bb
00000220: 3568 92bc 4c0f 173c d395 c2bc 35d5 933a
00000230: cf03 19bd 6028 e53c d6dd d93c b088 c23b
00000240: 493a 1cbd 2983 c5bc 8fcb af3b 92e1 2c3d
00000250: 0378 99bb 2fcf 0f3d 2d47 523c e1eb 6dbb
00000260: b495 0cbc ea50 ce3a 6708 9cbc 18d7 7bbc
00000270: 183f 283d e812 c9bc da83 0b3c aa79 99bc
00000280: 2af6 0e3d 8640 25bd ceda 803c 64e6 4d3c
00000290: 17a8 293d 907f 343c 60b6 4d3c 6df3 75bc
000002a0: a9be 0d3d a623 373c 1b28 823c edf3 e0bc
000002b0: 18db 24bc 1778 963c 5f9f c9bc 2ea7 103d
000002c0: 6aa4 1ebb 0289 d53a 307b 00bd d36e e8bb
000002d0: 3fcb c5bc 4506 283d fbb2 d93b 3fcc 82bc
000002e0: 18a9 a6bc b084 eb3b 6bad 1b3d 3fdf 87bc
000002f0: a613 cfbc 0b59 9c3c c66a 1b3b c416 563c
00000300: bd98 33bb 0727 cf3c c1eb 04bd 596a fe3c
00000310: 18e6 d5bb 23d7 d6bc 7942 cabb b7b0 b13c
00000320: 63af 4b3d 86d7 28bd 8388 233d 8d9d f5bc
00000330: 8b30 06bd 8acf 313c a5d1 003b 9b06 2f3d
00000340: ec14 25bc b5e4 94bc a3db dc3c c466 323d
00000350: 02bd e2bc 8c0b 863a 2a0c 16bd c048 7b3c
00000360: b9a0 00bd 5ba1 b6bc 7c5b 8bbc 8270 2a3b
00000370: 7789 153d 15a6 423b c124 cbbc 5d07 4cbc
00000380: 0827 bebc b759 0cbd a7ef cdbc 6ac6 053d
00000390: 468d d3bc ea80 c53c 4733 b83c 3cc9 08bd
000003a0: 882d ca3c efd5 12bd 56fb c5bc 3ada c33c
000003b0: 64d1 823c b7b0 8e3b b522 dcbc 7dc1 bbbc
000003c0: 334f e3bc 5a76 1f3d 41ab d1bb 84c7 1cbd
000003d0: f08b a4bb 0efa 16bd 45c0 1cbb a5c9 0abc
000003e0: 67d7 c8bc 5bb9 0d3c b617 ec3c 6b5d 2bbd
000003f0: 782c 053d 4f9c 25bc 98f2 103d 2e29 cb3b

policy_head.3.weight f4 [16, 256]
-0.029979836 0.062359214 0.023247315 -0.012328876 0.020883568 -0.040471338 0.022212774 0.05403936
-0.0052942145 0.0042172694 -0.0058044307 0.03421524 0.014866639 0.06939871 0.008028882 0.041320156
-0.00084959937 -0.010586645 0.012816879 -0.01728379 -0.021906912 -0.003449887 -0.000988141 0.019089539
0.03494015 -0.009089149 0.061691586 -0.05866707 0.042541303 0.030863693 -0.008567372 -0.056131862
0.004863328 -0.0087445825 0.009559507 0.022413347 0.00983808 0.037805367 0.05572899 -0.021152748
0.002358738 0.03105233 0.0120555535 -0.025968269 0.030030264 0.056064334 0.027493393 -0.0031445401
-0.037444364 0.014272062 0.03867748 -0.030070137 -0.014630945 0.029479107 0.015885359 0.04836511
-0.030188654 -0.0352057 0.036643974 0.061396793 -0.047911424 -0.01800247 0.0110924 -0.045166135
0.05351335 0.016217561 -0.006868952 0.03740991 -0.02260198 0.0039518382 0.039163973 -0.040928114
-0.035703596 0.01759845 0.044019546 -0.058684863 0.01605644 0.011865132 -0.012541068 -0.046272196
-0.05359492 -0.0020270352 0.035476476 -0.0031128165 0.017285282 0.055611774 0.07623496 -0.0075296015
-0.019576453 -0.028772619 -0.020625077 0.031035742 -0.06207668 -0.014046273 -0.04315633 0.0025951862
-0.051938973 0.056607816 -0.020993266 0.042736795 -0.04508733 0.056775 -0.0138129005 -0.025505839
0.045770757 -0.01566774 0.037427615 0.05421718 -0.0021620474 -0.04552516 0.05326623 -0.015416794
-0.057246305 -0.04180081 0.049139775 -0.051071804 0.049535286 0.050117142 0.04684816 0.019867191
-0.0053763674 -0.045660306 0.023449404 0.045036707 0.031919852 0.048616726 0.035105273 -0.059634294
0.045797274 -0.017771572 0.043815456 0.013250483 -0.0178966 -0.037940633 -0.004568279 -0.0061933664
-0.019582208 -0.047137283 -0.026838236 -0.03643749 0.027539102 0.053902995 0.047859 -0.040060498
0.013728324 0.029030673 0.041797552 0.06384159 -0.06531948 0.03517268 0.026850238 0.00419707
0.007683026 -0.031953063 0.056571163 0.01959554 0.0375375 -0.016324216 -0.031991657 0.0010010806
0.0048001944 0.0073013203 -0.019680144 0.01964891 0.02645903 -0.0016912404 0.049562655 -0.027554557
0.011248012 0.06360097 -0.048853725 0.031366512 0.017219156 0.015235042 0.06256089 0.0026197117
0.03921854 -0.028727379 0.0039050058 0.055353258 0.053319935 -0.012400211 0.057795804 -0.04406378
-0.034753144 -0.012357361 0.012363151 -0.017137134 -0.028416356 -0.020615445 0.01047303 -0.043254048
0.04910212 0.06974372 -0.052809276 -0.048157256 -0.013813128 0.058542866 -0.021360354 0.048718236
0.039512157 0.0253215 -0.009744205 0.0028222573 0.01619444 -0.0590579 0.019063955 0.03753641
-0.02023809 0.057553593 0.059733365 0.03273472 0.027793035 -0.006205889 0.011806107 0.0042497492
0.03360958 0.026823213 0.024157768 -0.06605759 -0.016607475 0.024681954 -0.044284225 -0.05178618
0.04996416 -0.0043925983 -0.041439917 0.05200047 -0.043600213 0.05596556 -0.032348588 0.0569683
0.0026544258 -0.0661787 0.009183995 -0.013299279 -0.033096716 -0.0146456575 -0.049390197 0.024037767
0.0007787749 -0.034152165 -0.047738343 -0.0435329 0.019646153 0.049975354 0.027043043 -0.01978587
-0.05565399 0.025349904 -0.0042077415 0.031572636 -0.0007557579 -0.02884251 -0.01912588 -0.06047304
00000000: 4698 f5bc 606c 7f3d 2771 be3c 0eff 49bc
00000010: 0414 ab3c 46c5 25bd 90f7 b53c 6058 5d3d
00000020: 177b adbb 0531 8a3b 1833 bebb 4825 0c3d
00000030: 3493 733c e920 8e3d 928b 033c 533f 293d
00000040: a6b7 5eba 9c73 2dbc e3fd 513c bc96 8dbc
00000050: 2076 b3bc 8017 62bb 8384 81ba aa61 9c3c
00000060: 671d 0f3d a7ea 14bc 51b0 7c3d e24c 70bd
00000070: ca3f 2e3d dbd5 fc3c 2a5e 0cbc 86ea 65bd
00000080: 8d5c 9f3b 7045 0fbc 7a9f 1c3c 329c b73c
00000090: e62f 213c cdd9 1a3d 1544 643d 8748 adbc
000000a0: 0f95 1a3b 7561 fe3c a884 453c 68bb d4bc
000000b0: 0702 f63c b7a3 653d d339 e13c a114 4ebb
000000c0: 435f 19bd 5ed5 693c 476c 1e3d a655 f6bc
000000d0: a2b6 6fbc 2b7e f13c 0322 823c 7e1a 463d
000000e0: 324e f7bc da33 10bd fe17 163d 347b 7b3d
000000f0: c53e 44bd ea79 93bc e6bc 353c 2000 39bd
00000100: d130 5b3d b1da 843c f214 e1bb 223b 193d
00000110: ca27 b9bc 6c7e 813b 676a 203d 3da4 27bd
00000120: ef3d 12bd a02a 903c d74d 343d 8a5f 70bd
00000130: cc88 833c f865 423c 0d79 4dbc ea87 3dbd
00000140: 5986 5bbd 02d8 04bb c84f 113d 6500 4cbb
00000150: dd99 8d3c 2cc9 633d 1321 9c3d e0ba f6bb
00000160: cc5e a0bc 8eb4 ebbc ecf5 a8bc ab3e fe3c
00000170: 1e44 7ebd 5722 66bc b1c4 30bd 0014 2a3b
00000180: f6bd 54bd 99dd 673d 12fa abbc c70c 2f3d
00000190: 7ead 38bd e78c 683d 814f 62bc 9ff1 d0bc
000001a0: 1e7a 3b3d a259 80bc b34d 193d d512 5e3d
000001b0: 23b1 0dbb 9778 3abd b12d 5a3d b996 7cbc
000001c0: 1a7b 6abd 5337 2bbd ca46 493d ab30 51bd
000001d0: 83e5 4a3d a247 4d3d dbe3 3f3d 85c0 a23c
000001e0: 3d2c b0bb 4d06 3bbd f718 c03c 6978 383d
000001f0: 64be 023d 5522 473d 8cca 0f3d 1743 74bd
00000200: ec95 3b3d b095 91bc d677 333d 8e18 593c
00000210: e49b 92bc a367 1bbd 80b1 95bb b9f1 cabb
00000220: de6a a0bc 0613 41bd dcdb dbbc 7a3f 15bd
00000230: af99 e13c 63c9 5c3d cc07 443d 7a16 24bd
00000240: c4ec 603c bcd1 ed3c e933 2b3d 61bf 823d
00000250: 38c6 85bd 3a11 103d 08f5 db3c 9387 893b
00000260: e5c1 fb3b 37e1 02bd 2ab7 673d d386 a03c
00000270: ecc0 193d 5dba 85bc af09 03bd b136 833a
00000280: f34a 9d3b ea3f ef3b 4138 a1bc c0f6 a03c
00000290: 9cc0 d83c 9cac ddba 3602 4b3d 18ba e1bc
000002a0: 9549 383c 3a41 823d d81a 48bd 2c7a 003d
000002b0: 300f 8d3c 669c 793c ed1f 803d 78af 2b3b
000002c0: 9fa3 203d ae55 ebbc 20eb 7f3b 19ba 623d
000002d0: 0166 5a3d 412a 4bbc 4bbb 6c3d 397c 34bd
000002e0: 5059 0ebd 8776 4abc d08e 4a3c 2d63 8cbc
000002f0: 6bc9 e8bc b9e1 a8bc 1297 2b3c 282b 31bd
00000300: 4e1f 493d ccd5 8e3d 8a4e 58bd 8b40 45bd
00000310: 7550 62bc a5ca 6f3d e9fb aebc c68c 473d
00000320: 80d7 213d 096f cf3c 28a6 1fbc 9ff5 383b
00000330: 34aa 843c b2e6 71bd 032c 9c3c c7bf 193d
00000340: 5aca a5bc 51bd 6b3d f9aa 743d d714 063d
00000350: 38ae e33c c55a cbbb 676e 413c 7b41 8b3b
00000360: 33aa 093d 5bbc db3c 83e6 c53c 3449 87bd
00000370: 660c 88bc cf31 ca3c 6063 35bd bf1d 54bd
00000380: 38a7 4c3d c9ef 8fbb e7bc 29bd 72fe 543d
00000390: 2396 32bd 253c 653d f47f 04bd 9857 693d
000003a0: e0f5 2d3b b388 87bd 7878 163c 38e5 59bc
000003b0: 6c90 07bd 57f4 6fbc 604d 4abd daea c43c
000003c0: b326 4c3a 24e3 0bbd 4889 43bd 8e4f 32bd
000003d0: f8f0 a03c f5b2 4c3d 5f89 dd3c fa15 a2bc
000003e0: 70f5 63bd 9aaa cf3c 18e1 89bb 4f52 013d
000003f0: 0e1e 46ba 2147 ecbc e1ad 9cbc 94b2 77bd

policy_head.3.bias f4 [16]
-0.0482484 0.018815624 -0.056393456 -0.022564882 0.02813614 0.014991254 -0.031513393 0.031981483
0.06636535 0.058130678 -0.042549938 -0.056258913 0.034985106 0.034677457 -0.011572568 0.044624735
00000000: 1da0 45bd 3923 9a3c d3fc 66bd fdd9 b8bc
00000010: c37d e63c e09d 753c 3014 01bd 04ff 023d
00000020: 8eea 873d 6f1a 6e3d d848 2ebd bf6f 66bd
00000030: 8b4c 0f3d f309 0e3d de9a 3dbc 6dc8 363d
