models/weights_generation_3.pt (torch, 631044 bytes, 22 tensors)

features.0.weight f4 [32, 4, 3, 3]
00000000: d467 263e b832 413e 2bc9 57bd 3c08 02be
00000010: 6a4c cc3d edd6 d6bd a637 403e dee7 493d
00000020: 3c34 d2bd ad87 803d 565c 4d3e f2bc e33c
00000030: c783 21bd 278d 0f3e f1dd 8b3d 8631 233d
00000040: 736f 4abd 14be 38bd 5f20 f3bd 259f f4bd
00000050: 3b30 b13d 9121 373c ee89 2ebd 578c 333e
00000060: e5a4 09be 26eb bd3d 5c1c e93d 76a2 47bd
00000070: 86e9 993d 119a 0f3e 6060 79bd f0af 523d
00000080: 35e1 273e e667 f03d 00f4 7ebb f8d2 cdbd
00000090: b84f cbbd 07de f33d cb1c 0b3e a34b 3abd
000000a0: bd6e 30bd bf50 323e d229 f73d e5df e0bc
000000b0: a5b6 57bc 6545 183e b29b 10be 6724 153e
000000c0: 9d6c 243e 2076 1b3e 3913 58bd ec06 8fbd
000000d0: 6ea9 a1bd 1d77 1b3e 0e34 933d d996 83bd
000000e0: 676d fe3d e1e4 d8bd cda9 e93c b33c 03be
000000f0: 11c8 0bbe 95c1 6fbd 86e6 843d 63f9 dbbd
00000100: b85c 05be aecd b0bd a4fe 29be da37 953d
00000110: 6011 923d c069 df3c e202 f93d f299 dd3d
00000120: 5679 b93d 28a9 423e c01c c6bd b954 e83d
00000130: 920c fcbd 7a67 b9bd 0456 37bc e57f c23d
00000140: 4507 993c 07d1 5c3d eaae 613d 05cd c0bd
00000150: 9220 bdbd 4025 f2bd e8a8 5d3c 6676 143e
00000160: 9290 22bc 7300 d1bc 49e6 ba3d 6c1d e8bd
00000170: a4f7 153d cb01 f53d 1a5c a53d a9b4 83bd
00000180: c2e4 87bd 6674 423e 294b 3d3e 209d 903b
00000190: 184f a73d 8478 0dbd b8f7 cbbd 6b1e e3bd
000001a0: efd6 1abe e5c5 243e 4864 cfbd bafa ec3d
000001b0: d17f 0f3e 751e d3bd fce2 f83d 30fb 24be
000001c0: 7ff2 3b3d 2fbc 0f3e 79c5 05be ae43 593e
000001d0: 7502 213e b3f6 4c3e 79ee e23c 7433 f43d
000001e0: 9092 56bd f1a0 aebd 465f a33d a43a 973c
000001f0: 634c 493e 0a71 a63d d52b c9bd 833f ebbc
00000200: 3744 d63d 4f52 233e 83e2 b73d 1252 1e3e
00000210: 7d67 483e d692 07be faed 90bd 5bc2 1c3e
00000220: 21c6 033e 55b5 063e 7a19 8e3d f589 203e
00000230: 7e0d a0bd e329 133e 7ea0 dabd 5caf 743d
00000240: 6895 d13d aa75 093e e5dc 063e 3928 0e3e
00000250: 6fc3 89bd dc8c 983d 9d35 63bd 8c39 a4bc
00000260: 0db3 063e 0d13 6bbc 4913 373d 83da b93d
00000270: 6068 2cbc 6a7c 9abd 751f 48bd 6a1f b2bd
00000280: eca1 59bc b1e5 79bd 744b b6bd f92b 13be
00000290: 6a0c c8bd e099 5c3e 492d 7e3d a847 1c3c
000002a0: cd1c 01be 0752 6c3c 868d 363c ecee 5e3d
000002b0: 2957 1a3e 025e df3d c03c 0abc 84c4 04be
000002c0: 32e9 c33d d48f 623d d82c d8bd 8204 bd3d
000002d0: 2997 113e bc6d c7bc 6fff 2dbe 82b4 13be
000002e0: c343 343e aeea 67bd c5a4 123e 2cd6 20bd
000002f0: 2377 033e ab93 a5bd 7139 333e e3b6 5ebc
00000300: 41a6 fd3b 39f9 1a3e 2d7e aa3d 7df5 06be
00000310: f8d1 7b3d dd0c 0fbe cdc1 2c3e b7ac 463d
00000320: aded 423e 54af 1c3e 320a 5ebe 53de e43d
00000330: e367 013e 9c9a 143e a6dd cebd 207f 003d
00000340: 68f8 8dbc 2dd4 113e c07d 833c d027 5bbc
00000350: 43bc a1bd fadc 28be 0aef b23d c604 d8bd
00000360: 67e8 043d e6f9 183d 2f2a 8aba 7631 56bb
00000370: 146f 263e ee22 1ebe 3eb3 263e 5d4d 4dbc
00000380: 1b23 d1bd fd42 da3c ecd0 f33b f940 753d
00000390: ef82 fd3c ed04 523e c9d1 5b3d c205 313e
000003a0: a62a 1a3d bd3e c1bc 72d5 423e 5e53 713c
000003b0: 7608 bfbd 6e6c 7fbd 5c57 3ebe 1e92 363e
000003c0: 8350 ae3b 7ee5 dcbd fd3e 823d c016 3cbb
000003d0: 7a07 0fbe b697 c93d cb8f 0b3e a254 23be
000003e0: a6da f83d 0e9e a9bd a82e b93c e099 b13c
000003f0: 217a 82bd fa1b e6bd 836a 483e 9465 1f3e
0.16250545 0.18867004 -0.052682083 -0.12698454 0.09975512 -0.104902126 0.18771228 0.04929339
-0.10263869 0.06275878 0.20054755 0.027800057 -0.039432313 0.14018689 0.06829441 0.03984215
-0.049422693 -0.045103148 -0.11871409 -0.11944417 0.08651777 0.011177436 -0.04261201 0.17534004
-0.13441809 0.09273367 0.11382362 -0.04873892 0.07515244 0.14023615 -0.060882926 0.05143732
0.16394503 0.11738567 -0.003890276 -0.10050005 -0.099273145 0.11907583 0.13585202 -0.04548229
-0.04307436 0.17413615 0.120685235 -0.027450511 -0.013166104 0.14870222 -0.14121893 0.14564668
0.16057058 0.1518178 -0.052752707 -0.06983742 -0.07893644 0.15182157 0.07187663 -0.06425256
0.124232106 -0.1059053 0.02852335 -0.12816124 -0.13650538 -0.058534224 0.06489281 -0.10740926
-0.1302365 -0.0863298 -0.16601044 0.072860435 0.0713222 0.027272105 0.12158753 0.10820378
0.09056346 0.1900984 -0.096734524 0.113442846 -0.12307085 -0.0905294 -0.011189941 0.0949705
0.018680224 0.05391028 0.05509845 -0.09414104 -0.09234728 -0.11823511 0.01352904 0.1449829
-0.009922164 -0.02551291 0.09125955 -0.11333737 0.03661312 0.119632326 0.080742076 -0.064309426
-0.06635429 0.18989715 0.18485703 0.004413262 0.08169383 -0.03453876 -0.09959358 -0.11089786
-0.15121053 0.16091116 -0.10126549 0.1157126 0.14013602 -0.103085436 0.12152669 -0.16111445
0.04588556 0.1403663 -0.13063611 0.21217224 0.15723594 0.20015983 0.027701603 0.119238764
-0.052385867 -0.08526791 0.07977156 0.01846058 0.19658045 0.08127029 -0.098228134 -0.028716808
0.1046223 0.15949367 0.089787506 0.15460995 0.19570728 -0.13239607 -0.070766404 0.15308516
0.12868549 0.1315511 0.06938453 0.15677626 -0.078150734 0.14371447 -0.10675143 0.05973755
0.10233575 0.13423792 0.13170202 0.13882531 -0.06726729 0.07448742 -0.05547105 -0.020046972
0.1315424 -0.014347804 0.044696126 0.09074881 -0.010522932 -0.07543261 -0.048858125 -0.08697398
-0.013283234 -0.061010066 -0.0890111 -0.14372243 -0.09767993 0.21543074 0.062054906 0.009538569
-0.12608643 0.014423854 0.01114214 0.054427072 0.15072311 0.109066024 -0.0084373355 -0.1296559
0.09565963 0.055312946 -0.10555428 0.092293754 0.1421782 -0.024344318 -0.16991971 -0.14424327
0.17603974 -0.056620292 0.14320667 -0.03926675 0.12838416 -0.08084806 0.17502381 -0.013593408
0.0077407663 0.15134133 0.08324847 -0.13179584 0.06147954 -0.1396975 0.16870804 0.048504557
0.19035979 0.15301257 -0.21683577 0.111752175 0.12637286 0.14512104 -0.1010087 0.031371236
-0.017330363 0.14241095 0.016051173 -0.013376191 -0.07897236 -0.16490546 0.08736999 -0.105477855
0.0324482 0.037347697 -0.0010541136 -0.003268329 0.1625331 -0.15443012 0.16279313 -0.012530652
-0.10211774 0.02664327 0.007440677 0.059876416 0.030946223 0.20509692 0.053666864 0.17287353
0.03763833 -0.023589486 0.19026735 0.014729349 -0.09327786 -0.062359266 -0.18588012 0.17829177
0.0053196563 -0.1078596 0.0635967 -0.0028700083 -0.13967696 0.0984339 0.13629071 -0.15950254
0.12151079 -0.082821 0.022605255 0.021679819 -0.063709505 -0.11235805 0.19571881 0.15566093

features.0.bias f4 [32]
00000000: e332 3e3e b1f8 0c3e 717b d63d 95da 263c
00000010: 53f7 f1bd f9e3 633c 3140 3c3e e27d 89bc
00000020: 4a5a d2bd e989 2b3e 5f7e c4bc 476f 7bbd
00000030: 6ea7 993d e802 033d b5b7 94bc e032 4ebd
00000040: 77f8 fb3d e881 a73d 1a74 5b3d 4d39 883d
00000050: ac29 883d d4c1 d43b 56c7 83bd 0873 98bd
00000060: 0c6e edbd 53d9 a8bd 8484 003d 704a 913d
00000070: 1fec 3fbd c8c8 723d 2f62 67bd 48d2 adbd
0.18574099 0.13766743 0.10472763 0.01018395 -0.118147515 0.013909333 0.18383862 -0.016783658
-0.102711275 0.16751827 -0.02398604 -0.06138542 0.07502638 0.031985193 -0.018154005 -0.050341487
0.1230325 0.081790745 0.05357752 0.06651554 0.06648573 0.0064928327 -0.06434505 -0.074438155
-0.115932554 -0.08244576 0.031376377 0.07094276 -0.046856042 0.05927351 -0.05649012 -0.084873736

features.residual_block_0.conv1.weight f4 [32, 32, 3, 3]
00000000: 3f9d 3abd b0f1 88bd e772 63ba 80d3 8f3b
00000010: 1c7d 1cbd 2988 893d dc25 9bbd 19e8 45bd
00000020: f902 593d 4c92 e3bc 6d7b 843d a6b4 aa3b
00000030: f5b9 cf3c 993d 753d 0b51 873d b437 35ba
00000040: 7464 76bd b0fb 873d c5ed 07bd e92b 8cbd
00000050: 26dc dd3c 2320 44bd 9f05 c73c d824 133d
00000060: a5b1 603d d6ec 513d d01d 083d e764 a23c
00000070: 3c36 333d de1a 90bc cd57 1a3c 8b5e 523d
00000080: 77d1 573d eabb 3dbd c93e 9a3d 321a 563d
00000090: 0932 97bc c212 90bd 7bfa 2abd 9dd4 763c
000000a0: 73ad 7d3d 9ffa 423d 42f8 5f3c 4218 5f3d
000000b0: 3b8d 43bc 5b4a 12bd f93a 4c3d 83ed f53c
000000c0: 51f5 40bd e73d 08bd 72ea 5a3a 6283 39bd
000000d0: 9e20 353d f30c 04bd 5b67 34bd ba28 2ebd
000000e0: 6528 163d 582e a83c 9dd7 983c d118 193d
000000f0: d0c4 96bd 17f9 0a3d f98c 23bd ab12 773d
00000100: 669c 533d fbc3 923d 23cf 993c 2fbb 38bd
00000110: 89b9 4f3c 837a 333d 982f 1bbb d634 853d
00000120: 8397 89bd 3cae 96bc e070 893d 667f 703b
00000130: 5b1b a6bc fcbc bebc 5ed0 4cbd 37bd c63a
00000140: 9245 9fbc 43bb e1bc bc17 573d 29e6 193d
00000150: bfce d23c f0f7 00bd 69b5 9bbc 9a88 293d
00000160: 8de3 513c 9d13 e03b 59de 7b3d c8ad b7bb
00000170: 7746 8fbc d16c 313c f554 8bbd 140b a8bb
00000180: fa26 183d ef9c 6abd c5df f43c ad58 163d
00000190: 53a1 2f3d 7f72 acbc 3af3 253d 47e1 7cbc
000001a0: fc9d f5bc 3958 833d 64d2 a93c 2970 4c3d
000001b0: 02d1 273c bf92 3f3d c569 29bd 759e a93a
000001c0: af10 1bbd 78c3 053c 60b3 0b3d fe6b 7538
000001d0: 4ef8 0c3d f54c 66ba 60ce 843d 5283 45bc
000001e0: 7c1e 033d b758 aa3d 50b3 29bb 6b55 0fbd
000001f0: 667a a7ba 4929 82bd 8c72 333c c192 8b3d
00000200: 4856 423c 6049 253c bdd0 09bd 3e7a 22bd
00000210: dd58 89bd 7209 ab3a d64f 6bbd 491e 3abb
00000220: a4fc ea3b a1f4 26bd e752 4f3d 6e9d 83bc
00000230: 1013 fe3c ab4c 07bd e14d a43c d158 8039
00000240: aef9 613d 7826 e23c ea82 023d 24d5 d53c
00000250: bdb9 cd3b 70f3 153c 5eb0 a1bc 91b9 a7bb
00000260: ba09 ab3c 69ef 03bd fe5d 3c3d 83b9 c73a
00000270: b9b2 9ebd e3dc 89bd 88ae 193d bd47 c53a
00000280: d377 7f3c e60b 1bbc 332e ebba 984b 85bc
00000290: bcc1 49bc 6141 45bc 3f01 f8bc d673 a1bb
000002a0: 7392 97bd 4c42 323c a2a7 60bd c3c9 bcbc
000002b0: 3049 993d 16ff a5bc 66e6 9dbd c909 34bc
000002c0: 4df3 7e3c 0e2f 8a3b 6a07 433d 925b 6e3d
000002d0: 86eb 65bd 33b3 80bb 6fc4 4a3d e9a1 853b
000002e0: 53d1 6abd 9061 67bd 8733 f73c 628a 2e3d
000002f0: e53a 02ba dae3 04bd 15f0 353d 5da5 43bd
00000300: 1b8e e93c 20a9 a83d 33e2 4fbc a515 a73c
00000310: ba88 a4bc e3bc 233d b483 a53c 7816 b83c
00000320: f238 dd3c d8da f93c 84cd 813d e559 2c3d
00000330: 6c60 f9bc 6b2b 1fbb 9a97 9cbc e644 53bd
00000340: 8247 b13c c517 423d 6410 8a3d 9bb9 4f3d
00000350: 91e4 76bc 254e 613b 83d2 45bb 3879 233d
00000360: d1b0 2c3d 4ba6 c33c 84b4 f93c 5c71 8f3d
00000370: dc9c 12bd 1379 303b bfb1 533d 3567 83bd
00000380: 15bf 553d d4b9 2a3d bbb3 463d 3f01 e23c
00000390: 3436 903b e55f 723d a1a2 f33b 6e62 18bc
000003a0: 9354 db3b a997 3ebc 4d54 86bb bb71 aa3d
000003b0: 4f83 f6bc 469b 85bd 8147 ba3d 0365 8f3c
000003c0: d92a 99bd 588e 183d 0463 5b3d 3c17 62bd
000003d0: 5025 99bd 116b 2cbd e651 42bc 3f73 283c
000003e0: 4fca 353c c40c 22bc ba71 153d da54 9dbc
000003f0: b3a5 f7bc ed96 74bc 7c9e b1bc 535e ebba
-0.045560118 -0.06686723 -0.00086764846 0.0043892264 -0.03820525 0.067154236 -0.075755805 -0.04831705
0.05298135 -0.02777972 0.06468854 0.0052095233 0.025357226 0.059873197 0.066072546 -0.00069129025
-0.060154393 0.066398025 -0.03318574 -0.06844313 0.027082514 -0.04788221 0.024294673 0.03592381
0.054856915 0.051251255 0.033231556 0.019823505 0.043752894 -0.017590936 0.009420347 0.051359694
0.052689996 -0.046321787 0.075315066 0.052271076 -0.018456476 -0.07034828 -0.041742783 0.015065339
0.061932992 0.047602292 0.013670029 0.054466493 -0.011935527 -0.035715442 0.04986093 0.030020481
-0.047108952 -0.03326216 0.0008350975 -0.045291312 0.04422056 -0.03223891 -0.04404388 -0.04251931
0.036659617 0.02052991 0.0186575 0.037377182 -0.07361758 0.033928957 -0.039929364 0.060320538
0.051662825 0.071662866 0.018775528 -0.045100387 0.012678512 0.04381801 -0.002367949 0.06504218
-0.06718352 -0.018393628 0.06710982 0.003669703 -0.020276716 -0.023283474 -0.050003402 0.0015162592
-0.019442353 -0.027555114 0.05251287 0.037573013 0.02573335 -0.03148645 -0.019007402 0.04139004
0.0128106 0.0068382756 0.061491344 -0.005605433 -0.017489655 0.0108291665 -0.06803314 -0.0051282737
0.037146546 -0.05727857 0.029891858 0.03670566 0.04287846 -0.02105069 0.040515162 -0.01543457
-0.02998256 0.064133115 0.020730205 0.04991165 0.010242702 0.046770807 -0.041360635 0.0012940901
-0.037857708 0.008164279 0.034106612 5.8513127e-05 0.03441649 -0.0008785271 0.064846754 -0.012055235
0.032011494 0.08317702 -0.0025894232 -0.03499357 -0.0012777566 -0.06355531 0.010952603 0.068151005
0.011861391 0.010088295 -0.033646334 -0.03966736 -0.067064025 0.001304908 -0.057449184 -0.00283994
0.0071712304 -0.04076064 0.05061617 -0.01606628 0.03101495 -0.0330321 0.020056667 0.00024480236
0.055169754 0.027606234 0.03186313 0.02610261 0.0062782452 0.009152278 -0.019737419 -0.005118557
0.020878661 -0.03221074 0.045988075 0.0015237782 -0.077489324 -0.06731584 0.03751996 0.0015051287
0.015592533 -0.009463286 -0.0017942846 -0.016271397 -0.012314256 -0.012039513 -0.030274032 -0.004927139
-0.0740098 0.010880064 -0.054847367 -0.023045426 0.074846625 -0.020263236 -0.07709961 -0.010988661
0.015560937 0.004217035 0.047614492 0.058192797 -0.056132816 -0.003927612 0.04950374 0.004078139
-0.057328533 -0.056489527 0.030175937 0.04261244 -0.00049678824 -0.03244386 0.044418413 -0.047765125
0.028510144 0.08235383 -0.012688207 0.020396063 -0.020084728 0.03997506 0.020204403 0.022471651
0.027004693 0.03049986 0.06338027 0.042077918 -0.030441485 -0.0024287354 -0.019115258 -0.05157938
0.021640543 0.04738595 0.067414075 0.050714117 -0.015069143 0.0034378853 -0.003018529 0.039910525
0.042160813 0.023883006 0.030481584 0.070040435 -0.035794124 0.0026927635 0.051683184 -0.064161696
0.052184183 0.041681126 0.048511248 0.027588485 0.0044009928 0.059173483 0.0074351584 -0.009300811
0.0066934316 -0.011632838 -0.004099405 0.083224736 -0.03009191 -0.06523757 0.090956695 0.01750422
-0.07478876 0.037245125 0.053561226 -0.05519794 -0.0747782 -0.042094294 -0.011860346 0.010281383
0.011095597 -0.009890739 0.03648541 -0.0192055 -0.030230379 -0.014928562 -0.021682017 -0.0017957188

features.residual_block_0.conv1.bias f4 [32]
00000000: 48d1 e83c 31a8 f43c 0a47 453d d51b ff3c
00000010: 8c3c cf3c a49f 0b3d 8a59 3bbd 0f56 213d
00000020: 8e59 85bc 9924 453c 1bd5 00bb 8d80 5c3d
00000030: 074b d83a bb04 1f3d 9796 5a3d f1a6 afbc
00000040: bea2 e0bc 0aa0 6a3d 5f8c 5a3d 0125 9a3b
00000050: cc0a dbbc b095 baba dd56 7d3d bb23 bcbc
00000060: 0e3d 0bbd 3aeb 97bb 245c cb3c 71b6 e0bc
00000070: 205b 073d 2886 58bc f8af 553d 486a 7bbb
0.028420106 0.029865356 0.04816345 0.031141201 0.025297426 0.034087792 -0.045739688 0.039388712
-0.016278055 0.012032651 -0.001965827 0.053833533 0.0016501852 0.03882287 0.05336627 -0.021441909
-0.027421352 0.05728153 0.053356525 0.0047041182 -0.026738547 -0.0014235284 0.061850417 -0.022966256
-0.033993773 -0.0046361955 0.02482421 -0.027430745 0.033045888 -0.013215579 0.05216977 -0.003836291

features.residual_block_0.bn1.weight f4 [32]
00000000: 15b1 863f 27f8 843f a57e 873f 7169 843f
00000010: 8cb9 863f ae96 853f 28eb 843f 603b 843f
00000020: a64e 873f 97c9 843f c5ec 873f 2f04 8a3f
00000030: c630 893f c990 863f 6206 843f 0d9a 853f
00000040: 851f 893f 6dad 883f d955 853f 259e 873f
00000050: 5538 883f bfd3 863f 5f0a 863f 147f 873f
00000060: cf1d 883f 69b8 853f 78ce 863f 0561 843f
00000070: 754a 853f 60c5 873f 5707 873f 3577 893f
1.0522791 1.038823 1.0585524 1.0344678 1.0525374 1.0436609 1.0384264 1.033062
1.0570877 1.037402 1.0619131 1.0782527 1.071801 1.0512935 1.0314448 1.0437638
1.0712744 1.0677925 1.0416824 1.0595137 1.0642191 1.053337 1.0471915 1.0585656
1.0634097 1.0446903 1.0531759 1.0342108 1.0413347 1.0607109 1.0549115 1.0739504

features.residual_block_0.bn1.bias f4 [32]
00000000: f563 553c 52e3 993c 4279 6b3c 08c7 643b
00000010: fb35 393c 8a4e 923c 42b2 e43b 801e a93b
00000020: 924d 1b3c 69fc 383c bb82 7f3c 03fb e03c
00000030: 8fc1 4d3c fbc4 5d3c 347d 0a3c 2b06 ed3b
00000040: dbea db3c 0201 a53c 6445 553c 74a1 a33c
00000050: 4b71 633c b7c8 843c f318 fb3b 3556 903c
00000060: 9ac4 863c d2f1 783c 37b1 803c 7031 dd3b
00000070: 5c0a 883c 0133 a43c dedc b23b 66b1 8c3c
0.01302432 0.018785153 0.014372172 0.003490867 0.011304374 0.017859716 0.006979258 0.0051611066
0.009478943 0.011290648 0.015595133 0.027463442 0.012558355 0.013535733 0.008452702 0.0072334013
0.026845386 0.020142082 0.013017032 0.019974448 0.013881992 0.01620899 0.0076628863 0.017619232
0.016451169 0.015194373 0.015709503 0.006750278 0.016606502 0.020043852 0.0054584583 0.017174434

features.residual_block_0.bn1.running_mean f4 [32]
00000000: 0000 0000 0000 0000 0000 0000 0000 0000
00000010: 0000 0000 0000 0000 0000 0000 0000 0000
00000020: 0000 0000 0000 0000 0000 0000 0000 0000
00000030: 0000 0000 0000 0000 0000 0000 0000 0000
00000040: 0000 0000 0000 0000 0000 0000 0000 0000
00000050: 0000 0000 0000 0000 0000 0000 0000 0000
00000060: 0000 0000 0000 0000 0000 0000 0000 0000
00000070: 0000 0000 0000 0000 0000 0000 0000 0000
0.0 0.0 0.0 0.0 0.0 0.0 0.0 0.0
0.0 0.0 0.0 0.0 0.0 0.0 0.0 0.0
0.0 0.0 0.0 0.0 0.0 0.0 0.0 0.0
0.0 0.0 0.0 0.0 0.0 0.0 0.0 0.0

features.residual_block_0.bn1.running_var f4 [32]
00000000: 0000 803f 0000 803f 0000 803f 0000 803f
00000010: 0000 803f 0000 803f 0000 803f 0000 803f
00000020: 0000 803f 0000 803f 0000 803f 0000 803f
00000030: 0000 803f 0000 803f 0000 803f 0000 803f
00000040: 0000 803f 0000 803f 0000 803f 0000 803f
00000050: 0000 803f 0000 803f 0000 803f 0000 803f
00000060: 0000 803f 0000 803f 0000 803f 0000 803f
00000070: 0000 803f 0000 803f 0000 803f 0000 803f
1.0 1.0 1.0 1.0 1.0 1.0 1.0 1.0
1.0 1.0 1.0 1.0 1.0 1.0 1.0 1.0
1.0 1.0 1.0 1.0 1.0 1.0 1.0 1.0
1.0 1.0 1.0 1.0 1.0 1.0 1.0 1.0

features.residual_block_0.conv2.weight f4 [32, 32, 3, 3]
00000000: ed22 ef3c 588f 5f3d 57f5 273d b902 08bc
00000010: 5e7e a53c 858b 5d3d 981b 29bd ebfc a0bc
00000020: b3c5 0f3d 5ebb 5cbd d45e 53bd 793a 03bd
00000030: 1800 8bbd 1ef8 6dbb ed07 2cbd fd84 273c
00000040: d18e c13a cebf cfbb fff6 053d 652c 5cbc
00000050: 0fa6 3d3d 2ee8 803c 3a29 6b3d 3eea aa3d
00000060: a4c6 0b3d 2350 f13c 4426 75bc 3460 84bd
00000070: 2cb8 58bc 7ece 133c 9bef fc3c 79a5 993d
00000080: d688 f7bc 05d4 72bc a3b5 7bbd a7bc d93c
00000090: f973 1b3d 5556 01bb 9c2b 56bd 4b6f 3b3c
000000a0: bf5b cfbc 6369 a0bd c71f 0fb9 7687 b7bc
000000b0: 34a6 373d 582d b33d 9bd1 48bd 8895 40bb
000000c0: 1498 063d 6fa8 cabc d7a8 583d 1395 f43c
000000d0: a295 fdbc 3551 293b 9cd5 103d c987 a2bb
000000e0: e345 94bc 05ea 013b 13fb a2bd 90a5 863b
000000f0: 2a02 8a3d 5215 153c 1aad 17bd 8d3a 303d
00000100: 2204 973d 6e0a 18bd 84e2 253d ad53 dfba
00000110: 3ca2 35bc 1e6d 2fbc e54a 5e3d 6949 03bd
00000120: 8414 da3c 03a8 c2bc faae 543d fbfc bfbc
00000130: 0920 9a38 a7dd 8b3d 172f cf3c d1b4 1e3d
00000140: f908 e93c 46ec 8bbd 6c5e 573c 82de 6bbd
00000150: 486f 9cbc bbce 883d da75 babc ccbe 46ba
00000160: 82e6 b23c cda4 083d 0587 9ebc ce1c 99bc
00000170: 43a7 5bbc 8801 013d 77b1 88bd 1a9d 843d
00000180: af9c 76bc b4b4 1b3d d9b3 3a3a 4086 463d
00000190: 8410 27bc aa92 4d3d f316 993d afb4 d5bc
000001a0: 26d0 88bc 7632 de3c 88f1 96bd 9040 cb3c
000001b0: 0adf 913d 324e 103d c717 093c 4520 983c
000001c0: a569 98bd c097 4d3d beb0 9ebd 55f4 543d
000001d0: fc45 85bd 7d48 263c 2126 42bb 63a0 5fbc
000001e0: 469d 9d3b 935d 1ebd 8418 b23d 6b89 8abd
000001f0: 2c7a 0fbc 92ad c0bb 895e b83c f35c 25bd
00000200: 4305 253d f58d 203c bb61 6a3d 7c0e d13b
00000210: 1ba1 2c3d ed8a f93c e327 b1bc 4bcb 363d
00000220: 0a3d 60bd 1e40 b5bc a7a7 323d f2b4 43bd
00000230: 9896 0a3d b6e6 963d d557 8fbd d3ea 83bc
00000240: bc9c 36bd 5d1f 82bd bbc4 12bd f7e1 0a3b
00000250: 24ed b63c 5b27 9cbb 1c92 793d 8082 083c
00000260: dce9 8a3c 0905 b73d c1d5 06bd 6819 b0bc
00000270: 290e 68bd 7fe7 b13d cf71 9d3d 0203 f93c
00000280: d99c 743d 1c43 833a c986 7ebb f8c1 193d
00000290: b593 f7bb 2e5f 0fbd c27e 823d 43ce 033d
000002a0: f3a7 daba e92d 623b f9e9 b5bc 151e 5bbd
000002b0: aea8 4b3c 1471 51bd c382 953d 0ab4 8f3c
000002c0: 4cdc b03c c64f 13bd bad8 24bd 8d97 2d3d
000002d0: f04b 5e3d fec4 5ebd 7e6d 1dbd 4ece 4bbd
000002e0: 7cbf 843d 8832 4f3b 7b9e 093c 7ec4 6abd
000002f0: d803 873c db23 833d 5e5f ffbc 90d8 2abd
00000300: be27 d9bc 1598 a63d 1ad0 103c e7a1 50bd
00000310: 9503 a93b c4e2 3bbd e5ce 7e3b fa11 82bd
00000320: 6f46 40bd 368f 40bd 3264 443d f7fb eebc
00000330: da53 083a cf6a 44bd 077c 17bd 4cf9 cb3c
00000340: 5308 113d fcee 4d3d 016c 33bc 4e5b d33b
00000350: f675 4cbc 04ea 2bbd c911 843c 04e8 1d3d
00000360: 3618 d4bc 4365 833d 0b59 6c3d dc97 123d
00000370: daea a7bc e8b1 803d 50e5 5ebd e01e c03b
00000380: c12d 4b3d a203 37bd b372 8abd f99f e6bc
00000390: 2fa8 b439 8eb0 3e3c f5df 9c3d 9146 24bd
000003a0: cc57 6f3c e453 083d e3e6 843d 6446 ba3d
000003b0: 2157 44bd ef6e 13bc ed0c 23bd 2bd8 7bbd
000003c0: 491c 3c3c 5f03 b7bc 12b9 91bc 1dec 703c
000003d0: dba8 2b3c c1e4 a03b cfe9 2bbd 027c 5b3d
000003e0: 7edd aa3c 44b1 ce3b 5b3a 2c3d 9cb6 5c3d
000003f0: 33ab da3b dc00 583c 7588 bdbc 3e72 4cbd
0.029191459 0.054580063 0.04100546 -0.00830143 0.020201858 0.054088134 -0.04128608 -0.01965185
0.03510065 -0.053889625 -0.051604107 -0.032038186 -0.06787127 -0.003631122 -0.041999746 0.010224578
0.0014767294 -0.0063400036 0.032706257 -0.013438319 0.046300944 0.015735712 0.057412364 0.083454594
0.034124985 0.029457157 -0.0149627365 -0.06463662 -0.013227504 0.0090214 0.030875972 0.075022645
-0.030216616 -0.014821057 -0.06145252 0.026579214 0.037952397 -0.0019735296 -0.052287683 0.0114401085
-0.025312303 -0.07832601 -0.0001364938 -0.02240346 0.044836238 0.08748883 -0.04902802 -0.0029386003
0.032859877 -0.024738519 0.052895393 0.02985624 -0.03095514 0.0025835757 0.035359964 -0.0049600345
-0.01809973 0.0019823324 -0.07958045 0.004109092 0.06738694 0.009099321 -0.037030317 0.04302459
0.07373835 -0.03711932 0.040499225 -0.0017038487 -0.011086043 -0.010707168 0.054270644 -0.03205243
0.02662111 -0.023761755 0.051924683 -0.02343606 7.349259e-05 0.06829386 0.025291009 0.03874666
0.028446661 -0.06832175 0.0131450705 -0.057585247 -0.019096032 0.06680056 -0.022761274 -0.00075815315
0.02183843 0.03336029 -0.019351492 -0.018690493 -0.0134065775 0.0314956 -0.06674474 0.06475277
-0.015052005 0.03801413 0.00071221363 0.048467875 -0.010196809 0.050188698 0.0747508 -0.026087133
-0.016700815 0.027123671 -0.07370287 0.02481106 0.071226195 0.035230823 0.008367485 0.018570075
-0.07442025 0.05019355 -0.07748555 0.051990826 -0.06507489 0.0101491185 -0.0029624777 -0.013649079
0.004810008 -0.038663458 0.08696082 -0.06764492 -0.008757155 -0.005880066 0.022506015 -0.040371846
0.04028822 0.00979947 0.05722211 0.0063799005 0.04214583 0.030461753 -0.021625465 0.04462747
-0.05474571 -0.0221253 0.043616917 -0.047779985 0.033835024 0.07368223 -0.069991745 -0.016103184
-0.044583067 -0.06353638 -0.035832148 0.0021191814 0.022329874 -0.0047654337 0.060930356 0.008331895
0.016957216 0.08936507 -0.032918695 -0.02149649 -0.05665413 0.086867325 0.07687723 0.030396942
0.059719894 0.0010014507 -0.0038837662 0.0375385 -0.00755545 -0.03500288 0.063718334 0.03217913
-0.0016682133 0.0034512228 -0.022206293 -0.053495485 0.012430353 -0.05113323 0.073003314 0.017541904
0.02158942 -0.03596475 -0.04024575 0.04238086 0.05427164 -0.054387085 -0.038434498 -0.049757294
0.06481835 0.0031615812 0.008399601 -0.057316296 0.016481325 0.06403323 -0.031173404 -0.041710436
-0.026508208 0.08134476 0.008838678 -0.050935652 0.0051578977 -0.045870557 0.0038880643 -0.06351085
-0.04694217 -0.047011577 0.047947116 -0.02917288 0.0005200483 -0.047953423 -0.036983516 0.024899147
0.03540833 0.05027674 -0.010951043 0.0064500934 -0.012479296 -0.04197122 0.016121762 0.038551345
-0.02589045 0.064157985 0.057702105 0.035789356 -0.020497728 0.06283933 -0.05441791 0.0058630556
0.04960418 -0.0446812 -0.067601584 -0.028152453 0.00034457582 0.011638774 0.07659904 -0.04010636
0.014608335 0.03328313 0.06489351 0.09095457 -0.047934655 -0.008998617 -0.03980725 -0.06148545
0.011481353 -0.022340475 -0.017788444 0.014704731 0.01047727 0.004910082 -0.041971024 0.05358506
0.020857569 0.006307753 0.04204784 0.053885087 0.0066732406 0.013183799 -0.023136357 -0.049913637

features.residual_block_0.conv2.bias f4 [32]
00000000: b2f5 1cbd ce43 833d bcac b5bc 77f2 433d
00000010: 1c81 2abd af85 32bd 9808 85bc 2305 153d
00000020: 0260 fab9 fbc5 1abc 0049 213d 198e 13bc
00000030: fb2e 0cbd a758 4d3d 45cb 8d3c cb07 ae3c
00000040: 4e40 97bc d9cd 93bb 30aa 05bd 1d3f 68bc
00000050: 038b 173c 14b2 1c3c a7e4 edbc f63a 173d
00000060: 0b34 533d 81b4 5a3d 1d80 c13c 4046 a1bb
00000070: 16b1 503d 79ee e8bb 309f 223c 03e7 323d
-0.03832025 0.06409417 -0.022177093 0.047838654 -0.041627035 -0.04358452 -0.01623945 0.036381852
-0.00047755247 -0.009446616 0.03937626 -0.009006047 -0.03422449 0.050133374 0.01730884 0.02124395
-0.01846328 -0.004510623 -0.032633007 -0.014175204 0.009249452 0.0095639415 -0.029039694 0.036921464
0.051563304 0.0533948 0.02362066 -0.0049217045 0.050950132 -0.0071085063 0.009925649 0.04367734

features.residual_block_0.bn2.weight f4 [32]
00000000: 3196 863f a88d 863f aa6c 853f 652b 873f
00000010: d33b 853f 5981 873f 6a99 883f dbd7 853f
00000020: 5872 863f 432a 863f 907a 853f 7c3d 833f
00000030: 98b1 873f 6194 873f f852 873f 7110 843f
00000040: eee9 823f 584d 853f de63 883f fd88 883f
00000050: 7df0 833f 01ff 853f 2911 863f 6299 873f
00000060: 4562 873f 9082 863f e52d 873f 25b4 833f
00000070: 3229 853f 73d3 873f 4334 873f ab9d 873f
1.0514585 1.051198 1.0423787 1.0560118 1.0408882 1.0586349 1.0671818 1.0456499
1.0503645 1.0481647 1.0428028 1.0253139 1.0601072 1.0592157 1.0572195 1.0317518
1.022764 1.0414228 1.0655477 1.0666806 1.0307766 1.0468446 1.0473987 1.0593684
1.0576864 1.0508595 1.0560881 1.0289351 1.0403197 1.0611404 1.0562824 1.0594991

features.residual_block_0.bn2.bias f4 [32]
00000000: c78a d03b ddd7 c13b 4d9c 8e3c 0108 6c3c
00000010: fcac c13b 8369 653c 54eb 873c 043e 9d3b
00000020: dbc0 c53b 7892 533c 955a dc3b 460d 313b
00000030: 65e2 3e3c 52d0 0f3c f7e6 623c 5480 3b3b
00000040: 2c32 dd3b cf68 423c 4e69 873c 4572 733c
00000050: 3ad2 c53b cccf 3d3c 1714 243c 7f24 d03b
00000060: 6a04 1c3c 9252 ef3b efc7 d73b 0c68 613b
00000070: 4cf9 893a 0864 533c fed8 bf3b ae96 b53b
0.0063642 0.0059156255 0.017408514 0.014406205 0.005910514 0.014002207 0.016591705 0.0047986526
0.006034953 0.012913339 0.0067246654 0.0027015968 0.011650656 0.008777695 0.013849012 0.0028610425
0.0067503657 0.011865809 0.016529705 0.014858787 0.006037024 0.011585187 0.010014555 0.006352007
0.009522537 0.0073035443 0.0065851132 0.0034394292 0.0010526567 0.012902267 0.005854725 0.005541644

features.residual_block_0.bn2.running_mean f4 [32]
00000000: 0000 0000 0000 0000 0000 0000 0000 0000
00000010: 0000 0000 0000 0000 0000 0000 0000 0000
00000020: 0000 0000 0000 0000 0000 0000 0000 0000
00000030: 0000 0000 0000 0000 0000 0000 0000 0000
00000040: 0000 0000 0000 0000 0000 0000 0000 0000
00000050: 0000 0000 0000 0000 0000 0000 0000 0000
00000060: 0000 0000 0000 0000 0000 0000 0000 0000
00000070: 0000 0000 0000 0000 0000 0000 0000 0000
0.0 0.0 0.0 0.0 0.0 0.0 0.0 0.0
0.0 0.0 0.0 0.0 0.0 0.0 0.0 0.0
0.0 0.0 0.0 0.0 0.0 0.0 0.0 0.0
0.0 0.0 0.0 0.0 0.0 0.0 0.0 0.0

features.residual_block_0.bn2.running_var f4 [32]
00000000: 0000 803f 0000 803f 0000 803f 0000 803f
00000010: 0000 803f 0000 803f 0000 803f 0000 803f
00000020: 0000 803f 0000 803f 0000 803f 0000 803f
00000030: 0000 803f 0000 803f 0000 803f 0000 803f
00000040: 0000 803f 0000 803f 0000 803f 0000 803f
00000050: 0000 803f 0000 803f 0000 803f 0000 803f
00000060: 0000 803f 0000 803f 0000 803f 0000 803f
00000070: 0000 803f 0000 803f 0000 803f 0000 803f
1.0 1.0 1.0 1.0 1.0 1.0 1.0 1.0
1.0 1.0 1.0 1.0 1.0 1.0 1.0 1.0
1.0 1.0 1.0 1.0 1.0 1.0 1.0 1.0
1.0 1.0 1.0 1.0 1.0 1.0 1.0 1.0

features.batch_norm_0.weight f4 [32]
00000000: de3e 873f 117d 863f 5126 873f f41f 893f
00000010: 73b3 853f 4c9f 873f 8fe2 893f 8395 853f
00000020: 085c 873f 5f20 863f 4c64 853f 427f 843f
00000030: 8c30 873f 3f4f 883f 00ed 873f 2052 853f
00000040: 86d7 823f e460 853f 3d0d 8a3f 5146 893f
00000050: 6734 843f 707e 863f 50b2 883f af5f 883f
00000060: 0b09 883f 5238 873f 660b 883f c6c3 843f
00000070: 7a43 863f a8d1 883f e3c9 873f e49a 873f
1.056606 1.0506917 1.0558568 1.0712876 1.0445389 1.0595489 1.0772265 1.0436252
1.0574961 1.0478629 1.0421233 1.0351336 1.056169 1.0649184 1.0619202 1.0415688
1.0222023 1.0420194 1.078529 1.0724584 1.0328492 1.0507336 1.0679417 1.06542
1.062776 1.0564063 1.0628479 1.0372245 1.0489342 1.0688982 1.0608486 1.0594144

features.batch_norm_0.bias f4 [32]
00000000: 2f38 05ba c510 e53a 1185 abb8 4575 9639
00000010: ece8 663a 418b 49b9 58b5 663b 8fa6 d637
00000020: c5ee a938 6848 093b 88a0 71b8 5eac 28ba
00000030: f511 cd38 b768 e139 f3c4 b4b8 a606 34ba
00000040: d58f b13b fd4f 2839 5739 c239 8e65 0339
00000050: d477 2fb9 6ee7 f9b9 32b6 6039 c63f 9c39
00000060: 9881 c739 00e2 2d39 8b8a 373a 2770 38ba
00000070: e88b 62b8 a9d5 59ba 5ac9 84ba 7c0f 0dba
-0.00050819194 0.0017476311 -8.178701e-05 0.00028697602 0.0008808512 -0.0001922073 0.0035203304 2.5588348e-05
8.103022e-05 0.0020947699 -5.7608384e-05 -0.0006434376 9.7785065e-05 0.00042993363 -8.6197535e-05 -0.0006867446
0.0054187574 0.00016051526 0.00037045285 0.00012530966 -0.0001673394 -0.0004766541 0.00021430178 0.00029802154
0.00038052793 0.00016582757 0.00070015405 -0.0007035755 -5.4012897e-05 -0.0008309731 -0.0010130808 -0.00053810305

features.batch_norm_0.running_mean f4 [32]
00000000: 0000 0000 0000 0000 0000 0000 0000 0000
00000010: 0000 0000 0000 0000 0000 0000 0000 0000
00000020: 0000 0000 0000 0000 0000 0000 0000 0000
00000030: 0000 0000 0000 0000 0000 0000 0000 0000
00000040: 0000 0000 0000 0000 0000 0000 0000 0000
00000050: 0000 0000 0000 0000 0000 0000 0000 0000
00000060: 0000 0000 0000 0000 0000 0000 0000 0000
00000070: 0000 0000 0000 0000 0000 0000 0000 0000
0.0 0.0 0.0 0.0 0.0 0.0 0.0 0.0
0.0 0.0 0.0 0.0 0.0 0.0 0.0 0.0
0.0 0.0 0.0 0.0 0.0 0.0 0.0 0.0
0.0 0.0 0.0 0.0 0.0 0.0 0.0 0.0

features.batch_norm_0.running_var f4 [32]
00000000: 0000 803f 0000 803f 0000 803f 0000 803f
00000010: 0000 803f 0000 803f 0000 803f 0000 803f
00000020: 0000 803f 0000 803f 0000 803f 0000 803f
00000030: 0000 803f 0000 803f 0000 803f 0000 803f
00000040: 0000 803f 0000 803f 0000 803f 0000 803f
00000050: 0000 803f 0000 803f 0000 803f 0000 803f
00000060: 0000 803f 0000 803f 0000 803f 0000 803f
00000070: 0000 803f 0000 803f 0000 803f 0000 803f
1.0 1.0 1.0 1.0 1.0 1.0 1.0 1.0
1.0 1.0 1.0 1.0 1.0 1.0 1.0 1.0
1.0 1.0 1.0 1.0 1.0 1.0 1.0 1.0
1.0 1.0 1.0 1.0 1.0 1.0 1.0 1.0

policy_head.0.weight f4 [256, 512]
00000000: 3b97 463d 4aa5 303c 30a6 333d 7077 753c
00000010: 5f4c 02bd aec9 eabc 2177 9abb 1b39 2abd
00000020: ebc4 24bd 69b8 893c 933b e13c 5cc5 133d
00000030: 61f4 d13c 2a4a 243d 87f8 043b 94d7 ec3c
00000040: 3b35 ecbc 00dd c8bc 1421 23bb a42a 71bc
00000050: e135 ff3c 7cac 9c3c 1129 9f3c 4496 8fbc
00000060: 6939 4b3d ee92 cbbc eaa6 95bb fb1a ac3b
00000070: bc39 c13b c2f8 953c 0456 da3b 97b2 5f3c
00000080: eb36 e0bc 3b47 d53c 9d97 12bd 64cb debc
00000090: b14f ca3b fb08 11bd aca8 f73c 983e 21bd
000000a0: b139 3bbb d88e 7cbc 8891 2c3d 9b90 053d
000000b0: 1e4a 283d 0df3 b33c 45e1 9abc f8a4 313d
000000c0: b145 ef3c 47b2 2ebd 56ae cf3b 9c13 973c
000000d0: ed51 8b3c 9fdf b9bc 8a27 0abd cb18 78bc
000000e0: fb10 483d c7ca 083c cbf6 69bc 817e 223c
000000f0: d067 d63c 0aa9 c73c a0c4 f43c 2047 023d
00000100: 7015 0fbd 96e0 af3c 5c63 223d 8eef 883c
00000110: ffd2 343b 3876 acbc 6d1c a93c ef61 5d3b
00000120: a8ac 1e3d 705d 13bd d2e9 7dbc e188 0ebd
00000130: 45f6 6cbc dcfc a63c b60f 023d 22b9 133c
00000140: 42d1 233d 1a5c da3b fd97 1bbd f904 11bc
00000150: cbbd 093d edec 993c 26fc c83c ccf6 c4bb
00000160: c7ab 58bc 3620 013d e352 65bc b4ac 03bd
00000170: b4d3 8e3c f8d9 293d 1dad c9bc 4100 d73b
00000180: 0e91 41bb 8567 39bd d8bf 52bd d060 6f3c
00000190: 8f92 aa3c 94d2 2abd c579 f13c bd2d 1c3d
000001a0: bce0 8b3b 28df 2b3d 365d c33b b922 8cbc
000001b0: 531a 053d a183 413d 5b98 283d 30cc 0abd
000001c0: 42f8 053d a132 2dbd cdb0 af3c d6f0 dabc
000001d0: 74b6 16bd 6e2a db3c 3672 67bc 73c4 343d
000001e0: ddad 15bd 4580 f3bc 91fd 59bc ada6 2a3c
000001f0: 207c f1bc 7751 03bd 3dcb 0a3d 387d 4cbb
00000200: 63c0 103d 6c40 0fbd b695 1bbd 2a8a b43a
00000210: 92d6 903b dd6c 7c3c 5b15 783c 8e4a d8bb
00000220: 84be dabc 615c 353d 1c40 cf3c 88d3 b7bc
00000230: 1f95 c43c dc61 383d 7172 6fbc a128 2d3c
00000240: 92f1 493d 5462 49bc b83c 21bd b0a5 b73b
00000250: 0402 913c 0b86 abbb 72c4 11bd 9da8 87bc
00000260: 7727 27bc de54 de3b 2f4d 39bc d0d8 e23c
00000270: 1475 78bc 03fc 1abd 4dac c33b 0c3f f53c
00000280: a0b9 893c ffb8 2a3d de08 a2bb a9c0 84bc
00000290: 632d 623c 615b 99bc 5904 183d cbd0 8c3c
000002a0: 696d 16bd 79c5 22bc caf0 003d d107 6f3c
000002b0: 2604 cc3b cc2f 05bd 8200 00bd 8cd4 fbbb
000002c0: 5ec0 22bc c987 863c f196 383d 1051 e43c
000002d0: 291e df3b bc6c ad3b fb9f b03c bede a63c
000002e0: 2f8c 493c 2c1a 053c 7c11 cc3c 444e 6abc
000002f0: 5f60 af3b 9b88 e2bb 5448 9abc 6be2 1d3d
00000300: c912 a9bc 2d50 2bbc e7e6 fc3c dac2 be3b
00000310: eebe dbbb c139 07bd 84c4 af3c 5890 0c3c
00000320: 4416 4ebd d87f 873c da5c 61bc c364 29bc
00000330: 8844 9d3c df89 23bd d1d1 503d 46fa 83bc
00000340: 40f4 cdbc 3400 323b 09b0 99bc f02f aebc
00000350: 1f90 803c f1f3 7abc 3401 33bd 8500 343c
00000360: dc4b 1bbd d785 fa3c 085c 183b 84fb dabc
00000370: 5632 293d 4c55 183d 7ead 4cbc 9422 7dbc
00000380: 8567 f73c bf06 af3b e6c1 393d 0394 a03b
00000390: c4c6 133d 1e03 893c d24a 2dbd 5632 13bc
000003a0: 6ffe c03c f5a9 c9bc fb34 c03c cc15 1a3d
000003b0: c8be 043d 3216 16bc 9e05 9dbc 4506 823c
000003c0: 279f 13bd 2c6f 0c3d 04fc faba 9370 79bc
000003d0: 21b5 ecbc 5105 b9bc 30d1 f0bb 1503 06bd
000003e0: 578c 03bc c9ae ac3b 93d6 8f3c 4f58 b1bc
000003f0: 1b54 943c 75bf 843c 9e13 0a3c 30fa bd3c
0.04848407 0.0107815955 0.04385966 0.014982089 -0.031811114 -0.028660621 -0.0047139083 -0.041558366
-0.040226858 0.016811566 0.027494228 0.03607689 0.025629224 0.04010979 0.0020289735 0.02891139
-0.028833976 -0.024519444 -0.0024891542 -0.014719639 0.031153621 0.019125216 0.019428762 -0.017527707
0.049615297 -0.024850335 -0.004567017 0.0052522398 0.005896775 0.018307094 0.006663086 0.013653419
-0.027369937 0.026034942 -0.03578912 -0.027196594 0.0061740507 -0.035408955 0.030231796 -0.039366335
-0.0028568322 -0.015414916 0.042130977 0.03260861 0.04108631 0.021966482 -0.018906245 0.043370217
0.029208036 -0.042650487 0.006337921 0.018441968 0.017006839 -0.022689639 -0.033729114 -0.01514263
0.04884432 0.008349127 -0.014280031 0.009917856 0.026172549 0.024372596 0.029878914 0.03180611
-0.034932554 0.021469396 0.039645538 0.016715791 0.0027591584 -0.021052465 0.020643437 0.0033780297
0.038738877 -0.03597778 -0.015497642 -0.034798507 -0.014463012 0.020384245 0.031753264 0.009016307
0.039994486 0.0066638114 -0.037986744 -0.008851283 0.033628266 0.018789733 0.024534296 -0.006010866
-0.013224549 0.03152486 -0.0139968125 -0.032147124 0.017434932 0.041467637 -0.02461868 0.0065613096
-0.0029535922 -0.04526474 -0.051452488 0.014610484 0.020821838 -0.04170473 0.02947701 0.038129557
0.004268734 0.041960865 0.0059620393 -0.0171064 0.032495808 0.04724467 0.041160922 -0.033886135
0.03270746 -0.04228461 0.02144661 -0.026726168 -0.036795095 0.02675363 -0.014126351 0.04413266
-0.036542762 -0.02972425 -0.013305084 0.010415715 -0.029478133 -0.032060113 0.03388523 -0.0031202566
0.035339724 -0.034973547 -0.037984572 0.0013774086 0.00442011 0.015406814 0.01514181 -0.0066006845
-0.026702173 0.044277553 0.025299124 -0.022439733 0.023996888 0.0450152 -0.014614687 0.010568769
0.049302645 -0.01229151 -0.039364547 0.0056044683 0.017701156 -0.005234485 -0.035587735 -0.016559893
-0.01020228 0.0067850193 -0.011309906 0.027691275 -0.015164632 -0.037837993 0.0059714676 0.02993729
0.016812146 0.041680332 -0.0049449047 -0.016205149 0.013804766 -0.01872033 0.03711352 0.017189404
-0.036725435 -0.009934776 0.031479634 0.014589266 0.0062260805 -0.032516286 -0.031250484 -0.0076852497
-0.009933559 0.01642217 0.045065824 0.027870685 0.0068090153 0.005292503 0.02156066 0.020369884
0.012301489 0.008123916 0.024910681 -0.014300887 0.0053520645 -0.0069132573 -0.018833317 0.038546007
-0.02063884 -0.010456127 0.030871822 0.005821568 -0.00670611 -0.033014063 0.02145601 0.008579336
-0.050314203 0.016540453 -0.013755048 -0.010338965 0.019197717 -0.039926406 0.050981347 -0.01611055
-0.025140882 0.0027160766 -0.018760698 -0.021263093 0.015693722 -0.015316949 -0.04370232 0.010986452
-0.037914142 0.030581398 0.0023248214 -0.02673126 0.04130777 0.03719072 -0.012492536 -0.015450139
0.03020073 0.0053413804 0.04535093 0.004900457 0.03607823 0.01672512 -0.042307682 -0.008984169
0.023558823 -0.024617175 0.023462763 0.037618443 0.032408506 -0.009160565 -0.019167718 0.01587213
-0.03604045 0.03428571 -0.0019148593 -0.015224594 -0.028894963 -0.022585543 -0.007349156 -0.032717783
-0.008029065 0.0052698595 0.017558372 -0.021648554 0.01810651 0.016204575 0.008427529 0.023190588

policy_head.0.bias f4 [256]
00000000: 0d8f 02bc a38a 193d ef11 0dbd b6f3 35bc
00000010: 2239 d3bc 4cf6 c73c 31ff b63b d32b 0c3d
00000020: ad1b 403d 3fe7 c8bc 4601 e53c ddfd cb3c
00000030: 9f1e b3bc 3f89 e53c da96 cd3b ea2a f1bc
00000040: 54a9 443d 888b 1b3d e8a4 13bd 33ef dcbc
00000050: c0b9 dfba 110d 23bd 7e8a c63c ce02 2a3b
00000060: 7114 11bd a846 9abc 201d 76bc 9ff9 93bc
00000070: f79f 45bc 5e10 44bc 982a c1bc 22b3 603c
00000080: 5544 2d3d f389 183d 441a 1abd 168e 7c3c
00000090: 51b3 133d a159 cbbc 82f2 833c 1340 e73c
000000a0: 3991 ed3c 20bd d33c 7d9c fbbc 09a2 2c3d
000000b0: 0333 69bc 560b 9dbc 1ec1 b6bc 6b95 473d
000000c0: c240 103d 3155 5239 1557 cfbc 28bd 843c
000000d0: cfbc 9ebc 0654 003b 98ac 14bc 4e94 e6ba
000000e0: 7a67 903c 87ba 8c3c 2642 093d 34cf d0bc
000000f0: a748 e1ba 4975 1b3d 3bd2 3d3b b6f5 a13c
00000100: 6b39 cd3a 5d0a 07bd 856b 803c ff4b a2bc
00000110: 979c 8339 9a83 403d ffe3 72bb 5ac0 ffbc
00000120: e8a1 8c3c d2f3 c63c d981 77bc 552c 1abd
00000130: 406c 8bba cb74 35bd 03a4 313d 95c1 083d
00000140: 6a7e cebc 4584 123d 74fc c9bc 45d3 2a3c
00000150: 603e 8e3c a8da abbc 3a80 103d bc67 06bd
00000160: 9096 debc 1904 11bd 7173 143d 4740 d0bc
00000170: 0dd7 96bc f341 0f3d e143 c73c f8e0 20bd
00000180: d80d a1bc d9af 2b3d 922b 73bc 72b7 38bc
00000190: e609 333a ae1c 203c 6e62 f8ba db45 aa3c
000001a0: 4b31 fa3c 43a6 9e3c 7038 fc3c 25cb 9a3c
000001b0: 5b35 16bd 5dc9 ea3c a33c 8abc e4b6 613c
000001c0: 9ca0 2cbc c436 ccbc f4e9 20bd b62e 593c
000001d0: dc1a 243d 38bf 8f3c d747 883b 5712 4e3b
000001e0: 9f17 e83c a5ce 0d3c c66c 88bc 1404 313d
000001f0: c040 7e3a 83fd c33c 86ce cfbc f522 313d
00000200: 7c10 0d3c f21f cf3c d5d4 233d 9d3a 18bd
00000210: 59f2 ab3c b47a d73c 941d b1bb c036 77bb
00000220: 3568 92bc 4c0f 173c ddea aabc 0cd1 c93a
00000230: 7005 20bd 2959 f73c d6dd d93c f617 ce3b
00000240: 5b18 1bbd f1d6 cabc 8fcb af3b 89ef 2e3d
00000250: 7d34 81bb 500b 163d 4475 5e3c 4c71 bfbb
00000260: 9544 f6bb ec6b b43b d695 83bc 18d7 7bbc
00000270: 4de1 2a3d 1c67 a5bc 4730 4d3c 5084 91bc
00000280: 6c73 0f3d 5c09 1fbd 4973 893c 64e6 4d3c
00000290: 17a8 293d 9b60 483c ed80 803c bdd7 54bc
000002a0: da78 143d c818 483c 1b28 823c 0b31 d1bc
000002b0: 6179 22bc da59 933c 3465 c7bc d02c 133d
000002c0: 17b6 37bb 11d9 983b e50f ffbc d36e e8bb
000002d0: f292 c2bc 7ecb 283d c800 e13b 3fcc 82bc
000002e0: 7173 abbc b7a2 173c ee09 1f3d b8ce 84bc
000002f0: 00e1 c1bc 10cc a33c be05 463b d814 5d3c
00000300: a342 6dbb 3b92 ce3c c1eb 04bd 8e5b ff3c
00000310: 2875 c8bb 210f b8bc 7942 cabb b36a b23c
00000320: bbb9 473d 86d7 28bd caf0 233d 8d9d f5bc
00000330: 0bbe 02bd 3c7a 3f3c fe97 823b 86c3 303d
00000340: e377 0bbc b5e4 94bc 6167 d93c 5aaa 333d
00000350: 02bd e2bc 9e02 4eb9 c562 14bd 8167 8a3c
00000360: ac10 f6bc 0c46 b6bc cae6 8bbc a180 363b
00000370: b6d3 183d ec68 e739 b21a c5bc 6347 43bc
00000380: 6c0a b3bc d430 09bd 18ec bfbc f123 fd3c
00000390: 468d d3bc 6976 b83c 9545 c33c 3cc9 08bd
000003a0: 8084 d13c 1c98 17bd 56fb c5bc 3ada c33c
000003b0: f2a6 863c b7b0 8e3b b522 dcbc e293 b4bc
000003c0: 581b ebbc 8b5d 1d3d afc2 8ebb 84c7 1cbd
000003d0: f08b a4bb e5a0 0fbd 48a9 17bb c646 aabb
000003e0: 4e96 dabc 8416 1d3c 95c7 ef3c cc93 2fbd
000003f0: 4a9f 063d dbc9 0ebc af35 073d c053 c33b
-0.007968676 0.03748573 -0.03444093 -0.0111054685 -0.025784079 0.024409436 0.0055846204 0.03422148
0.046901394 -0.02452433 0.027954709 0.024901325 -0.021865187 0.028019546 0.0062740864 -0.029439408
0.048013046 0.037974864 -0.03604594 -0.026969528 -0.0017068908 -0.039807383 0.02423596 0.0025941613
-0.035419885 -0.01883252 -0.015021592 -0.018063365 -0.012062064 -0.011966793 -0.02357988 0.013714584
0.042301495 0.037240934 -0.037622705 0.015414735 0.03605968 -0.024823012 0.016106848 0.028228795
0.028999912 0.025847018 -0.030714268 0.042146716 -0.014233354 -0.019170444 -0.022308882 0.04872648
0.035218008 0.00020058897 -0.025310079 0.016203478 -0.01937714 0.0019581332 -0.009074353 -0.0017591806
0.017627466 0.017178787 0.03351035 -0.025489427 -0.001718779 0.03795365 0.0028964418 0.019770484
0.0015657371 -0.032968868 0.01567627 -0.019811628 0.00025102936 0.047000505 -0.0037062166 -0.03121965
0.017167047 0.024286184 -0.015106642 -0.037639935 -0.0010637119 -0.044300836 0.043369304 0.03338774
-0.025206763 0.035770673 -0.024656512 0.010426347 0.017363727 -0.020978287 0.035278536 -0.032813773
-0.027171403 -0.0354043 0.036242906 -0.025421275 -0.018413091 0.034975003 0.02432436 -0.039277047
-0.019659922 0.04191575 -0.014841931 -0.0112742055 0.0006829783 0.009772463 -0.0018950233 0.020785263
0.030541083 0.01936639 0.03078863 0.018895695 -0.036671977 0.02866047 -0.016874617 0.013776515
-0.010536339 -0.024928458 -0.039285615 0.013255766 0.040064678 0.017547235 0.0041589546 0.0031444037
0.028331576 0.008655225 -0.01665343 0.04321678 0.00096989796 0.023924595 -0.025367033 0.04324623
0.008609887 0.025283787 0.039997894 -0.037165273 0.020989584 0.026303627 -0.0054051373 -0.0037721843
-0.017871955 0.009219956 -0.020863945 0.0015397384 -0.039067686 0.030193882 0.026595037 0.0062894775
-0.037865024 -0.024760695 0.0053648422 0.042708907 -0.0039430247 0.036631882 0.013577763 -0.0058423635
-0.0075155 0.0055060294 -0.016062658 -0.015371107 0.04171877 -0.020190768 0.012523717 -0.017763287
0.035022184 -0.038827285 0.016778605 0.012567136 0.04142007 0.012230064 0.015686477 -0.012990889
0.036248066 0.01221294 0.015888264 -0.02553608 -0.009916634 0.01798718 -0.02434025 0.03593141
-0.0028032118 0.004664548 -0.031135509 -0.0070932894 -0.02375171 0.04120969 0.006866548 -0.015966533
-0.02092907 0.009255103 0.03882783 -0.016211852 -0.023666859 0.019994766 0.0030215825 0.013493739
-0.0036203049 0.025216212 -0.032451395 0.031171586 -0.0061174817 -0.022468152 -0.006172475 0.021779394
0.04876111 -0.041221164 0.040024556 -0.029982353 -0.03191952 0.011686858 0.003985404 0.043155216
-0.00851247 -0.018175462 0.026538553 0.04386363 -0.027678017 -0.00019646666 -0.036227006 0.016895058
-0.030037247 -0.022250198 -0.017077822 0.0027847665 0.03731128 0.00044137926 -0.02406058 -0.011918875
-0.021855555 -0.03349383 -0.023428008 0.030900927 -0.0258242 0.0225174 0.02383689 -0.033395037
0.025575876 -0.037010297 -0.024167698 0.02390777 0.016437028 0.004354562 -0.026872018 -0.022043172
-0.028699562 0.038419288 -0.004356704 -0.03827621 -0.0050215647 -0.03506555 -0.002314167 -0.005196425
-0.026682999 0.009587888 0.029269973 -0.04286556 0.032866754 -0.008715118 0.03301018 0.0059609115

policy_head.3.weight f4 [16, 256]
00000000: a1f8 03bd 1fb6 783d a88e b33c 0cd8 57bc
00000010: 5cb0 a23c 1665 43bd a7e6 8d3c 6058 5d3d
00000020: 8a7c 25bb f18b 413b 258b bbbb 4825 0c3d
00000030: 0132 7f3c eb0f 843d 9dc5 f93b 3582 1a3d
00000040: 010c f9ba 6054 6fbc 5236 4e3c 87d9 8abc
00000050: 2076 b3bc 0276 08bb 21a8 333a aa61 9c3c
00000060: 674f b43c a7ea 14bc e0d3 733d e24c 70bd
00000070: 18c5 4b3d dbd5 fc3c 7207 4fbc c9f4 5fbd
00000080: a7ae 74bb 7045 0fbc 9c6f bbbb 7a4c bc3c
00000090: de7b 2dbb 2811 083d 2efc 473d 939d c2bc
000000a0: ab6b 8a3b 1df9 0a3d fb82 7d3c 1446 f0bc
000000b0: 9389 e93c f35d 473d 9a8a b33c b90b 673b
000000c0: 0af7 2abd 003b de3b bc7a 1b3d 3c56 04bd
000000d0: a2b6 6fbc 2360 ef3c ffe5 653c fbd8 403d
000000e0: 4766 0bbd 518e f2bc 6a11 0d3d a450 8e3d
000000f0: 7b39 58bd a16d 00bd e047 523c d642 51bd
00000100: fc86 513d dd66 a23c 6290 3bbc 9cbe 1f3d
00000110: ca27 b9bc 82c4 933a 676a 203d 3da4 27bd
00000120: ef3d 12bd a02a 903c f710 223d 2000 6abd
00000130: cc88 833c f865 423c 14de 42bc aa76 38bd
00000140: 001a 5bbd 02d8 04bb c84f 113d a548 88ba
00000150: 2e31 a73c 7c60 6a3d 07ed a13d 6ba4 5bbc
00000160: 33c7 cebc e910 e1bc ecf5 a8bc ab3e fe3c
00000170: 65dc 86bd 45b0 87bc 8706 4abd 0014 2a3b
00000180: 16ad 62bd 99dd 673d b8ce debc fcd3 293d
00000190: 5a4d 4ebd 40be 623d 0573 adbc 0032 dfbc
000001a0: c5c2 193d a259 80bc 1236 353d 317e 7f3d
000001b0: 5327 1fbc a6ca 25bd b12d 5a3d b996 7cbc
000001c0: fc79 58bd df2e 29bd 8173 3f3d 071f 47bd
000001d0: 426a 513d 5643 4b3d 9259 2c3d 1404 c03c
000001e0: fd4f 65bb d283 42bd 78d0 a33c 2272 173d
000001f0: 64be 023d 5522 473d 8cca 0f3d 8789 75bd
00000200: 439b 423d b095 91bc 4288 453d 8e18 593c
00000210: 96c7 96bc a367 1bbd 974d 42bb 84f5 ce3b
00000220: de6a a0bc 0613 41bd f2ae eabc 2dc7 2abd
00000230: 8d0d e93c c1bb 823d cc07 443d 0fd8 12bd
00000240: 0ecb 973c 0282 003d e933 2b3d d9c4 823d
00000250: 91d7 8abd e070 213d 1193 013d 8e2b bb3b
00000260: 08b2 173c 6e1a f7bc 62c8 4e3d d386 a03c
00000270: 294e 233d 0404 54bc 46f4 eabc ef2a 0bbc
00000280: 6251 0dbc 6f47 453c 4922 97bc c0f6 a03c
00000290: 9cc0 d83c cc54 20bb 2b95 453d ff5c bebc
000002a0: a25b 503b d217 823d d81a 48bd 9b3f e43c
000002b0: 9eab 6b3c 6154 753c 4f00 603d 2c91 45bb
000002c0: 10e2 403d e78e 0bbd 6f54 393c 19ba 623d
000002d0: a4fc 5d3d 182e aebc 789d 633d 397c 34bd
000002e0: b918 14bd f0b7 17bc 04c1 f13b 31e4 88bc
000002f0: 1a20 f6bc 80ce b2bc d929 f83b 45a6 3ebd
00000300: 586a 493d 507f 853d 8a4e 58bd 81ab 5abd
00000310: b890 03bc c8ba 623d e9fb aebc d720 633d
00000320: 6acc 143d 096f cf3c 313f 67bc 9ff5 383b
00000330: 4dc4 903b 7bd5 5bbd d837 9e3c 2eaf 153d
00000340: 6f72 a7bc 51bd 6b3d cf76 5f3d c288 cf3c
00000350: 38ae e33c 7603 76bb 17cb af3b db13 1bbb
00000360: bc34 1f3d 8f50 fb3c 91bd b63c 1150 93bd
00000370: baa4 68bc 88d9 dd3c cf24 25bd d881 4bbd
00000380: 976a 2d3d 6e29 973b b37a 1bbd c65f 503d
00000390: 2396 32bd c097 393d 1c13 05bd 9857 693d
000003a0: a9dd 643b 6f61 8cbd 7878 163c 38e5 59bc
000003b0: f721 0ebd 57f4 6fbc 604d 4abd 6639 df3c
000003c0: b799 de3b 7998 ecbc cc44 4abd 8e4f 32bd
000003d0: f8f0 a03c 3e76 373d 0b2b bd3c e576 a0bc
000003e0: 7300 5abd d9e0 d03c f398 2ebb f539 003d
000003f0: e321 2c3b 7437 fcbc 14bb 9abc 081e 93bd
-0.032219533 0.06072056 0.02191861 -0.013174068 0.019859485 -0.047703825 0.017321898 0.05403936
-0.0025251233 0.0029532874 -0.0057233744 0.03421524 0.015575887 0.064483486 0.0076224343 0.03772183
-0.001900077 -0.014607519 0.012586193 -0.016949428 -0.021906912 -0.0020822291 0.0006853361 0.019089539
0.022010518 -0.009089149 0.05952823 -0.05866707 0.04974851 0.030863693 -0.012636052 -0.054676805
-0.0037335546 -0.0087445825 -0.005720092 0.022985686 -0.0026471536 0.033219486 0.04882448 -0.023756778
0.004224261 0.03392898 0.015473123 -0.02933029 0.028507983 0.04867358 0.021916676 0.003525479
-0.0417395 0.0067819357 0.037958845 -0.032308802 -0.014630945 0.029220646 0.014031886 0.04708193
-0.034033086 -0.029608877 0.034440435 0.06948975 -0.052789193 -0.03135455 0.012834519 -0.05108913
0.05115412 0.01982444 -0.011447998 0.03900014 -0.02260198 0.0011273774 0.039163973 -0.040928114
-0.035703596 0.01759845 0.03956696 -0.057129025 0.01605644 0.011865132 -0.011893768 -0.045035042
-0.053491592 -0.0020270352 0.035476476 -0.0010397626 0.020409193 0.05722092 0.079065375 -0.0134058995
-0.02524147 -0.027473884 -0.020625077 0.031035742 -0.06585006 -0.016563544 -0.04932263 0.0025951862
-0.05534085 0.056607816 -0.02719818 0.04146193 -0.050366737 0.055357218 -0.02117301 -0.027245522
0.037539262 -0.01566774 0.04424102 0.062376205 -0.0097139655 -0.040476464 0.05326623 -0.015416794
-0.05285071 -0.041304465 0.046741012 -0.048613574 0.051126726 0.049624763 0.04207761 0.023439445
-0.0034990304 -0.047488995 0.019996867 0.03697408 0.031919852 0.048616726 0.035105273 -0.05994561
0.04751135 -0.017771572 0.04822565 0.013250483 -0.018405717 -0.037940633 -0.0029648298 0.006315889
-0.019582208 -0.047137283 -0.028647874 -0.041693855 0.028448844 0.063834675 0.047859 -0.03585058
0.018529441 0.031373985 0.041797552 0.06385202 -0.06779397 0.039414287 0.031634394 0.005711979
0.009258755 -0.03016397 0.05048407 0.01959554 0.03986946 -0.0129404105 -0.028680932 -0.008494123
-0.00862536 0.012040957 -0.018448966 0.01964891 0.02645903 -0.0024464605 0.04823796 -0.023237703
0.0031792899 0.063521996 -0.048853725 0.02786236 0.014384178 0.014973731 0.054687794 -0.0030146344
0.04709059 -0.03407183 0.011311634 0.055353258 0.054196015 -0.021262214 0.055570096 -0.04406378
-0.03615639 -0.009260163 0.0073777456 -0.016710373 -0.030044604 -0.021826982 0.007573348 -0.046545286
0.049173683 0.065184236 -0.052809276 -0.053386215 -0.008030109 0.05535391 -0.021360354 0.05545124
0.036327757 0.0253215 -0.014114187 0.0028222573 0.004417932 -0.053670388 0.019313738 0.036544017
-0.020440308 0.057553593 0.054556664 0.025333766 0.027793035 -0.0037538684 0.0053647864 -0.0023662958
0.03886865 0.030678062 0.02230719 -0.07193006 -0.01419943 0.027081266 -0.040318307 -0.049684376
0.04233798 0.004613093 -0.037958812 0.050872587 -0.043600213 0.045310736 -0.032488927 0.0569683
0.0034922159 -0.068545215 0.009183995 -0.013299279 -0.03470036 -0.0146456575 -0.049390197 0.02724905
0.0067932266 -0.028881298 -0.049382016 -0.0435329 0.019646153 0.0447905 0.023091814 -0.019587943
-0.053223085 0.02549784 -0.0026641458 0.031305272 0.0026265315 -0.03078816 -0.018888034 -0.071834624

policy_head.3.bias f4 [16]
00000000: d8ed 44bd da1c ae3c c2bf 62bd 389c bbbc
00000010: fdfa d83c 5024 6b3c 5128 05bd 4dcc 083d
00000020: 765f 853d 9c9a 6e3d dddd 2fbd d2a7 69bd
00000030: a734 063d e8d1 063d 136e 17bc fae9 373d
-0.048078388 0.021253992 -0.055358656 -0.02290164 0.026486868 0.014351919 -0.03250915 0.03339796
0.06512348 0.058252916 -0.042936195 -0.05704481 0.032765057 0.032915026 -0.009242552 0.04490087
