models/weights_generation_2.pt (torch, 631044 bytes, 22 tensors)

features.0.weight f4 [32, 4, 3, 3]
000000 7b f2 2c 3e c4 3e 35 3e e4 68 3d bd 44 d7 f7 bd
       0.16889374 0.17699724 -0.04624261 -0.121016055
000010 17 e7 a9 3d ee 11 d5 bd 1e 01 34 3e 49 03 7c 3d
       0.0829603 -0.104038104 0.17578551 0.06152657
000020 32 2c e5 bd ee 7a 5f 3d 3f 6c 45 3e 53 8e 6c 3c
       -0.1119007 0.054560594 0.19279574 0.01443823
000030 2b 05 08 bd 59 fa 0b 3e 96 05 96 3d b0 c0 27 3d
       -0.033208054 0.13669719 0.07325284 0.040955245
000040 8d d8 6b bd 09 63 18 bd 13 55 f3 bd ca 64 eb bd
       -0.057579566 -0.037203822 -0.11881461 -0.11493833
000050 c6 39 b6 3d cf 43 82 3b 60 87 14 bd 94 76 2e 3e
       0.08897738 0.0039753686 -0.036261916 0.17037421
000060 9f 99 03 be 25 33 ac 3d 6b 18 ea 3d 76 a2 47 bd
       -0.1285157 0.084081925 0.114304386 -0.04873892
000070 86 e9 99 3d 11 9a 0f 3e 60 60 79 bd f0 af 52 3d
       0.07515244 0.14023615 -0.060882926 0.05143732
000080 35 e1 27 3e e6 67 f0 3d 00 f4 7e bb f8 d2 cd bd
       0.16394503 0.11738567 -0.003890276 -0.10050005
000090 d8 07 d1 bd 52 42 f7 3d 2f a6 0b 3e 28 a6 60 bd
       -0.10206574 0.120731965 0.13637613 -0.05484596
0000a0 65 b0 56 bd f7 cc 22 3e d6 0b f3 3d 9d 1a 12 bd
       -0.052414317 0.158985 0.11867492 -0.03566991
0000b0 fc 0f 87 bc 6a 60 1a 3e 89 56 1a be f3 01 0f 3e
       -0.016487114 0.15075842 -0.15072073 0.13965587
0000c0 45 05 1b 3e d9 b7 0f 3e 8e 3b 8d bd 79 d0 a2 bd
       0.15138729 0.14034976 -0.06896125 -0.07949919
0000d0 c0 d5 b2 bd ce 34 0b 3e 40 f1 89 3d 22 14 8a bd
       -0.08732176 0.13594362 0.06735468 -0.06742121
0000e0 a6 b1 fa 3d 64 02 ce bd fd 1b 06 3d ef 11 f4 bd
       0.12240915 -0.1005905 0.032741535 -0.11917483
0000f0 28 c0 0a be df 22 68 bd 62 d5 7f 3d 63 f9 db bd
       -0.13549864 -0.05667388 0.062459357 -0.10740926
000100 b8 5c 05 be ae cd b0 bd a4 fe 29 be da 37 95 3d
       -0.1302365 -0.0863298 -0.16601044 0.072860435
000110 60 11 92 3d c0 69 df 3c e2 02 f9 3d f2 99 dd 3d
       0.0713222 0.027272105 0.12158753 0.10820378
000120 35 42 b3 3d a1 e4 39 3e 18 58 b9 bd 86 b1 ee 3d
       0.08752862 0.18153621 -0.09050006 0.11654954
000130 f0 5c f8 bd 27 34 dd bd ce 7c b3 bc b1 9d cb 3d
       -0.121271014 -0.10800963 -0.021910097 0.099421866
000140 84 7a af 3c a9 2b 6e 3d 2d c6 3a 3d ba 46 cb bd
       0.021420725 0.058147106 0.04559915 -0.099255994
000150 be cb bb bd a7 1a fa bd fd 0d 8f 3c 67 3e 18 3e
       -0.0916972 -0.12212115 0.017462725 0.14867555
000160 a7 19 8e bc 07 b7 fa bc b5 18 b8 3d b5 db e7 bd
       -0.017346216 -0.030604852 0.089890875 -0.11321203
000170 ff 1f f7 3c 8b d8 e9 3d cc 79 90 3d 9b 27 86 bd
       0.030166624 0.114182554 0.07054481 -0.06550523
000180 fd 1c 81 bd 7b bd 3b 3e cb b7 38 3e 20 9d 90 3b
       -0.06304357 0.18334 0.18038861 0.004413262
000190 18 4f a7 3d 84 78 0d bd b8 f7 cb bd 6b 1e e3 bd
       0.08169383 -0.03453876 -0.09959358 -0.11089786
0001a0 ef d6 1a be e5 c5 24 3e 48 64 cf bd ba fa ec 3d
       -0.15121053 0.16091116 -0.10126549 0.1157126
0001b0 ee 1b 02 3e 2c 22 de bd bb 0b e4 3d f5 34 29 be
       0.12705967 -0.108463615 0.1113505 -0.16524108
0001c0 55 fa 3c 3d 8e 01 01 3e 29 ac 14 be 7f 48 49 3e
       0.046137173 0.1259825 -0.14518799 0.19656561
0001d0 15 0d 1e 3e de e8 42 3e ba 49 d0 3c f5 5b 02 3e
       0.15434678 0.19034144 0.02542578 0.12730391
0001e0 db 09 1c bd 82 a8 b7 bd 7d a8 a7 3d 27 2b ca 3c
       -0.038095336 -0.08967687 0.081864335 0.02467878
0001f0 66 c6 3e 3e b8 16 89 3d fc 13 cb bd 5a 11 12 bd
       0.1863037 0.066937864 -0.09915921 -0.03566108
000200 9a b9 c2 3d 0b b1 18 3e f4 05 9b 3d b7 74 17 3e
       0.09508057 0.14911287 0.07569495 0.14790617
000210 78 fe 41 3e 55 77 fd bd 35 dc 95 bd 5b c2 1c 3e
       0.18944728 -0.123762764 -0.07317392 0.15308516
000220 21 c6 03 3e 55 b5 06 3e 7a 19 8e 3d f5 89 20 3e
       0.12868549 0.1315511 0.06938453 0.15677626
000230 7e 0d a0 bd e3 29 13 3e 7e a0 da bd 5c af 74 3d
       -0.078150734 0.14371447 -0.10675143 0.05973755
000240 45 50 ac 3d e4 1c 03 3e 99 b5 ea 3d a7 7b 03 3e
       0.08413748 0.1280399 0.11460418 0.12840138
000250 1a 92 a1 bd b6 19 72 3d 42 88 89 bd e0 5a c9 bc
       -0.07889195 0.05910655 -0.06715442 -0.024579465
000260 ae a9 00 3e ad f6 7e bc e7 b1 da 3c ce c3 af 3d
       0.12564728 -0.015561742 0.026696159 0.08582269
000270 54 75 21 bc 28 09 b6 bd f1 c0 6a bd 4d c8 b4 bd
       -0.009854633 -0.08888465 -0.05731291 -0.08827267
000280 cb 20 b2 bc 2b fb 82 bd 29 33 c9 bd 4a 27 1c be
       -0.021744153 -0.06395563 -0.09824211 -0.15249363
000290 79 b6 d1 bd 80 df 52 3e 70 26 5f 3d 70 b7 ff 3b
       -0.10239882 0.20593071 0.054480016 0.00780385
0002a0 00 56 02 be 71 70 2c 3c 7b 79 1a 3c ec ee 5e 3d
       -0.12728119 0.010524855 0.009428377 0.054427072
0002b0 29 57 1a 3e 02 5e df 3d c0 3c 0a bc 84 c4 04 be
       0.15072311 0.109066024 -0.0084373355 -0.1296559
0002c0 32 e9 c3 3d d4 8f 62 3d d8 2c d8 bd 82 04 bd 3d
       0.09565963 0.055312946 -0.10555428 0.092293754
0002d0 53 42 1c 3e 18 cf 0c bd ed 4c 2f be 78 ed 1e be
       0.15259676 -0.034377187 -0.17119189 -0.15520275
0002e0 50 a5 23 3e 6d fe 8e bd e7 9a 0b 3e c2 54 22 bd
       0.1598103 -0.069821216 0.1363331 -0.039631613
0002f0 97 64 00 3e 0d 3f cc bd 81 92 39 3e 50 8c 98 bc
       0.12538372 -0.099729635 0.18122293 -0.018621594
000300 2d 71 78 3c 38 8c 0a 3e 57 ea b3 3d c1 b9 03 be
       0.015163702 0.13530052 0.08784931 -0.12863828
000310 6c c5 40 3d 02 1f 17 be f9 ef 29 3e fb 7e 20 3d
       0.047063276 -0.14757922 0.16595449 0.039183598
000320 25 2e 3b 3e b5 06 14 3e 04 74 54 be 8d 92 d0 3d
       0.18279321 0.14455684 -0.20747381 0.10184202
000330 d0 a8 00 3e 46 0b 17 3e d5 3a e0 bd 20 7f 00 3d
       0.12564397 0.14750394 -0.10948721 0.031371236
000340 68 f8 8d bc 2d d4 11 3e c0 7d 83 3c d0 27 5b bc
       -0.017330363 0.14241095 0.016051173 -0.013376191
000350 43 bc a1 bd fa dc 28 be 0a ef b2 3d c6 04 d8 bd
       -0.07897236 -0.16490546 0.08736999 -0.105477855
000360 83 bb 0d 3d 6a 33 0a 3d 77 b3 4d bc b9 ee 46 bc
       0.034602653 0.03374044 -0.012554995 -0.012141877
000370 64 09 13 3e d2 95 2a be 64 8d 1f 3e a4 da 0a bc
       0.14359051 -0.16658714 0.1558128 -0.00847498
000380 69 a2 e8 bd 15 90 c6 3c 35 36 13 3c 07 cc 54 3d
       -0.11359102 0.024238626 0.008985092 0.05195239
000390 e8 f9 fd 3c 62 1f 3d 3e d0 d2 31 3d 66 69 37 3e
       0.031002954 0.18469003 0.043413937 0.179113
0003a0 3f 9d b1 3c f0 b4 97 bc ba 5d 3d 3e d3 61 e0 3b
       0.021681426 -0.018518895 0.18492785 0.006847599
0003b0 ef 62 c5 bd 95 03 87 bd 0e 33 34 be 5c 8c 33 3e
       -0.09638011 -0.0659248 -0.17597601 0.17534012
0003c0 2a 82 4d bb 73 dc e5 bd dd be 69 3d c0 16 3c bb
       -0.0031358101 -0.11223688 0.057066787 -0.0028700083
0003d0 7a 07 0f be b6 97 c9 3d cb 8f 0b 3e a2 54 23 be
       -0.13967696 0.0984339 0.13629071 -0.15950254
0003e0 a6 da f8 3d 0e 9e a9 bd a8 2e b9 3c e0 99 b1 3c
       0.12151079 -0.082821 0.022605255 0.021679819
0003f0 88 26 8e bd 5e 9d f2 bd d8 30 44 3e 20 1b 11 3e
       -0.06940943 -0.11846422 0.19159257 0.14170504

features.0.bias f4 [32]
000000 4b d3 3a 3e 62 66 06 3e dd 44 c3 3d 4e 63 0d bb
       0.18244664 0.13124993 0.09534619 -0.0021574083
000010 13 a2 06 be 17 5e 47 3b 47 91 30 3e c6 fd af bc
       -0.13147764 0.0030421072 0.17242919 -0.021483313
000020 ab ba e5 bd 7b e5 25 3e 08 74 d9 bc 74 cf 7d bd
       -0.11217245 0.16200821 -0.026544586 -0.06196542
000030 6f 0c 95 3d 8b e0 e8 3c 66 34 c0 bc 3f 3d 73 bd
       0.07277762 0.028427383 -0.023462486 -0.05938458
000040 99 a3 fc 3d 6e 4c a0 3d 7d 0e 21 3d 8b 76 81 3d
       0.12335891 0.07827078 0.039320458 0.063214384
000050 bb c3 83 3d 02 8f a0 3b 63 50 95 bd fd 12 b0 bd
       0.06433817 0.0048998604 -0.07290723 -0.08597372
000060 c2 73 03 be 55 ee c2 bd 13 6e c2 3c 71 9f 8e 3d
       -0.12837127 -0.095181145 0.023734128 0.06964005
000070 46 5c 51 bd 55 60 65 3d e4 b8 81 bd ac f3 b6 bd
       -0.05111339 0.056000073 -0.06334093 -0.089331955

features.residual_block_0.conv1.weight f4 [32, 32, 3, 3]
000000 85 b7 35 bd f3 67 80 bd 23 d6 bc ba 78 17 b2 3b
       -0.04436447 -0.06269827 -0.001440708 0.0054349266
000010 76 8f 2a bd 9c 1d 81 3d e7 e1 90 bd f3 11 44 bd
       -0.04164072 0.06304476 -0.070743375 -0.04786868
000020 7f e0 42 3d 25 df ea bc be 69 69 3d 12 2e 3d 3b
       0.047577377 -0.028670857 0.05698561 0.0028866571
000030 29 48 be 3c 0f 27 5e 3d e8 2a 76 3d 3b a1 50 bb
       0.023227768 0.054236468 0.060099512 -0.0031834382
000040 b7 a4 4c bd f3 25 51 3d fb 81 09 bd 11 db 78 bd
       -0.04996177 0.05106158 -0.033571225 -0.060755793
000050 1c 4d e2 3c 0f 4b 48 bd 34 78 de 3c 92 a5 2e 3d
       0.02762466 -0.048899706 0.027156927 0.04263837
000060 6c 6d 5f 3d 62 6c 59 3d 21 ca fe 3c dd fb c5 3c
       0.054547712 0.053081878 0.031102242 0.02416795
000070 1a 60 2d 3d df c0 78 bc 41 71 19 3c 59 96 40 3d
       0.042327978 -0.015182703 0.009365381 0.047018383
000080 61 b7 4f 3d 2e 52 42 bd 56 02 90 3d c4 22 6e 3d
       0.050711993 -0.047441654 0.070316955 0.058138624
000090 c9 92 c0 bc 1d 34 92 bd e6 c2 2f bd 85 4e 55 3c
       -0.023507493 -0.07138846 -0.04291048 0.013019209
0000a0 8a 9e 4e 3d d6 a7 1a 3d 56 81 53 3a 82 e0 3b 3d
       0.050444163 0.037757717 0.0008068284 0.045868404
0000b0 bc 83 9d bc d3 e8 0d bd 7f 74 46 3d 1b 27 03 3d
       -0.019227855 -0.034645867 0.048450943 0.032019716
0000c0 10 47 30 bd d3 02 03 bd c9 81 83 ba ba 7b 35 bd
       -0.04303652 -0.031985115 -0.0010033186 -0.044307448
0000d0 99 8d 37 3d e5 2d ec bc 20 36 2e bd ee 95 2d bd
       0.044812772 -0.028830478 -0.042532086 -0.042379312
0000e0 74 a2 f4 3c 2a ae c1 3c 78 87 b1 3c 47 0a 05 3d
       0.02986262 0.023642618 0.021671042 0.032480504
0000f0 e6 63 8a bd 68 39 f5 3c f3 d2 2c bd 15 ac 64 3d
       -0.06757335 0.0299346 -0.042193364 0.055828173
000100 6b 01 36 3d 03 13 95 3d c3 b3 aa 3c 81 74 43 bd
       0.044434946 0.07279017 0.02083767 -0.04771853
000110 6d 22 64 3c 3c fc 4b 3d 86 38 7a bc d2 3f 89 3d
       0.013924223 0.049801096 -0.015272265 0.06701626
000120 53 c8 68 bd 24 68 d4 bc bb b3 63 3d 16 65 55 3c
       -0.05683167 -0.025928564 0.055591326 0.013024589
000130 a5 4c 96 bc 42 0b 01 bd ab 11 2c bd 15 48 2f bb
       -0.018347094 -0.031504877 -0.042009037 -0.0026745845
000140 85 0a 92 bc 8d ad d3 bc 9a aa 68 3d 06 2b 15 3d
       -0.017827282 -0.025839591 0.056803323 0.036417983
000150 aa f6 de 3c 16 22 08 bd ab 7d 56 bc 7c 39 29 3d
       0.027217228 -0.033235632 -0.013091485 0.041314587
000160 fa 6b 78 3c dd 78 fd 3b 1b 6d 7f 3d 8c 0b c4 bb
       0.015162462 0.0077353553 0.06235991 -0.005982822
000170 c3 5d 90 bc db 3e 55 3c 28 b4 83 bd 68 bf ac bb
       -0.017622834 0.013015474 -0.064308465 -0.005271841
000180 41 08 1e 3d 78 3f 5b bd 19 4d 1d 3d 58 f1 13 3d
       0.03858209 -0.053527325 0.038403604 0.036118835
000190 81 89 41 3d 53 cf 72 bc f1 44 1f 3d 4c 03 8c bc
       0.047250275 -0.014819938 0.038884107 -0.017091416
0001a0 bf 44 d6 bc 47 62 82 3d d5 01 b3 3c e9 30 52 3d
       -0.026155828 0.06366401 0.02185146 0.051316176
0001b0 a3 8c 30 3c 23 a8 4d 3d 92 c1 29 bd 32 b4 be ba
       0.010775718 0.050209176 -0.04144437 -0.0014549552
0001c0 cb 81 17 bd ae e0 46 3c 98 67 07 3d bc a1 06 3b
       -0.036989015 0.012138529 0.03305778 0.0020543179
0001d0 62 c7 00 3d 39 8f a3 3a 3b 84 6f 3d c9 0e 32 bc
       0.031440146 0.0012478597 0.058475714 -0.010867783
0001e0 28 5a 04 3d 54 81 a9 3d bf 37 01 ba 39 dd 19 bd
       0.032312542 0.082766205 -0.0004929266 -0.03756449
0001f0 41 af 8a 3a 28 84 6f bd 92 72 56 3c 20 28 81 3d
       0.0010580794 -0.058475643 0.013088839 0.06306481
000200 c9 54 9f 3c 87 8b 74 3c d2 71 1e bd 5e 24 1a bd
       0.019449608 0.014925844 -0.038682766 -0.03763234
000210 4c 30 7c bd 00 c1 12 3b 09 88 64 bd 92 55 8f 39
       -0.061569497 0.002239287 -0.055793796 0.0002733884
000220 5f 67 25 3c 4a 90 20 bd db e1 43 3d 11 71 75 bc
       0.010095446 -0.039200105 0.047822814 -0.01498057
000230 28 58 15 3d 7f 6a 10 bd f9 6b 7c 3c f0 d8 12 3c
       0.036461025 -0.035257813 0.015406602 0.008962855
000240 5d 1f 66 3d 95 9c ea 3c 71 5a 05 3d 6a 8b b0 3c
       0.056182254 0.028639117 0.032556955 0.021550853
000250 33 7e f5 3b 12 aa 43 3c 58 d7 c1 bc f7 63 a1 bb
       0.0074918508 0.011942403 -0.023662254 -0.004925247
000260 39 59 b6 3c 1f a1 02 bd fd e6 2e 3d d5 c6 22 bb
       0.022259342 -0.03189194 0.042700756 -0.0024837751
000270 b5 4d 98 bd 1c 70 72 bd 2e 84 19 3d 1b 27 83 3b
       -0.074366964 -0.059188947 0.037479572 0.0040024645
000280 11 e6 84 3c bb 98 87 bb 32 f5 19 bc 1e 7a a9 bc
       0.016222985 -0.00413808 -0.009396838 -0.020688113
000290 39 70 8c bc f8 2e 25 bc a5 5a e1 bc 7b ea 00 bc
       -0.017143356 -0.010081999 -0.027509043 -0.0078684045
0002a0 90 01 8d bd 4a d6 59 3b d1 70 54 bd 80 a7 c0 bc
       -0.06885064 0.0033239299 -0.051865403 -0.02351737
0002b0 25 f3 86 3d 6e dc b8 bc 10 78 96 bd 21 c2 62 bc
       0.06589345 -0.022566047 -0.07347119 -0.013840229
0002c0 ec 22 63 3c be ec 2e 3c 12 28 3f 3d 6a 34 6d 3d
       0.0138633065 0.010676561 0.046669073 0.057911314
0002d0 b2 14 54 bd 03 f1 a2 bb be 03 5a 3d 89 60 06 3c
       -0.05177755 -0.0049725785 0.053226225 0.008201727
0002e0 b8 e2 63 bd 76 10 6a bd b1 1e 0e 3d 46 84 35 3d
       -0.055636138 -0.057144605 0.03469724 0.0443156
0002f0 a7 69 42 ba cb 62 0f bd c1 fd 2f 3d b3 8e 35 bd
       -0.0007416256 -0.035006326 0.042966608 -0.04432554
000300 c7 9f d5 3c 50 73 a1 3d 82 48 34 bc 93 c0 94 3c
       0.026077164 0.07883322 -0.011003615 0.018158233
000310 3a fd d6 bc b2 d8 1f 3d 67 03 c6 3c 35 25 9e 3c
       -0.026243795 0.039025016 0.024171544 0.019304851
000320 43 3f b6 3c 67 ca f3 3c 83 b2 78 3d b6 51 2e 3d
       0.022246962 0.029759599 0.060717117 0.042558394
000330 56 80 00 bd b6 65 0d 3a f7 d0 a0 bc 67 e3 49 bd
       -0.03137239 0.0005393879 -0.019630892 -0.049289133
000340 07 cd 85 3c 6f 10 4f 3d 36 06 80 3d 49 20 50 3d
       0.016333116 0.05055278 0.06251185 0.05081204
000350 49 21 80 bc 10 6d 3b bb 90 12 37 3b 9a 8a 31 3d
       -0.015640872 -0.0028598942 0.0027934648 0.04334507
000360 ff 1c 3a 3d a0 60 cf 3c ce 0b c6 3c 97 c4 92 3d
       0.04543781 0.02531463 0.02417555 0.07166403
000370 85 c4 cb bc 9b 14 4b 3b 1e c4 4f 3d b3 93 72 bd
       -0.024873981 0.0030987624 0.05072414 -0.05922289
000380 30 26 47 3d 69 fc 0c 3d 38 77 47 3d f6 bc dd 3c
       0.048620403 0.034420405 0.04869768 0.027067643
000390 86 2e 0a 3b 5d 25 64 3d c4 af 90 3b d8 4a 13 bc
       0.002108486 0.055699695 0.004415484 -0.008990012
0003a0 01 29 94 3a 68 5c 8c bc b0 91 5c bc 4b ef 8c 3d
       0.0011303724 -0.017133906 -0.013462469 0.06881579
0003b0 f4 8d dc bc 78 c4 69 bd 89 1d 98 3d 8c ea 33 3c
       -0.026923157 -0.057072133 0.074275084 0.010981213
0003c0 b6 a5 91 bd 8f 98 17 3d 5b d7 57 3d 17 4b 59 bd
       -0.07111685 0.037010726 0.052695613 -0.053050127
0003d0 ee ac 8f bd a0 88 2f bd e0 47 3e bc 38 71 71 3c
       -0.070154056 -0.042854905 -0.011613816 0.014736466
0003e0 18 13 80 3c 67 51 ee bb 2b 4f 1f 3d 53 84 9b bc
       0.015634105 -0.0072728875 0.03889386 -0.018983996
0003f0 30 08 05 bd 49 5c 5e bc 44 34 94 bc f1 83 1d bb
       -0.03247851 -0.013571807 -0.018091328 -0.0024034942

features.residual_block_0.conv1.bias f4 [32]
000000 48 ab e0 3c d1 f9 d8 3c bf 21 3e 3d 0c ab fa 3c
       0.027425423 0.02648631 0.0464189 0.03059914
000010 4c a3 c1 3c a5 38 0b 3d 75 07 3c bd d6 e0 23 3d
       0.023637436 0.033989567 -0.04590555 0.040009342
000020 85 e4 96 bc 53 53 1a 3c d6 d7 ac bb 01 7e 47 3d
       -0.018419513 0.00941928 -0.005274753 0.04870415
000030 6d 7c 91 b8 63 02 1e 3d 13 0e 54 3d 97 59 cb bc
       -6.937315e-05 0.038576495 0.051771235 -0.024822993
000040 b0 3c 04 bd f5 fe 5d 3d ef 06 4f 3d f0 34 12 b8
       -0.03228444 0.054198224 0.05054372 -3.4858414e-05
000050 80 f0 dc bc 5f 18 33 bb ff 09 6d 3d 22 f7 c2 bc
       -0.026970148 -0.0027327759 0.05787086 -0.023799483
000060 0f b8 18 bd 1a 53 b2 bb 56 92 b5 3c 1b 8d df bc
       -0.037284907 -0.0054420354 0.022164505 -0.027288964
000070 55 bd 05 3d d6 11 74 bc 49 da 50 3d 19 88 a4 bb
       0.032651264 -0.014896831 0.050989423 -0.005021107

features.residual_block_0.bn1.weight f4 [32]
000000 3f 03 85 3f de 50 84 3f 1a b1 85 3f 15 40 83 3f
       1.0391616 1.0337179 1.0444672 1.0253931
000010 90 49 85 3f 89 ec 84 3f d0 ef 83 3f 66 40 83 3f
       1.0413074 1.0384685 1.030756 1.0254028
000020 fe be 85 3f 19 a7 83 3f 5b c5 85 3f 83 05 88 3f
       1.0448911 1.0285369 1.0450853 1.0626682
000030 13 c3 86 3f f5 16 85 3f 0a 04 83 3f 3f 9f 84 3f
       1.0528282 1.0397631 1.0235608 1.0361098
000040 ff 56 87 3f c3 9d 86 3f 52 0e 84 3f c4 c4 85 3f
       1.0573424 1.0516895 1.031687 1.0450673
000050 2a 80 86 3f 71 19 86 3f b5 13 85 3f 79 fc 85 3f
       1.0507863 1.0476514 1.0396639 1.0467674
000060 19 48 86 3f f0 f7 84 3f 41 90 85 3f 9a 02 84 3f
       1.0490752 1.0388165 1.0434648 1.0313294
000070 49 94 84 3f ad 13 86 3f 06 85 85 3f fc b1 87 3f
       1.0357753 1.0474755 1.043122 1.0601192

features.residual_block_0.bn1.bias f4 [32]
000000 2b 2d 45 3c 68 65 7c 3c 3d dc 4e 3c c7 59 41 3b
       0.012034695 0.0154050365 0.012625751 0.0029502974
000010 d9 15 1e 3c 3d 80 91 3c 75 3d df 3b 63 83 bd 3b
       0.009648764 0.017761344 0.006812746 0.005783485
000020 dc 8d f0 3b a7 30 0e 3c 29 79 49 3c 2c 16 b7 3c
       0.0073411297 0.008678592 0.012296953 0.02234944
000030 b9 98 31 3c 4b bc 59 3c c8 c0 e0 3b 32 a3 7c 3b
       0.010839635 0.013289521 0.006858919 0.003854942
000040 ca 26 b4 3c a4 dd 8b 3c 63 42 27 3c 13 e0 79 3c
       0.021991152 0.01707346 0.010208699 0.015251177
000050 c9 a3 5f 3c 9c 1f 74 3c 55 8f 71 3b 43 8b 89 3c
       0.013649889 0.014900114 0.0036859114 0.016790038
000060 a8 df 57 3c 65 bb 6b 3c f3 e6 55 3c 88 cb e1 3b
       0.013175882 0.01438794 0.013055551 0.006890718
000070 d1 cd 84 3c 01 72 96 3c 4d 28 8c 3b b2 0a 83 3c
       0.016211422 0.018364908 0.004277265 0.01599631

features.residual_block_0.bn1.running_mean f4 [32]
000000 00 00 00 00 00 00 00 00 00 00 00 00 00 00 00 00
       0.0 0.0 0.0 0.0
000010 00 00 00 00 00 00 00 00 00 00 00 00 00 00 00 00
       0.0 0.0 0.0 0.0
000020 00 00 00 00 00 00 00 00 00 00 00 00 00 00 00 00
       0.0 0.0 0.0 0.0
000030 00 00 00 00 00 00 00 00 00 00 00 00 00 00 00 00
       0.0 0.0 0.0 0.0
000040 00 00 00 00 00 00 00 00 00 00 00 00 00 00 00 00
       0.0 0.0 0.0 0.0
000050 00 00 00 00 00 00 00 00 00 00 00 00 00 00 00 00
       0.0 0.0 0.0 0.0
000060 00 00 00 00 00 00 00 00 00 00 00 00 00 00 00 00
       0.0 0.0 0.0 0.0
000070 00 00 00 00 00 00 00 00 00 00 00 00 00 00 00 00
       0.0 0.0 0.0 0.0

features.residual_block_0.bn1.running_var f4 [32]
000000 00 00 80 3f 00 00 80 3f 00 00 80 3f 00 00 80 3f
       1.0 1.0 1.0 1.0
000010 00 00 80 3f 00 00 80 3f 00 00 80 3f 00 00 80 3f
       1.0 1.0 1.0 1.0
000020 00 00 80 3f 00 00 80 3f 00 00 80 3f 00 00 80 3f
       1.0 1.0 1.0 1.0
000030 00 00 80 3f 00 00 80 3f 00 00 80 3f 00 00 80 3f
       1.0 1.0 1.0 1.0
000040 00 00 80 3f 00 00 80 3f 00 00 80 3f 00 00 80 3f
       1.0 1.0 1.0 1.0
000050 00 00 80 3f 00 00 80 3f 00 00 80 3f 00 00 80 3f
       1.0 1.0 1.0 1.0
000060 00 00 80 3f 00 00 80 3f 00 00 80 3f 00 00 80 3f
       1.0 1.0 1.0 1.0
000070 00 00 80 3f 00 00 80 3f 00 00 80 3f 00 00 80 3f
       1.0 1.0 1.0 1.0

features.residual_block_0.conv2.weight f4 [32, 32, 3, 3]
000000 e5 e7 e2 3c 94 8d 5c 3d 1c 24 2a 3d 6a 85 87 bc
       0.027698467 0.053845957 0.041538343 -0.016543109
000010 4d f0 c7 3c a9 9b 61 3d 1c 9d 35 bd 87 a5 c1 bc
       0.024406577 0.05508009 -0.044339284 -0.0236385
000020 d9 ad 23 3d 48 40 5b bd 27 02 48 bd 4a 15 ff bc
       0.039960716 -0.0535281 -0.048830178 -0.031138081
000030 d0 74 87 bd ae cb 05 3b 8a 7c 24 bd e3 e5 25 3c
       -0.06614077 0.0020415592 -0.040157832 0.01012561
000040 77 e0 ca 3b 30 e9 8e bb c0 73 1e 3d b3 86 62 bc
       0.006191309 -0.004361294 0.038684607 -0.01382606
000050 5c c3 3f 3d 77 e8 87 3c 9b d7 7c 3d 41 c7 9d 3d
       0.04681717 0.01659034 0.061729055 0.0770402
000060 91 c7 13 3d 97 cb db 3c c7 58 30 bc 61 fc 76 bd
       0.036078993 0.026830478 -0.010763354 -0.06029928
000070 31 a2 37 bc b8 11 10 3c c1 08 0f 3d ba 0e 8c 3d
       -0.011208103 0.008793287 0.034920458 0.06838746
000080 49 55 cf bc fb 84 7f bc 47 d1 76 bd c9 2e c2 3c
       -0.025309222 -0.01559567 -0.060258176 0.02370395
000090 9e 69 32 3d 8b 3b da bb 5b 79 4f bd 1a 1c fc 3b
       0.043557756 -0.00665993 -0.050652843 0.0076937797
0000a0 14 43 99 bc 45 b6 9b bd 9c 29 d0 3a f1 eb a2 bc
       -0.018708743 -0.076031245 0.0015881541 -0.019887896
0000b0 4c ac 50 3d 3e 82 aa 3d 22 8d 32 bd bb ce d1 bb
       0.050945565 0.08325623 -0.043591626 -0.006402818
0000c0 0a ee 05 3d 73 82 e2 bc 72 e6 5b 3d 8f 91 08 3d
       0.032697715 -0.027650094 0.053686567 0.03334194
0000d0 ea b7 f0 bc 0d ad 07 3b bd 53 24 3d 22 23 1a bc
       -0.029384572 0.0020702512 0.04011892 -0.00940779
0000e0 5d 43 70 bc f7 75 d2 bb 42 f6 8f bd 28 2e 76 3a
       -0.014664498 -0.006422754 -0.07029392 0.0009391033
0000f0 f8 4b 85 3d 40 27 75 3c 1d 6b 11 bd 21 78 48 3d
       0.065086305 0.014962971 -0.03550254 0.04894269
000100 ec ba 91 3d e3 ce 1d bd 6e 5e 33 3d 0f 69 02 bc
       0.07115731 -0.03852738 0.043791227 -0.007959618
000110 24 e6 dc bb ba 83 4d bc f4 c0 73 3d 6f 1e f5 bc
       -0.006741302 -0.012543613 0.059510186 -0.029921738
000120 91 d2 b3 3c de 4a 9d bc b2 16 54 3d 78 7a 97 bc
       0.021950992 -0.019200739 0.051779456 -0.018491015
000130 22 6b 80 3b ec 60 88 3d 6e 4e c7 3c e6 f6 2f 3d
       0.003919021 0.066591114 0.02432939 0.04296007
000140 71 72 eb 3c fe 43 83 bd f7 42 98 3c d9 7f 69 bd
       0.028741093 -0.06409453 0.018586619 -0.05700669
000150 9c ad 6c bc 7b 9c 7d 3d 9b 47 80 bc dc 15 14 bb
       -0.014445689 0.06191681 -0.015659144 -0.0022596037
000160 e2 9d d0 3c cc 0f f4 3c a3 db aa bc 1e c3 9d bc
       0.02546591 0.029792689 -0.020856684 -0.019258078
000170 d1 07 89 bc 01 15 f3 3c d6 2c 6f bd b4 25 7d 3d
       -0.01672736 0.029673101 -0.05839237 0.061803535
000180 b9 2c ea bb 1b 14 09 3d 46 bb a9 3b f7 d2 4f 3d
       -0.0071464446 0.03346644 0.0051797954 0.0507383
000190 33 b5 d3 bb e7 5f 56 3d 68 ea 90 3d ce aa cf bc
       -0.0064608096 0.052337553 0.070759594 -0.02535
0001a0 be b8 52 bc 6c 2b e8 3c 5f f0 92 bd 17 7d cd 3c
       -0.012861429 0.028341018 -0.071747534 0.025084062
0001b0 44 fb 88 3d 73 d8 24 3d d0 02 d0 3b eb b5 95 3c
       0.0668855 0.040245485 0.0063479915 0.018275222
0001c0 24 52 87 bd 89 ed 3b 3d b0 bd 8a bd be fb 36 3d
       -0.06607464 0.045880828 -0.06774461 0.044673674
0001d0 2a 46 6e bd c6 01 21 3c c4 4e 84 3b 3a af 67 bc
       -0.058172382 0.009827083 0.00403771 -0.014140898
0001e0 4c 0a 10 b9 bc 53 08 bd b0 db ad 3d 1c c7 81 bd
       -0.00013736746 -0.03328298 0.08489168 -0.06336805
0001f0 11 9e 42 bc c3 b1 93 bb 53 c0 a6 3c a2 b0 16 bd
       -0.011878506 -0.004507275 0.02035538 -0.036789544
000200 f2 4e 1c 3d f2 4a 78 3c 66 68 52 3d 08 89 0a 3c
       0.038161226 0.015154587 0.051369093 0.008455522
000210 4f b4 38 3d d5 28 f9 3c 7e 4a 74 bc 74 b9 3a 3d
       0.04509383 0.030414978 -0.014910338 0.045587018
000220 17 1a 55 bd 73 8e b8 bc 91 ba 26 3d 80 28 29 bd
       -0.052026834 -0.022528863 0.040705267 -0.04129839
000230 10 2b 03 3d ca 77 95 3d 7d 54 8b bd ad ee 7c bc
       0.03202349 0.072982386 -0.06803224 -0.015437764
000240 df fb 29 bd 04 2a 68 bd 52 46 11 bd 56 e7 fc 39
       -0.04149997 -0.056680694 -0.035467453 0.00048237544
000250 84 42 cb 3c 25 11 86 bb 29 66 82 3d 15 4c cc 3b
       0.02481199 -0.0040913993 0.06367142 0.0062346556
000260 01 e2 b0 3c 7e 01 ad 3d 64 5a 05 bd 3a a6 d4 bc
       0.021592142 0.0844755 -0.032556906 -0.02595817
000270 18 e0 43 bd b8 6c a4 3d e0 fc a4 3d 94 e8 f4 3c
       -0.047821134 0.08028549 0.080560446 0.029896058
000280 dd b7 80 3d d4 8e 85 ba fe 78 cf bb 3c 05 1a 3d
       0.06285069 -0.0010189661 -0.006331562 0.03760265
000290 19 25 20 bc ff da 11 bd 35 18 78 3d ba 18 08 3d
       -0.00977447 -0.03560924 0.06056996 0.033226706
0002a0 6d c3 69 bb 40 fd 92 3b 14 7a 82 bc 3a 9d 49 bd
       -0.0035669461 0.004485756 -0.015927352 -0.04922221
0002b0 d0 f3 8d 3c ed 9d 4f bd d3 99 8a 3d 44 17 c6 3c
       0.017328173 -0.05068772 0.06767621 0.024181016
0002c0 8b 22 b4 3c ed 27 03 bd 2c 7b 2a bd b0 10 3b 3d
       0.021989128 -0.032020498 -0.041621372 0.04567021
0002d0 ef 14 4a 3d d0 69 63 bd fd 92 2f bd 5f 5d 3c bd
       0.04933637 -0.055520833 -0.04286479 -0.045987483
0002e0 50 9e 74 3d 80 22 94 3b 03 c1 d8 3b 0b 62 67 bd
       0.05972129 0.0045207143 0.0066148057 -0.056489985
0002f0 2d 73 87 3c c3 58 83 3d 47 79 e6 bc 94 e0 28 bd
       0.016534412 0.06413414 -0.028134001 -0.0412298
000300 f5 65 da bc 9c d7 a7 3d 0e c4 24 3c 11 54 37 bd
       -0.026659945 0.08195421 0.010056509 -0.044757906
000310 53 0d 39 ba 1f c3 20 bd 91 dd 2a 3b 34 50 6b bd
       -0.00070591754 -0.039248582 0.0026072005 -0.057449535
000320 15 17 53 bd e2 73 28 bd 44 89 2b 3d e1 a9 cc bc
       -0.051535685 -0.04112614 0.041878954 -0.024983348
000330 cb 38 79 3a c7 09 39 bd f5 f7 26 bd 58 bd d9 3c
       0.0009507059 -0.04517534 -0.040763814 0.026579544
000340 55 9d 2a 3d 3b 3c 44 3d 8e 69 32 bc fc ad 35 3c
       0.04165395 0.047909003 -0.010889424 0.011088844
000350 dd 1e 57 bc 8f 25 1c bd 05 8f 97 3c 4a 35 21 3d
       -0.013129917 -0.038121756 0.018500814 0.03935746
000360 ff f1 a4 bc f5 2a 8a 3d ca c5 6e 3d 5e 2d e7 3c
       -0.020134924 0.06746475 0.058294095 0.028219875
000370 ce a9 15 bc 15 c4 6d 3d 3a 51 44 bd 6a 96 b7 3a
       -0.009134723 0.058048327 -0.047929026 0.0014006619
000380 43 d1 5a 3d 61 35 26 bd 73 9d 7e bd 87 05 f0 bc
       0.053422224 -0.04057825 -0.062161874 -0.02929951
000390 33 c8 3a ba 13 81 9a 3c 85 09 9b 3d dc 19 1c bd
       -0.0007125169 0.018860376 0.07570175 -0.0381106
0003a0 7f bf 53 3c db 22 14 3d 44 2f 84 3d 0b d4 a9 3d
       0.012924074 0.036166053 0.06454328 0.08292397
0003b0 36 a1 38 bd 2e 8b 8f bb a5 42 25 bd b9 0c 83 bd
       -0.045075618 -0.004380605 -0.04034676 -0.06398911
0003c0 1e 20 31 3c 8d 97 c4 bc 75 5d 27 bc 7a b9 7e 3c
       0.01081088 -0.023998046 -0.010215153 0.015547151
0003d0 00 a7 8c 3c f8 fd 13 3b 1f 16 3e bd 93 ac 78 3d
       0.017169476 0.0022581797 -0.046407815 0.060711455
0003e0 09 9f ab 3c 26 1f 0c 3c 3b ea 1c 3d 8e 4b 65 3d
       0.020949857 0.008552348 0.038309317 0.055980258
0003f0 00 37 a9 3b 3f 9c 49 3c c0 d1 a7 bc e3 56 38 bd
       0.005164027 0.012305318 -0.020485759 -0.045004737

features.residual_block_0.conv2.bias f4 [32]
000000 d0 de 1c bd 8b 3d 83 3d 05 fd c2 bc 53 9f 36 3d
       -0.038298428 0.06408223 -0.02380229 0.044585537
000010 9d 98 28 bd cd 5b 37 bd f0 11 9f bc ff 29 12 3d
       -0.04116117 -0.044765282 -0.019417733 0.03568458
000020 5e 4d ef ba c8 fc 48 bc c3 7d 1f 3d 99 d2 08 bc
       -0.001825731 -0.012267299 0.038938295 -0.008350992
000030 c8 92 10 bd eb 43 48 3d e4 d6 81 3c 8e 88 ad 3c
       -0.03529623 0.048892897 0.015849538 0.021183278
000040 ca 57 8b bc 0f 08 82 bb 53 30 16 bd 09 5d 7c bc
       -0.017009635 -0.003968246 -0.03666718 -0.015403041
000050 b9 1e 22 3c 10 06 22 3c 13 d3 f4 bc 2d 9c 15 3d
       0.00989502 0.009889141 -0.029885804 0.036525894
000060 e1 97 48 3d 03 b8 51 3d 53 6d b6 3c fb 6b 5a bb
       0.048972968 0.051200878 0.022268927 -0.0033328522
000070 a7 76 53 3d 6f ae da bb c1 fe 2b 3c 33 7c 35 3d
       0.051626828 -0.006673626 0.01049775 0.0443079

features.residual_block_0.bn2.weight f4 [32]
000000 8a 28 85 3f 61 03 85 3f 91 56 84 3f f3 09 85 3f
       1.0402997 1.0391656 1.0338918 1.0393661
000010 21 82 84 3f 87 0c 86 3f 90 76 86 3f cd 98 84 3f
       1.0352212 1.0472573 1.0504932 1.0359131
000020 c0 b0 84 3f 4a 73 84 3f c9 b0 84 3f 79 a1 82 3f
       1.036644 1.0347683 1.036645 1.0205528
000030 82 55 86 3f 5b 1c 86 3f 7c cc 85 3f d0 c9 82 3f
       1.0494845 1.0477403 1.0453029 1.0217838
000040 a2 9d 82 3f 48 8f 84 3f cf 3c 86 3f 0b f7 85 3f
       1.0204356 1.0356226 1.0487307 1.0466017
000050 7b 92 83 3f 0b de 84 3f 1a 7d 84 3f 4b 47 86 3f
       1.0279077 1.0380262 1.0350678 1.0490507
000060 7e 26 85 3f 37 c6 84 3f db 69 85 3f d0 1d 83 3f
       1.0402372 1.037299 1.042293 1.0243473
000070 50 ef 83 3f 3c 02 86 3f dc 04 86 3f 1a c9 85 3f
       1.0307407 1.0469432 1.0470233 1.0451996

features.residual_block_0.bn2.bias f4 [32]
000000 7f 3b d1 3b 67 8a c1 3b fc 47 81 3c 3f ee 36 3c
       0.0063852663 0.0059063914 0.015781395 0.011165201
000010 a1 e1 d0 3b e9 1c 52 3c 7c d9 5b 3c a0 95 86 3b
       0.0063745533 0.0128242755 0.013418552 0.004107192
000020 c7 c0 99 3b 34 80 25 3c 4a 02 ce 3b 14 e8 5b 3b
       0.0046921703 0.010101367 0.006286894 0.0033555077
000030 59 52 2d 3c 27 fb f6 3b 33 0c 4b 3c e4 68 37 3b
       0.010578715 0.007537264 0.012393045 0.0027986104
000040 b8 65 06 3c 48 54 4b 3c 72 cb 4c 3c 0c 74 5f 3c
       0.008202963 0.012410231 0.012499677 0.013638508
000050 11 f1 da 3b 1a 1c 43 3c 2e 4e 16 3c e4 48 c3 3b
       0.0066815694 0.011908555 0.009173913 0.005959617
000060 41 7a e3 3b 81 88 a7 3b c1 af ab 3b b8 b8 a4 3b
       0.006942064 0.005112708 0.0052394574 0.005026903
000070 22 af e2 3a 63 8e 5a 3c 33 96 d2 3b 71 49 ca 3b
       0.0017294625 0.013339612 0.0064265965 0.0061733057

features.residual_block_0.bn2.running_mean f4 [32]
000000 00 00 00 00 00 00 00 00 00 00 00 00 00 00 00 00
       0.0 0.0 0.0 0.0
000010 00 00 00 00 00 00 00 00 00 00 00 00 00 00 00 00
       0.0 0.0 0.0 0.0
000020 00 00 00 00 00 00 00 00 00 00 00 00 00 00 00 00
       0.0 0.0 0.0 0.0
000030 00 00 00 00 00 00 00 00 00 00 00 00 00 00 00 00
       0.0 0.0 0.0 0.0
000040 00 00 00 00 00 00 00 00 00 00 00 00 00 00 00 00
       0.0 0.0 0.0 0.0
000050 00 00 00 00 00 00 00 00 00 00 00 00 00 00 00 00
       0.0 0.0 0.0 0.0
000060 00 00 00 00 00 00 00 00 00 00 00 00 00 00 00 00
       0.0 0.0 0.0 0.0
000070 00 00 00 00 00 00 00 00 00 00 00 00 00 00 00 00
       0.0 0.0 0.0 0.0

features.residual_block_0.bn2.running_var f4 [32]
000000 00 00 80 3f 00 00 80 3f 00 00 80 3f 00 00 80 3f
       1.0 1.0 1.0 1.0
000010 00 00 80 3f 00 00 80 3f 00 00 80 3f 00 00 80 3f
       1.0 1.0 1.0 1.0
000020 00 00 80 3f 00 00 80 3f 00 00 80 3f 00 00 80 3f
       1.0 1.0 1.0 1.0
000030 00 00 80 3f 00 00 80 3f 00 00 80 3f 00 00 80 3f
       1.0 1.0 1.0 1.0
000040 00 00 80 3f 00 00 80 3f 00 00 80 3f 00 00 80 3f
       1.0 1.0 1.0 1.0
000050 00 00 80 3f 00 00 80 3f 00 00 80 3f 00 00 80 3f
       1.0 1.0 1.0 1.0
000060 00 00 80 3f 00 00 80 3f 00 00 80 3f 00 00 80 3f
       1.0 1.0 1.0 1.0
000070 00 00 80 3f 00 00 80 3f 00 00 80 3f 00 00 80 3f
       1.0 1.0 1.0 1.0

features.batch_norm_0.weight f4 [32]
000000 40 db 85 3f e7 fc 84 3f b5 38 86 3f 61 fc 86 3f
       1.0457535 1.038968 1.0486056 1.054577
000010 8e de 84 3f e3 5b 86 3f df b9 87 3f f6 9d 84 3f
       1.0380418 1.0496792 1.0603598 1.0360706
000020 f5 8b 85 3f 62 ee 84 3f e5 da 84 3f d9 3e 84 3f
       1.0433336 1.0385249 1.0379301 1.033168
000030 17 f5 85 3f 1c ad 86 3f 3a 6f 86 3f ef 34 84 3f
       1.046542 1.0521579 1.0502694 1.0328654
000040 19 e3 82 3f c5 9c 84 3f f9 a6 87 3f 4c cf 86 3f
       1.0225555 1.0360342 1.0597831 1.0532012
000050 29 f0 83 3f d6 c5 85 3f a4 0b 87 3f ac fc 86 3f
       1.0307666 1.0451 1.0550427 1.0545859
000060 f7 ed 85 3f 1e ab 85 3f 5e 17 86 3f 9e 62 84 3f
       1.0463246 1.0442846 1.0475881 1.0342596
000070 e0 18 85 3f d4 45 87 3f df 31 86 3f 47 e8 85 3f
       1.0398216 1.0568185 1.048397 1.046151

features.batch_norm_0.bias f4 [32]
000000 82 d8 d6 38 b9 ce 44 3b 30 7f 04 b7 2d 7e 03 3b
       0.00010244643 0.0030030443 -7.897426e-06 0.002006422
000010 4b 14 26 3b 3d a3 3b 39 f3 85 b1 3b 90 81 9f 39
       0.0025341685 0.0001789452 0.0054175793 0.00030423375
000020 2b 14 a8 3a d7 e4 88 3b 1b 69 33 3b 70 e0 41 38
       0.0012823393 0.0041776705 0.002737588 4.622381e-05
000030 99 63 e5 39 84 b8 0a 3b eb a1 0f b9 41 0c 9e b9
       0.0004375249 0.0021167109 -0.00013697862 -0.00030145238
000040 76 bf 03 3c 18 8c 35 39 80 6e 44 39 82 7f 5d 3a
       0.008041253 0.00017313694 0.00018733181 0.0008449481
000050 92 6e 11 3b dd 99 6e 39 ca 45 5a 38 1f 52 e9 b7
       0.002219115 0.00022754767 5.2040246e-05 -2.7814005e-05
000060 9b 0b 52 3b e4 ff 2a 3a a5 16 8c 38 01 0f 48 3a
       0.0032050374 0.0006523116 6.679938e-05 0.000763163
000070 a6 47 8a 39 3d 8a cd b9 3a 41 e7 b9 21 88 05 b9
       0.00026374793 -0.00039203643 -0.0004410835 -0.0001273458

features.batch_norm_0.running_mean f4 [32]
000000 00 00 00 00 00 00 00 00 00 00 00 00 00 00 00 00
       0.0 0.0 0.0 0.0
000010 00 00 00 00 00 00 00 00 00 00 00 00 00 00 00 00
       0.0 0.0 0.0 0.0
000020 00 00 00 00 00 00 00 00 00 00 00 00 00 00 00 00
       0.0 0.0 0.0 0.0
000030 00 00 00 00 00 00 00 00 00 00 00 00 00 00 00 00
       0.0 0.0 0.0 0.0
000040 00 00 00 00 00 00 00 00 00 00 00 00 00 00 00 00
       0.0 0.0 0.0 0.0
000050 00 00 00 00 00 00 00 00 00 00 00 00 00 00 00 00
       0.0 0.0 0.0 0.0
000060 00 00 00 00 00 00 00 00 00 00 00 00 00 00 00 00
       0.0 0.0 0.0 0.0
000070 00 00 00 00 00 00 00 00 00 00 00 00 00 00 00 00
       0.0 0.0 0.0 0.0

features.batch_norm_0.running_var f4 [32]
000000 00 00 80 3f 00 00 80 3f 00 00 80 3f 00 00 80 3f
       1.0 1.0 1.0 1.0
000010 00 00 80 3f 00 00 80 3f 00 00 80 3f 00 00 80 3f
       1.0 1.0 1.0 1.0
000020 00 00 80 3f 00 00 80 3f 00 00 80 3f 00 00 80 3f
       1.0 1.0 1.0 1.0
000030 00 00 80 3f 00 00 80 3f 00 00 80 3f 00 00 80 3f
       1.0 1.0 1.0 1.0
000040 00 00 80 3f 00 00 80 3f 00 00 80 3f 00 00 80 3f
       1.0 1.0 1.0 1.0
000050 00 00 80 3f 00 00 80 3f 00 00 80 3f 00 00 80 3f
       1.0 1.0 1.0 1.0
000060 00 00 80 3f 00 00 80 3f 00 00 80 3f 00 00 80 3f
       1.0 1.0 1.0 1.0
000070 00 00 80 3f 00 00 80 3f 00 00 80 3f 00 00 80 3f
       1.0 1.0 1.0 1.0

policy_head.0.weight f4 [256, 512]
000000 2a 08 3b 3d ae 90 67 3b 68 25 39 3d bf d9 a2 3c
       0.045662083 0.0035334039 0.04520169 0.01987922
000010 11 72 13 bd fb dc c8 bc 0d c9 d9 bb 46 20 19 bd
       -0.035997454 -0.024519434 -0.0066462816 -0.037384294
000020 3f c0 33 bd 3b b7 8a 3c 65 a2 d3 3c 37 69 21 3d
       -0.043884512 0.016933074 0.025834272 0.03940698
000030 e9 1c ce 3c 3f dc 14 3d 6c 91 b1 b9 4d 98 d9 3c
       0.02516027 0.036342856 -0.00033868419 0.02656188
000040 f5 fb f5 bc 8a fc 01 bd 9a 9d 04 3c fe da 45 bc
       -0.030027369 -0.03173498 0.008094216 -0.012076138
000050 24 74 07 3d 34 47 99 3c 3b 5c a6 3c 06 99 ad bc
       0.033069745 0.01871071 0.02030765 -0.021191131
000060 ae 3b 44 3d 4a 76 fb bc 05 0e 04 bc 6c fb cd 3b
       0.047908477 -0.030696053 -0.008059983 0.0062860753
000070 3f 66 65 3b d1 39 b1 3c fa 3a 0b 3c 01 1a 8c 3c
       0.003500357 0.021634014 0.008497948 0.017102243
000080 55 47 f0 bc 7f 06 91 3c b7 72 0b bd fc 0e f5 bc
       -0.029330889 0.017703293 -0.034044947 -0.029914372
000090 b3 24 15 3c e1 d6 14 bd 79 06 be 3c dd a4 0f bd
       0.009102988 -0.036337737 0.023196446 -0.035069335
0000a0 8d 18 f4 bb a8 f3 52 bc af 42 35 3d 38 49 ff 3c
       -0.0074492157 -0.012875475 0.044253048 0.031162843
0000b0 1a a9 27 3d 4b 97 a5 3c ec 03 ca bc 45 74 30 3d
       0.040932752 0.020213744 -0.024660073 0.043079633
0000c0 6c 06 da 3c ac 57 18 bd 57 f2 92 3b 67 ff 04 3c
       0.02661439 -0.037192985 0.0044844556 0.008117533
0000d0 20 57 7c 3c 20 f4 d9 bc 0c 42 2b bd be cb f3 bb
       0.015401632 -0.026605666 -0.041811034 -0.0074400594
0000e0 37 b5 3c 3d d5 97 35 3c 7b 86 10 bc 7c ad 16 3c
       0.046071257 0.011083563 -0.008821125 0.009196635
0000f0 ce ef c0 3c c0 55 c0 3c ad 57 de 3c d0 12 d9 3c
       0.023551848 0.023478389 0.027141416 0.026498228
000100 70 24 5c bd 0b f1 db 3c 6d d1 2d 3d ff c7 4b 3c
       -0.053745687 0.026848337 0.042436052 0.0124378195
000110 d5 32 b8 3b 8c 16 d1 bc d7 98 6d 3c 95 68 17 3c
       0.005621294 -0.025523447 0.014501772 0.009241243
000120 da a4 08 3d 4e ea 10 bd fd e6 25 bc bc cb 16 bd
       0.03336034 -0.0353797 -0.010125873 -0.03681539
000130 66 78 8f bc 8d 73 a9 3c 2e 68 ea 3c de d2 ee 3b
       -0.017513465 0.020684982 0.02861413 0.007288321
000140 5c 42 34 3d 6a 97 8f 3b 40 70 30 bd 95 16 c4 3a
       0.044008598 0.0043820636 -0.0430758 0.0014960343
000150 c7 5c d8 3c ff ee c4 3c 74 ea ca 3c 28 c9 55 bc
       0.026411427 0.024039743 0.02477 -0.013048448
000160 94 a9 9e bc f2 55 01 3d f7 78 9f bc ca f1 e2 bc
       -0.01936797 0.031576104 -0.01946686 -0.027703185
000170 44 51 94 3c fb 4e 22 3d 8e 6f bd bc 63 39 e4 3b
       0.018105157 0.039626103 -0.023124482 0.006964849
000180 37 12 0f bc ca f2 49 bd b4 b3 43 bd 78 59 af 3c
       -0.00873237 -0.049303807 -0.0477788 0.021404967
000190 d8 c9 27 3c 8b 15 1c bd 39 27 03 3d 91 ac 09 3d
       0.010240994 -0.038106482 0.032019828 0.033611838
0001a0 39 77 2b 3b e0 cf 28 3d d6 a5 4f b9 b9 38 5e bc
       0.0026163592 0.04121387 -0.00019802837 -0.013563328
0001b0 f2 15 06 3d d8 d9 2f 3d c1 51 2f 3d 1d ce ce bc
       0.032735772 0.04293236 0.042802576 -0.025244767
0001c0 95 d5 1f 3d b6 f8 2f bd c6 a5 90 3c 5e 0a 93 bc
       0.039022047 -0.0429618 0.017657172 -0.01794928
0001d0 f1 91 16 bd b4 73 a4 3c 9b d0 17 bc a4 8a 34 3d
       -0.036760274 0.020074703 -0.009266044 0.04407753
0001e0 ba 2a 2b bd a2 ce ee bc 24 29 54 bc 31 3e d4 3b
       -0.041788794 -0.029151265 -0.012949262 0.0064771404
0001f0 77 38 f8 bc f1 a3 15 bd aa 40 09 3d 5e 6b 63 3b
       -0.030300362 -0.0365333 0.033508934 0.0034701447
000200 73 1c 0b 3d 26 0a 1b bd 8d de 1a bd 70 11 ba 3b
       0.03396268 -0.037851475 -0.037809897 0.0056783482
000210 dc 8c 71 bb a2 82 66 3c f7 3b 68 3c 7e ff 0f bc
       -0.003685764 0.014069231 0.014174453 -0.008788941
000220 c3 a7 03 bd 20 9d 25 3d f0 e9 ad 3c d5 59 6e bc
       -0.032142412 0.04043305 0.021229714 -0.014547785
000230 e3 3c b4 3c 2f db 2c 3d 49 67 32 bc 46 3a a8 3c
       0.02200169 0.042201217 -0.010888883 0.0205356
000240 4d b3 2e 3d a6 b1 3c bc 1a 5c 0e bd 4b 89 d3 b8
       0.042651463 -0.011516964 -0.034755804 -0.00010086837
000250 0e a2 a0 3c 3d af 02 bc 66 5a 33 bd c4 7e 53 bc
       0.019608524 -0.00797635 -0.043787383 -0.012908641
000260 c8 2a 53 bc c9 05 34 3c d2 fb 2b bc 87 dd b7 3c
       -0.012888618 0.010987707 -0.01049705 0.0224445
000270 26 37 93 bc d3 8e 12 bd 51 ea 83 3b eb ec 04 3d
       -0.017970633 -0.03578074 0.0040257354 0.032452505
000280 52 7d 8c 3c f7 68 23 3d db 1d 41 bc 62 92 30 bc
       0.017149601 0.039895024 -0.011786903 -0.010777088
000290 3a 6c f1 3b d8 43 86 bc 53 b3 11 3d 0d 2d 36 3c
       0.007367638 -0.016389772 0.035571408 0.011119139
0002a0 f1 9f 21 bd c1 00 4b bc c5 ec e1 3c 1b 47 8a 3c
       -0.039459173 -0.012390316 0.02757872 0.016879609
0002b0 26 9b dd 3b 67 29 04 bd 9d 94 f4 bc 22 e6 30 bc
       0.00676288 -0.032266047 -0.02985602 -0.010797055
0002c0 0e 97 21 bc 6f 1d 47 3c 46 3a 3b 3d e0 af d9 3c
       -0.009862674 0.012153014 0.04570987 0.026573122
0002d0 12 06 37 3c 95 e7 e4 3b 8e 59 a4 3c 04 5e b2 3c
       0.011170881 0.0069856145 0.020062234 0.021773346
0002e0 77 46 56 3c ed c2 45 3c 1e e1 cf 3c 50 f2 94 bc
       0.013078324 0.0120704 0.025375899 -0.01818195
0002f0 0a c4 0e 3b e6 c8 01 bc 0a 97 a6 bc 3c 85 20 3d
       0.002178433 -0.007921433 -0.020335693 0.039189562
000300 c9 f0 9e bc 18 7a 84 bc f4 53 11 3d 82 c6 ba 3b
       -0.019401925 -0.0161715 0.035480455 0.0056999335
000310 19 c3 86 bb 62 dd 1c bd 12 62 c6 3c bf a3 d2 3b
       -0.004112613 -0.038297065 0.024216685 0.0064282115
000320 be 18 43 bd 82 68 8c 3c 8f ff 84 bc c5 fc 30 bc
       -0.047631018 0.017139677 -0.016235141 -0.010802452
000330 82 70 87 3c a9 6f 2c bd 77 c3 49 3d df 85 6b bc
       0.01653314 -0.042098675 0.049258675 -0.014375179
000340 5f 1c e2 bc 9a 37 10 3c be 8d 8c bc 9d f5 f3 bc
       -0.027601419 0.008802319 -0.017157432 -0.029780203
000350 28 4b 95 3c 66 a2 82 bc b0 91 3c bd 18 2c 2e 3c
       0.018224314 -0.015946578 -0.046037376 0.01063063
000360 01 09 11 bd 94 5f c1 3c 7f 90 be 3b 9b 2b dd bc
       -0.035408977 0.023605146 0.005815565 -0.026998332
000370 5d 0a 2b 3d b5 76 1e 3d ee c6 25 bc 85 dd a2 bc
       0.04175793 0.038687427 -0.010118229 -0.01988102
000380 b3 ec 0f 3d 16 c7 cc 3b c2 51 1c 3d 53 3b c5 3b
       0.035137843 0.006249319 0.038163908 0.006019035
000390 07 ae e6 3c 52 fa b9 3c da d5 2f bd af 5c 32 bc
       0.028159155 0.02270237 -0.042928554 -0.010886355
0003a0 10 74 ba 3c ef fd f9 bc da 6e c6 3c fe 9b 1d 3d
       0.022760421 -0.030516593 0.02422278 0.038478844
0003b0 d1 1a 0d 3d 34 dc 43 bc 73 57 97 bc ac 48 1e 3c
       0.034449402 -0.011954356 -0.018474316 0.009660881
0003c0 70 10 29 bd 6a 6a 1e 3d f4 08 5e bb be ec a9 bc
       -0.04127544 0.038675703 -0.0033879848 -0.02074277
0003d0 b7 73 de bc d8 d4 b1 bc 82 80 5e bc e3 84 00 bd
       -0.027154787 -0.021707937 -0.013580443 -0.03137673
0003e0 05 d7 23 bc 66 50 27 3a 17 75 bb 3c 3c 0c a8 bc
       -0.009999995 0.0006382525 0.022882981 -0.020513646
0003f0 7e 0b 7e 3c 3f ff 79 3c a4 4d 19 3c dd cd 72 3c
       0.01550567 0.015258609 0.00935689 0.014819589

policy_head.0.bias f4 [256]
000000 a0 29 14 bc 94 e0 17 3d 99 4c 0d bd 3d c0 1a bc
       -0.009043127 0.03707941 -0.034496877 -0.009445247
000010 a1 4d d2 bc f3 cc c5 3c d5 62 95 3b d3 2b 0c 3d
       -0.025671782 0.024145579 0.004558901 0.03422148
000020 b0 83 3f 3d ac 87 cb bc ec ad e1 3c dd fd cb 3c
       0.046756446 -0.024844967 0.027548753 0.024901325
000030 8a 79 b8 bc d2 23 f8 3c e0 0d cf 3b 61 8f f2 bc
       -0.022518892 0.030290518 0.0063187927 -0.029609384
000040 c9 78 42 3d 08 21 17 3d 6f 01 13 bd 66 ae e2 bc
       0.04747847 0.036896735 -0.03589004 -0.02767105
000050 c0 b9 df ba f0 7e 24 bd 5c 48 d4 3c ce 02 2a 3b
       -0.0017068908 -0.04016012 0.02591341 0.0025941613
000060 27 ab 0e bd a8 46 9a bc a6 2e 8d bc 9f f9 93 bc
       -0.034831192 -0.01883252 -0.017234158 -0.018063365
000070 1f 54 65 bc 5e 10 44 bc 91 ac c5 bc e0 95 60 3c
       -0.013997107 -0.011966793 -0.024130138 0.013707608
000080 4e 65 33 3d f3 89 18 3d 73 0d 27 bd 7a 42 7f 3c
       0.043797784 0.037240934 -0.04078431 0.015579814
000090 e9 5d 14 3d 44 e1 dc bc e2 f6 86 3c 43 a3 e8 3c
       0.036222372 -0.026962884 0.016475145 0.028398162
0000a0 39 91 ed 3c e5 1e d4 3c 6b 50 fd bc 96 f3 2e 3d
       0.028999912 0.025893638 -0.030922135 0.04271277
0000b0 60 fe 73 bc 25 4c 9c bc dc 5c b6 bc a2 c4 3c 3d
       -0.014892191 -0.019079277 -0.022261076 0.04608596
0000c0 1c 7f 10 3d e8 6c 9e ba 4a 93 d3 bc 80 80 72 3c
       0.03527747 -0.00120869 -0.025827069 0.014801145
0000d0 cf bc 9e bc 49 6f 84 3a 2f 22 0f bc f8 6c 19 bb
       -0.01937714 0.0010103966 -0.008736177 -0.0023410898
0000e0 6f 60 87 3c 1e 1d 8a 3c 4e 6b 09 3d 10 83 c9 bc
       0.016525475 0.016859587 0.0335496 -0.024598628
0000f0 34 8f aa 39 f7 70 17 3d 0f bb 7d 3b a3 84 9e 3c
       0.0003253162 0.036972966 0.0038716232 0.019350355
000100 ac 1c 40 3b 31 a5 09 bd d3 97 78 3c 8c a1 a2 bc
       0.0029313965 -0.033604804 0.015172916 -0.019852422
000110 97 9c 83 39 eb 8a 42 3d ff e3 72 bb 5a c0 ff bc
       0.00025102936 0.047495764 -0.0037062166 -0.03121965
000120 e8 a1 8c 3c d2 f3 c6 3c 39 cc 5f bc bc cc 13 bd
       0.017167047 0.024286184 -0.01365953 -0.03608392
000130 40 6c 8b ba cb 74 35 bd 9f 9b 2c 3d 40 ab 04 3d
       -0.0010637119 -0.044300836 0.0421406 0.03238988
000140 9c 30 c8 bc 45 84 12 3d 74 fc c9 bc 52 df ed 3b
       -0.024437241 0.035770673 -0.024656512 0.007259288
000150 bf 53 94 3c ad aa 9e bc 0e 9d 12 3d 6c 0f 0d bd
       0.01810634 -0.019368494 0.03579431 -0.034438536
000160 97 30 e2 bc 2e 38 0f bd 71 73 14 3d 47 40 d0 bc
       -0.02761106 -0.034965687 0.036242906 -0.025421275
000170 c0 b0 92 bc 5b c1 0d 3d d7 dd bd 3c f8 e0 20 bd
       -0.017906547 0.034608226 0.02317707 -0.039277047
000180 59 c7 9c bc d9 af 2b 3d e8 6b 7d bc 81 ba 46 bc
       -0.019138025 0.04191575 -0.015467621 -0.012129427
000190 09 b7 4b 3a 70 6a 1e 3c b2 34 0d bb 99 00 ab 3c
       0.000777111 0.009668931 -0.0021546301 0.020874308
0001a0 e9 6c f6 3c 43 a6 9e 3c cf 5d fc 3c ab ab 86 3c
       0.03008123 0.01936639 0.03080645 0.01643928
0001b0 46 b8 12 bd d1 6d dd 3c a3 3c 8a bc e4 b6 61 3c
       -0.035820268 0.027029904 -0.016874617 0.013776515
0001c0 6f 9c 2f bc d4 9d cd bc f4 e9 20 bd bb 6f 54 3c
       -0.010718449 -0.025099672 -0.039285615 0.012966092
0001d0 50 7b 20 3d 91 d5 90 3c 64 3a 80 3b 9b 6d 5e 3b
       0.0391801 0.017679961 0.0039132107 0.0033939842
0001e0 2c c4 e5 3c ea a9 10 3c 33 98 8b bc 02 ab 2a 3d
       0.028047644 0.008829573 -0.017040348 0.041666992
0001f0 c0 40 7e 3a 83 fd c3 3c 86 ce cf bc ec a2 2a 3d
       0.00096989796 0.023924595 -0.025367033 0.04165928
000200 7f 86 fc 3b f2 1f cf 3c b0 50 21 3d 9d 3a 18 bd
       0.007706463 0.025283787 0.03938359 -0.037165273
000210 c6 4d a4 3c b4 7a d7 3c 94 1d b1 bb cd 44 a7 bb
       0.020056617 0.026303627 -0.0054051373 -0.0051046372
000220 35 68 92 bc 4c 0f 17 3c d3 95 c2 bc 32 e3 e5 39
       -0.017871955 0.009219956 -0.023753082 0.00043847557
000230 cb c7 1d bd 43 1e f5 3c d6 dd d9 3c 72 24 cc 3b
       -0.038520616 0.029921656 0.026595037 0.0062299306
000240 1c bc 20 bd bf 21 d4 bc 8f cb af 3b 87 8c 2c 3d
       -0.039241895 -0.025894998 0.0053648422 0.042126205
000250 d9 1b cb bb 16 1c 14 3d f8 1a 5b 3c b2 9d 9d bb
       -0.006198388 0.036159597 0.013373129 -0.0048100585
000260 2e cb fa bb 4d eb 83 3b 77 c3 85 bc 18 d7 7b bc
       -0.0076536154 0.004025853 -0.016328556 -0.015371107
000270 d5 52 2a 3d 73 f7 a5 bc da 83 0b 3c 43 92 8b bc
       0.0415829 -0.020259595 0.008515323 -0.017037516
000280 7c 7d 14 3d da da 1f bd fd 61 82 3c 64 e6 4d 3c
       0.036252484 -0.039027072 0.015915865 0.012567136
000290 17 a8 29 3d 41 5b 49 3c c1 94 44 3c 18 c5 5f bc
       0.04142007 0.012289823 0.011998356 -0.013657831
0002a0 10 72 15 3d 95 b2 2e 3c 1b 28 82 3c 9b b3 d4 bc
       0.03648573 0.010662694 0.015888264 -0.025964549
0002b0 50 cc 21 bc 4f 5a 8d 3c 61 b0 bd bc 69 51 09 3d
       -0.009875372 0.017254977 -0.023155393 0.033524904
0002c0 01 61 31 bb cc 70 23 3b 30 7b 00 bd d3 6e e8 bb
       -0.0027065875 0.0024939058 -0.03136748 -0.0070932894
0002d0 01 09 b9 bc 97 8c 20 3d 18 43 e9 3b 3f cc 82 bc
       -0.022587301 0.039196577 0.007118594 -0.015966533
0002e0 e5 e7 a9 bc ba 48 01 3c 6b ad 1b 3d 0d 70 81 bc
       -0.020740459 0.0078908745 0.03800718 -0.0158005
0002f0 3b ca c7 bc d5 5f a4 3c 95 5b 21 3b f3 ff 4c 3c
       -0.024388423 0.020065228 0.0024621238 0.012512195
000300 3c d3 1f bb 68 97 c8 3c c1 eb 04 bd 4d b1 03 3d
       -0.002438738 0.024486259 -0.032451395 0.03215151
000310 82 db c5 bb 04 2a c0 bc 79 42 ca bb be b2 af 3c
       -0.0060381303 -0.023457535 -0.006172475 0.021447536
000320 0e ed 46 3d 86 d7 28 bd e1 b4 23 3d 8d 9d f5 bc
       0.048565917 -0.041221164 0.03996742 -0.029982353
000330 b6 04 06 bd 2e 12 3e 3c bc 49 21 3b 3b e5 2e 3d
       -0.032719336 0.011601014 0.00246106 0.04269908
000340 4c e9 20 bc b5 e4 94 bc 2f d6 bf 3c b7 50 2f 3d
       -0.009821247 -0.018175462 0.02341756 0.042801585
000350 02 bd e2 bc 9e 02 4e b9 3d c4 17 bd 52 f7 8d 3c
       -0.027678017 -0.00019646666 -0.03705238 0.017329846
000360 b2 8f f5 bc b2 a3 b5 bc a7 ad 91 bc 64 b9 3b 3b
       -0.029975746 -0.022172783 -0.017783 0.0028644437
000370 fc 0e 17 3d 62 d8 53 3b 09 23 c2 bc b2 1b 48 bc
       0.036879525 0.003232502 -0.023698347 -0.012213634
000380 72 83 bb bc 78 14 0c bd dd 5a be bc 80 63 06 3d
       -0.022889826 -0.034199208 -0.023236686 0.032809734
000390 46 8d d3 bc cd e2 af 3c ea a0 bb 3c 3c c9 08 bd
       -0.0258242 0.021470452 0.022903878 -0.033395037
0003a0 2a eb c8 3c 02 65 17 bd 56 fb c5 bc 3a da c3 3c
       0.024526197 -0.036961563 -0.024167698 0.02390777
0003b0 70 ce 86 3c b7 b0 8e 3b b5 22 dc bc 91 48 b4 bc
       0.016455859 0.004354562 -0.026872018 -0.022007259
0003c0 fe 4d e1 bc 14 3a 1c 3d 78 52 8d bb 84 c7 1c bd
       -0.02750301 0.038141325 -0.0043128096 -0.03827621
0003d0 f0 8b a4 bb 91 fd 14 bd 99 56 2a bb 3c be be bb
       -0.0050215647 -0.036374632 -0.0025991558 -0.0058210175
0003e0 4e 96 da bc e2 05 18 3c 3f e2 f2 3c 6b 5d 2b bd
       -0.026682999 0.009278746 0.029648898 -0.041837137
0003f0 56 34 08 3d ac e4 15 bc 44 5a 0f 3d 9c 50 e5 3b
       0.033253036 -0.009148758 0.034998193 0.006998135
