models/weights_generation_0.pt (torch, 631044 bytes, 22 tensors)

features.0.weight f4 [32, 4, 3, 3]
000000 dd db 12 3e 9b bb 10 3e 7c d2 65 bd c8 4f 13 be
       0.14341684 0.14134066 -0.056108937 -0.14385903
000010 84 02 21 3d 50 33 e5 bd 71 ac 04 3e 70 be 1e 3d
       0.03930904 -0.11191428 0.12956406 0.038755834
000020 28 24 bb bd d0 ea 73 3c dd 0a 25 3e 90 53 00 bc
       -0.09137756 0.014887527 0.16117425 -0.007832423
000030 a0 e0 19 bd f2 c5 e8 3d 42 7c a2 3d 80 f8 7a 3c
       -0.037567735 0.1136588 0.079338565 0.015318036
000040 83 d1 91 bd 3c 0d 4c bd ac ee 07 be 78 b7 f4 bd
       -0.07120039 -0.04981731 -0.1327464 -0.119490564
000050 be 1d 82 3d 0c 4f 0d bd a0 b0 35 bd 51 b7 09 3e
       0.06353329 -0.034499213 -0.044357896 0.13448836
000060 06 55 09 be 64 1b 62 3d 80 b4 a1 3d 76 a2 47 bd
       -0.1341134 0.055201903 0.07895756 -0.04873892
000070 86 e9 99 3d 11 9a 0f 3e 60 60 79 bd f0 af 52 3d
       0.07515244 0.14023615 -0.060882926 0.05143732
000080 35 e1 27 3e e6 67 f0 3d 00 f4 7e bb f8 d2 cd bd
       0.16394503 0.11738567 -0.003890276 -0.10050005
000090 8b 58 db bd a6 ec c8 3d 02 66 f2 3d 18 1c b8 bd
       -0.107102476 0.09810762 0.11835863 -0.089897335
0000a0 7e 73 a4 bd 72 d0 f2 3d ee f3 b9 3d 2e 31 8f bd
       -0.08029841 0.11856164 0.09079729 -0.06991802
0000b0 00 f9 de bc b5 69 12 3e 6b 9c 27 be bb 82 0c 3e
       -0.027218342 0.14298137 -0.16368262 0.13721745
0000c0 aa 10 f6 3d c6 44 e1 3d 4b 97 d6 bd 5b e4 d7 bd
       0.12014897 0.109994456 -0.104780756 -0.10541602
0000d0 66 82 dc bd 07 20 02 3e b4 45 5e 3d c3 7a 88 bd
       -0.10767059 0.1270753 0.054265693 -0.0666404
0000e0 ba 3c f5 3d 73 21 b2 bd 64 08 0d 3d f0 90 bd bd
       0.11974473 -0.08697786 0.03443183 -0.0925616
0000f0 50 92 0d be c6 a9 7d bd 2c 8d 1c 3d 63 f9 db bd
       -0.13825345 -0.061929487 0.03822057 -0.10740926
000100 b8 5c 05 be ae cd b0 bd a4 fe 29 be da 37 95 3d
       -0.1302365 -0.0863298 -0.16601044 0.072860435
000110 60 11 92 3d c0 69 df 3c e2 02 f9 3d f2 99 dd 3d
       0.0713222 0.027272105 0.12158753 0.10820378
000120 b2 65 a6 3d 9f ea 11 3e eb 76 c3 bd 92 1d c4 3d
       0.081248656 0.14249657 -0.09544166 0.095759526
000130 40 88 fe bd c3 28 f8 bd 8c bb 30 bd 32 03 e1 3d
       -0.124283314 -0.1211715 -0.04314761 0.109869376
000140 d8 d7 95 3c 34 95 06 3d f0 40 1d 3c b8 17 c3 bd
       0.018291399 0.032857135 0.009598002 -0.09526008
000150 2e 8f a4 bd 73 76 cc bd b8 33 b7 bc 6d c9 03 3e
       -0.08035122 -0.0998353 -0.022363529 0.12869807
000160 40 69 34 bc c0 b5 2e bc 42 43 97 3d a8 2a cd bd
       -0.011011422 -0.01066345 0.07385875 -0.10017902
000170 00 1c cf ba 9a 07 c4 3d 14 84 04 3d 93 71 94 bd
       -0.0015801191 0.095717624 0.032352522 -0.07248225
000180 83 39 84 bd 1d 24 21 3e 15 a8 1a 3e 20 9d 90 3b
       -0.06456282 0.15736432 0.1510318 0.004413262
000190 18 4f a7 3d 84 78 0d bd b8 f7 cb bd 6b 1e e3 bd
       0.08169383 -0.03453876 -0.09959358 -0.11089786
0001a0 ef d6 1a be e5 c5 24 3e 48 64 cf bd ba fa ec 3d
       -0.15121053 0.16091116 -0.10126549 0.1157126
0001b0 3e 2b db 3d a2 47 05 be d2 6e c0 3d 56 e8 14 be
       0.10701607 -0.13015607 0.09396137 -0.14541754
0001c0 6c d9 10 3d 72 b9 bc 3d e0 4c fe bd 3d 5b 1a 3e
       0.0353636 0.092150584 -0.124170065 0.15073867
0001d0 c2 12 fb 3d 79 ad 26 3e 80 0f e2 3b 12 0e cf 3d
       0.12259437 0.16277112 0.0068988204 0.101101056
0001e0 b0 ef 53 bc 70 fe cd bd 7e db a3 3d f8 f8 95 3c
       -0.012935564 -0.10058296 0.08000849 0.018307194
0001f0 fd 99 0f 3e 30 f1 59 3d 56 88 f3 bd 06 25 67 bd
       0.14023586 0.05320853 -0.118912384 -0.056431793
000200 3e ef a1 3d 02 e8 d8 3d 2c 52 15 3d 0d 82 0f 3e
       0.0790696 0.10591127 0.03645532 0.14014454
000210 47 e7 1e 3e 9b 5b c9 bd 53 80 8a bd 5b c2 1c 3e
       0.15517913 -0.098319255 -0.06762757 0.15308516
000220 21 c6 03 3e 55 b5 06 3e 7a 19 8e 3d f5 89 20 3e
       0.12868549 0.1315511 0.06938453 0.15677626
000230 7e 0d a0 bd e3 29 13 3e 7e a0 da bd 5c af 74 3d
       -0.078150734 0.14371447 -0.10675143 0.05973755
000240 40 2c 54 3d c2 91 d2 3d ea 51 b6 3d 0d 73 09 3e
       0.051800013 0.10281707 0.089023426 0.13422795
000250 2e c1 ad bd 70 98 06 3d 3b 76 9d bd e4 6c 01 bd
       -0.08484112 0.03286022 -0.07688566 -0.031597987
000260 26 05 e1 3d 68 d3 db bc 80 a1 1d bc ce f0 a1 3d
       0.1098731 -0.026834205 -0.009621024 0.07907258
000270 20 ea 81 bb e0 76 bd bd c8 27 8c bd e6 83 b1 bd
       -0.0039646775 -0.09251189 -0.06843525 -0.08667736
000280 46 90 57 bd 2b fb 82 bd f8 89 d7 bd 5c 3e 0c be
       -0.052627824 -0.06395563 -0.10524362 -0.13695663
000290 30 75 f2 bd 3d e6 29 3e a0 5a 9d 3c e0 d1 ec 3b
       -0.11838758 0.16591735 0.019208252 0.0072271675
0002a0 fc f9 18 be 50 21 1c 3c 10 32 54 bc ec ee 5e 3d
       -0.14939111 0.009529427 -0.012951389 0.054427072
0002b0 29 57 1a 3e 02 5e df 3d c0 3c 0a bc 84 c4 04 be
       0.15072311 0.109066024 -0.0084373355 -0.1296559
0002c0 32 e9 c3 3d d4 8f 62 3d d8 2c d8 bd 82 04 bd 3d
       0.09565963 0.055312946 -0.10555428 0.092293754
0002d0 81 d2 1a 3e e6 b8 79 bd 6f 29 26 be f0 4c 1c be
       0.15119363 -0.06096735 -0.16226743 -0.15263724
0002e0 72 a1 d6 3d de 94 b6 bd d2 c1 f4 3d ac 0d 4a bd
       0.10480012 -0.08915113 0.11951031 -0.049329445
0002f0 aa 1f ea 3d c6 8a e7 bd 97 c1 28 3e b8 44 82 bc
       0.11431821 -0.11305766 0.16480099 -0.015901908
000300 80 fb ba 3b 7a 9b b5 3d be 20 8b 3d 9f b8 21 be
       0.0057062507 0.088675454 0.067933545 -0.15793084
000310 5c 31 3d 3d c6 c2 25 be d3 c1 16 3e c0 65 d8 3c
       0.04618965 -0.16187581 0.14722376 0.026415706
000320 e5 b9 1a 3e ca 42 f1 3d ea 1b 28 be 30 78 a1 3d
       0.15109976 0.11780317 -0.16416898 0.07884252
000330 23 05 03 3e fe cb ea 3d 46 7f f6 bd 20 7f 00 3d
       0.12794928 0.1146469 -0.12035994 0.031371236
000340 68 f8 8d bc 2d d4 11 3e c0 7d 83 3c d0 27 5b bc
       -0.017330363 0.14241095 0.016051173 -0.013376191
000350 43 bc a1 bd fa dc 28 be 0a ef b2 3d c6 04 d8 bd
       -0.07897236 -0.16490546 0.08736999 -0.105477855
000360 30 ad 76 3c 00 60 fa b8 a4 5a 21 bd bc 14 19 bd
       0.01505594 -0.0001193881 -0.039393082 -0.03737329
000370 96 1a ac 3d bc 12 29 be 2a 68 fe 3d dc b0 4d bd
       0.08403508 -0.16511053 0.124222115 -0.050217494
000380 5b 6c 0d be c0 30 6a 3c 00 80 be b9 00 16 11 3c
       -0.13810866 0.0142938495 -0.0003633499 0.008855343
000390 00 0a b1 b9 6d b2 08 3e e8 7f e9 3c 49 49 1a 3e
       -0.0003376752 0.13349314 0.028503373 0.15067019
0003a0 e0 3e 80 3c 96 15 64 bd c1 fe 23 3e 28 4d 95 bc
       0.015654981 -0.05568465 0.1601515 -0.018225268
0003b0 38 b5 d4 bd 4b da ac bd f0 74 0b be 43 25 0c 3e
       -0.10386127 -0.084400736 -0.13618827 0.13686089
0003c0 b0 9f 75 bc 97 19 12 be 50 db 04 3d c0 16 3c bb
       -0.014991686 -0.14267574 0.032435715 -0.0028700083
0003d0 7a 07 0f be b6 97 c9 3d cb 8f 0b 3e a2 54 23 be
       -0.13967696 0.0984339 0.13629071 -0.15950254
0003e0 a6 da f8 3d 0e 9e a9 bd a8 2e b9 3c e0 99 b1 3c
       0.12151079 -0.082821 0.022605255 0.021679819
0003f0 ae e3 b4 bd b3 80 05 be 41 58 1f 3e 76 17 c9 3d
       -0.08832489 -0.13037376 0.1556101 0.09818928

features.0.bias f4 [32]
000000 1f f4 17 3e b2 a2 e0 3d d2 b5 88 3d 5c 9a 1e bd
       0.14839219 0.10968532 0.066753045 -0.038721427
000010 f6 53 2a be 1c 2b 03 bd bf 39 0a 3e 20 a8 4e bd
       -0.16633591 -0.032023534 0.13498591 -0.050453305
000020 3a 0f 16 be c7 28 14 3e 30 5d 69 bd 38 0f be bd
       -0.14654246 0.1446868 -0.056973636 -0.092802465
000030 5c 36 46 3d 00 94 8a 3b 93 b1 84 bd 2b e4 c9 bd
       0.048391685 0.0042290688 -0.06479182 -0.09857973
000040 36 65 de 3d 0c 9b 4e 3d 80 fb 8f ba 44 63 02 3d
       0.10859148 0.050440833 -0.0010984987 0.03183295
000050 6c 68 31 3d 10 80 39 bc fb a2 f1 bd 73 58 0d be
       0.043312475 -0.011322036 -0.11798664 -0.13803272
000060 70 43 28 be b8 a5 0b be 98 bf 91 bc 50 bf 40 3d
       -0.16431975 -0.13637435 -0.017791554 0.04705745
000070 a6 00 98 bd f8 58 d2 3c ce 24 c8 bd 36 16 ef bd
       -0.07421999 0.02567719 -0.09772645 -0.11674158

features.residual_block_0.conv1.weight f4 [32, 32, 3, 3]
000000 68 2e 27 bd 1d 6b 70 bd 40 9f 05 bb fa f8 84 3c
       -0.04081574 -0.0586959 -0.002038911 0.016232003
000010 20 44 5f bd 42 e4 9a 3c a8 74 6f bd ea a1 3f bd
       -0.05450833 0.01890767 -0.05846086 -0.046785273
000020 b6 6e f5 3c b6 c1 2a bd 7f 20 15 3d 00 55 44 39
       0.029960018 -0.041688643 0.036407944 0.00018723682
000030 70 9b 68 3b 21 a7 38 3d 3e c0 fa 3c 4a 9f a6 bc
       0.0035493039 0.04508126 0.030609246 -0.020339627
000040 a7 f8 55 bd 49 69 60 3d 36 fa 2c bd 77 97 29 bd
       -0.052239086 0.054787908 -0.042230807 -0.041404214
000050 e5 0a 37 3d 23 1a 6a bd 8c 94 4b 3c eb 2e 1d 3d
       0.044688124 -0.057153832 0.012425553 0.038374823
000060 77 10 2f 3d 2b fa 5d 3d 04 eb 57 3c de 6b be 3c
       0.04274031 0.054193657 0.013178591 0.023244794
000070 7a f2 e7 3c b2 77 a1 bc 7a 46 a0 3c 76 bc b2 3c
       0.028313864 -0.019710395 0.019564856 0.02181838
000080 6f 1f 64 3d e0 1c 8c bc 8d 2e 6c 3d 25 d5 54 3d
       0.05569404 -0.017103612 0.05766158 0.051961083
000090 c0 e7 33 bc 17 59 60 bd d4 8c 6c bc 6a b0 a9 bc
       -0.0109805465 -0.054772463 -0.014437873 -0.020714004
0000a0 b4 44 1e 3c 3b ac 32 3d d0 31 b2 bb 2a 38 a8 3c
       0.009659935 0.043621283 -0.005438067 0.020534594
0000b0 1a f7 d7 bc 88 22 57 bd 5f c7 08 3d ee 37 9f 3c
       -0.026362944 -0.052523166 0.03339326 0.019435849
0000c0 16 e1 11 bd 74 eb 07 bd 0c 4b a8 bc b1 40 e9 bc
       -0.03561505 -0.03318353 -0.020543598 -0.02847323
0000d0 cb 70 4b 3d 3b a0 e4 bc d5 2d 0c bd 1d 0a 51 bd
       0.049668115 -0.027908435 -0.034223396 -0.051035035
0000e0 58 4a ee bb bf 15 0e 3d 0e a6 c9 3c 76 df a5 3c
       -0.007272046 0.034688707 0.024615314 0.020248156
0000f0 29 40 2d bd 68 59 f8 3b 06 c9 c2 bc dd e2 43 3d
       -0.042297516 0.0075790174 -0.023777496 0.047823776
000100 9c eb 5f 3c 3f 9d 4c 3d 13 6a 04 3d b6 a3 35 bd
       0.0136670135 0.04995465 0.032327723 -0.04434558
000110 78 4c c8 3b c3 35 59 3d c4 4e 21 bc 91 ce 6f 3d
       0.0061126314 0.053029787 -0.009845439 0.058546606
000120 49 41 2c bd 5b d3 f5 bc a4 d4 44 3c 66 54 dc 3c
       -0.04205445 -0.030008009 0.012013588 0.026895713
000130 56 51 0d bd 18 1e 5a bd 2a 10 9b bc a0 7b 1f 3b
       -0.034501396 -0.053251356 -0.018928606 0.002433516
000140 2d c3 0b bd 9a 66 1f bd 0d b6 6f 3d 6b f3 19 3d
       -0.03412168 -0.038916208 0.058523227 0.037585657
000150 be ce a8 3c 1b 35 54 bd c0 e1 fc bb a9 2d 0f 3d
       0.020606395 -0.051808458 -0.007717341 0.034955654
000160 80 21 74 3a 80 9f ca 39 e7 29 6b 3d e2 6a 87 bc
       0.0009312853 0.0003864728 0.057413008 -0.016530458
000170 32 c2 e1 bc 52 f8 f8 3c 36 ce 2f bd 80 5c 8d 3a
       -0.02755842 0.030391846 -0.042921267 0.0010785013
000180 6d 3b 15 3d ca 30 4f bd 53 01 6f 3d ea 2f cb 3c
       0.036433626 -0.05058364 0.058350872 0.02480312
000190 63 66 5b 3d 90 60 08 bb d4 b1 20 3c 1c d3 2c bc
       0.05356444 -0.002080951 0.0098080225 -0.010548379
0001a0 e0 88 88 bc c3 81 1e 3d d8 2f fe bb 89 38 20 3d
       -0.01666683 0.03869797 -0.0077571683 0.039116416
0001b0 c4 79 5a 3c 8d 39 3e 3d 5e 19 18 bd 10 7e da bc
       0.013334695 0.046441603 -0.037133567 -0.02667144
0001c0 3c a1 ae bc 74 1a 63 3c 8e d0 87 3c e8 d9 dc bb
       -0.021317117 0.013861287 0.016578939 -0.0067398436
0001d0 9d 4b 0b 3d 00 e8 6e bc df 95 24 3d 8c b8 16 bc
       0.034007657 -0.01458168 0.04018199 -0.009199273
0001e0 aa ee f4 3c 43 10 6b 3d 90 8c b2 bb 85 8e 2e bd
       0.02989896 0.057388555 -0.0054488853 -0.042616386
0001f0 e0 8d 21 bc d6 28 43 bd 80 1c 91 b9 af 49 0b 3d
       -0.009860486 -0.047646366 -0.0002767779 0.034005817
000200 de 54 a5 3c 9d 69 12 3d fa 36 bd bc fa 54 45 bd
       0.02018207 0.035745252 -0.023097504 -0.048176743
000210 cc cf 52 bd 46 47 01 bd 95 e5 31 bd ae e0 8a bc
       -0.0514677 -0.031562112 -0.043431837 -0.016952839
000220 2c 62 74 3c 85 6f e6 bc 8b 89 47 3d d6 7b 28 bd
       0.014915984 -0.028129349 0.048715156 -0.041133724
000230 6d 98 1f 3d c8 69 bf bc a4 ed 42 3c 78 3e a3 bb
       0.038963724 -0.02336587 0.011897478 -0.004981812
000240 09 ed 45 3d dc d2 43 3c 92 6f f3 3c 9c 44 2e 3c
       0.048321757 0.011952128 0.029716287 0.010636475
000250 00 fe d8 38 9c 8b 42 3c 40 30 df bc 94 ae 72 bc
       0.00010346994 0.011874106 -0.027244687 -0.0148121305
000260 8c 47 41 3c aa 90 17 bd 02 3b d8 3c ec 12 0d bd
       0.011796843 -0.037003197 0.026395325 -0.034441873
000270 51 c1 6a bd 6f ed 4d bd 1a 10 ce 3c ec 4a 58 3c
       -0.057313267 -0.050275262 0.025154162 0.0132014565
000280 e9 6a 02 3d e4 7c 11 3c 26 3c d0 bc d6 43 ba bc
       0.03184024 0.008879874 -0.025419306 -0.022737425
000290 cc ca 25 bd f8 2a e4 3b 9a b4 43 bd c0 d0 aa bc
       -0.040476605 0.00696313 -0.047779657 -0.020851493
0002a0 14 dd 3a bd 00 32 5e bc 90 2c 9f bc 43 87 1c bd
       -0.045620993 -0.013561726 -0.019430429 -0.038214933
0002b0 2b ba 0a 3d fd a7 46 bd 0e 15 40 bd 6a 1d bb bc
       0.03386895 -0.04850005 -0.04689508 -0.022841174
0002c0 38 91 6a bc 9a 89 f1 3c 43 cd 26 3d b3 1e 5b 3d
       -0.014316849 0.029484559 0.040723097 0.053496074
0002d0 d4 28 39 bd 30 42 74 3b 4d 2e 50 3d d8 80 e5 3b
       -0.045204952 0.0037270896 0.050825406 0.0070038848
0002e0 ed cd 21 bd 84 4a 60 bd ca 4f fb 3c c6 0d 96 3c
       -0.039503027 -0.054758564 0.030677695 0.018317115
0002f0 18 e5 93 bb 22 36 67 bd 6e ed da 3c e0 de 0f bd
       -0.004513394 -0.05644811 0.026724543 -0.03512466
000300 76 d5 d0 3c 0d 96 39 3d 72 9f 00 bd 32 11 d2 3c
       0.025492411 0.045309115 -0.03140206 0.025642965
000310 10 b1 c4 bc cd c8 05 3d 82 bc ea 3c 4e 87 86 3c
       -0.024010211 0.0326622 0.02865434 0.01642194
000320 c0 07 7f 3a ce 69 9c 3c 26 4f f3 3c 8f 5a 56 3d
       0.0009728633 0.01909342 0.029700827 0.052332457
000330 22 2e 16 bd 5c 3b d4 bc ee 86 59 bd 34 4c 10 bd
       -0.03666509 -0.025907211 -0.053107195 -0.035228923
000340 00 f0 5e 3a 95 fe 07 3d bd 20 29 3d 0d ae 3c 3d
       0.0008504391 0.033201773 0.041290987 0.046064425
000350 9c f0 51 3c 2c 41 60 bc a6 10 8c bc 96 96 e7 3c
       0.012813713 -0.013687413 -0.017097782 0.028270047
000360 0f 2c 58 3d 99 2b 15 3d a8 5c 6d bc 69 ee 5d 3d
       0.052776393 0.03641853 -0.014487423 0.054182444
000370 00 41 a5 39 20 5a 02 3b 17 37 18 3d 88 16 39 bd
       0.0003151968 0.0019890144 0.037161913 -0.045187503
000380 2e ac da 3c 09 1c 1f 3d 6b ba 26 3d 7a d7 bb 3c
       0.02669343 0.038845096 0.040705126 0.022929896
000390 0a af c1 3c 3d 80 2d 3d 58 b1 a4 bc 4a ee 8e 3c
       0.023643035 0.042358626 -0.020104095 0.01744761
0003a0 c6 e5 af 3c 08 8d 74 bc ec 61 1a bd 86 b4 92 3c
       0.02147187 -0.014926203 -0.03769104 0.017908346
0003b0 d1 a7 4c bd 32 7e 2b bd f9 a1 63 3d f8 14 e2 bc
       -0.04996473 -0.041868396 0.05557439 -0.02759789
0003c0 45 fe 57 bd 0e 1e af 3c 83 0d 13 3d b7 4e 65 bd
       -0.052732725 0.021376636 0.035901558 -0.05598327
0003d0 ef c7 6c bd 6a 0d e1 bc e4 d4 25 bc 0e 0e a6 3c
       -0.05780786 -0.027472217 -0.010121558 0.020270374
0003e0 80 3a ae 39 52 b9 84 bc e5 69 18 3d 00 59 68 bc
       0.00033231452 -0.016201649 0.037210364 -0.0141813755
0003f0 cc 17 5d bd 8b e9 e9 bc 4e 31 f2 bc 26 cf 90 bc
       -0.053977773 -0.028553745 -0.029564526 -0.017676901

features.residual_block_0.conv1.bias f4 [32]
000000 24 8c 7b 3c 3c 27 35 3c 93 53 0a 3d 66 64 e2 3c
       0.015353236 0.0110567175 0.03377111 0.027635764
000010 f4 86 64 3c 32 cf 84 3c d1 fb 57 bd 31 31 0c 3d
       0.013948191 0.01621208 -0.052730385 0.0342266
000020 b6 44 d3 bc 40 99 3c 3a 42 54 90 bc 9e 3c d7 3c
       -0.0257896 0.0007194467 -0.017618302 0.026274022
000030 24 82 33 bc 62 e5 ce 3c a7 f2 37 3d c3 f7 ea bc
       -0.010956321 0.025255863 0.044909146 -0.028682595
000040 c4 bc 5e bd 8b dc 17 3d 7f 1a 25 3d 20 f5 7a bc
       -0.05437924 0.03707556 0.04030847 -0.015317231
000050 24 7c 26 bd ec d1 90 bc 77 e7 5d 3d ea 6f 26 bd
       -0.040645733 -0.017678224 0.05417582 -0.040634073
000060 56 db 4e bd ee a1 a2 bc 9c 0f 15 3c 71 14 0c bd
       -0.050502144 -0.019852605 0.00909796 -0.034199182
000070 ea 89 86 3c fa 5b 08 bd 11 3f 3f 3d 9e 79 ac bc
       0.016423184 -0.03329084 0.046691004 -0.021054085

features.residual_block_0.bn1.weight f4 [32]
000000 00 00 80 3f 00 00 80 3f 00 00 80 3f 00 00 80 3f
       1.0 1.0 1.0 1.0
000010 00 00 80 3f 00 00 80 3f 00 00 80 3f 00 00 80 3f
       1.0 1.0 1.0 1.0
000020 00 00 80 3f 00 00 80 3f 00 00 80 3f 00 00 80 3f
       1.0 1.0 1.0 1.0
000030 00 00 80 3f 00 00 80 3f 00 00 80 3f 00 00 80 3f
       1.0 1.0 1.0 1.0
000040 00 00 80 3f 00 00 80 3f 00 00 80 3f 00 00 80 3f
       1.0 1.0 1.0 1.0
000050 00 00 80 3f 00 00 80 3f 00 00 80 3f 00 00 80 3f
       1.0 1.0 1.0 1.0
000060 00 00 80 3f 00 00 80 3f 00 00 80 3f 00 00 80 3f
       1.0 1.0 1.0 1.0
000070 00 00 80 3f 00 00 80 3f 00 00 80 3f 00 00 80 3f
       1.0 1.0 1.0 1.0

features.residual_block_0.bn1.bias f4 [32]
000000 00 00 00 00 00 00 00 00 00 00 00 00 00 00 00 00
       0.0 0.0 0.0 0.0
000010 00 00 00 00 00 00 00 00 00 00 00 00 00 00 00 00
       0.0 0.0 0.0 0.0
000020 00 00 00 00 00 00 00 00 00 00 00 00 00 00 00 00
       0.0 0.0 0.0 0.0
000030 00 00 00 00 00 00 00 00 00 00 00 00 00 00 00 00
       0.0 0.0 0.0 0.0
000040 00 00 00 00 00 00 00 00 00 00 00 00 00 00 00 00
       0.0 0.0 0.0 0.0
000050 00 00 00 00 00 00 00 00 00 00 00 00 00 00 00 00
       0.0 0.0 0.0 0.0
000060 00 00 00 00 00 00 00 00 00 00 00 00 00 00 00 00
       0.0 0.0 0.0 0.0
000070 00 00 00 00 00 00 00 00 00 00 00 00 00 00 00 00
       0.0 0.0 0.0 0.0

features.residual_block_0.bn1.running_mean f4 [32]
000000 00 00 00 00 00 00 00 00 00 00 00 00 00 00 00 00
       0.0 0.0 0.0 0.0
000010 00 00 00 00 00 00 00 00 00 00 00 00 00 00 00 00
       0.0 0.0 0.0 0.0
000020 00 00 00 00 00 00 00 00 00 00 00 00 00 00 00 00
       0.0 0.0 0.0 0.0
000030 00 00 00 00 00 00 00 00 00 00 00 00 00 00 00 00
       0.0 0.0 0.0 0.0
000040 00 00 00 00 00 00 00 00 00 00 00 00 00 00 00 00
       0.0 0.0 0.0 0.0
000050 00 00 00 00 00 00 00 00 00 00 00 00 00 00 00 00
       0.0 0.0 0.0 0.0
000060 00 00 00 00 00 00 00 00 00 00 00 00 00 00 00 00
       0.0 0.0 0.0 0.0
000070 00 00 00 00 00 00 00 00 00 00 00 00 00 00 00 00
       0.0 0.0 0.0 0.0

features.residual_block_0.bn1.running_var f4 [32]
000000 00 00 80 3f 00 00 80 3f 00 00 80 3f 00 00 80 3f
       1.0 1.0 1.0 1.0
000010 00 00 80 3f 00 00 80 3f 00 00 80 3f 00 00 80 3f
       1.0 1.0 1.0 1.0
000020 00 00 80 3f 00 00 80 3f 00 00 80 3f 00 00 80 3f
       1.0 1.0 1.0 1.0
000030 00 00 80 3f 00 00 80 3f 00 00 80 3f 00 00 80 3f
       1.0 1.0 1.0 1.0
000040 00 00 80 3f 00 00 80 3f 00 00 80 3f 00 00 80 3f
       1.0 1.0 1.0 1.0
000050 00 00 80 3f 00 00 80 3f 00 00 80 3f 00 00 80 3f
       1.0 1.0 1.0 1.0
000060 00 00 80 3f 00 00 80 3f 00 00 80 3f 00 00 80 3f
       1.0 1.0 1.0 1.0
000070 00 00 80 3f 00 00 80 3f 00 00 80 3f 00 00 80 3f
       1.0 1.0 1.0 1.0

features.residual_block_0.conv2.weight f4 [32, 32, 3, 3]
000000 0c 29 1b 3c 7b df 55 3d bd 6e 44 3d 4e 34 3f bd
       0.009470236 0.05221508 0.04795717 -0.04668074
000010 82 bf e0 3c 15 19 6b 3d 3f 1a 63 bd c0 90 0d 3a
       0.027435068 0.057396967 -0.055444952 0.00054002926
000020 73 f0 46 3d 33 95 58 bd 4a 84 06 bd 4a a3 0d bd
       0.048569154 -0.052876662 -0.032841004 -0.034579553
000030 60 37 62 bd fe a9 ec 3c b5 50 51 bd 90 9f 0b 3b
       -0.05522859 0.028889652 -0.05110236 0.0021304823
000040 f8 bf 99 bb 17 e5 e6 bc fd d8 62 3d 94 fa 8a bc
       -0.004692074 -0.02818541 0.055382717 -0.016965188
000050 72 8b f9 3c 46 54 dd 3c f3 c8 4c 3d b5 24 49 3d
       0.030462 0.027017724 0.049996328 0.049107272
000060 fa 8b fc 3c 28 81 fa 3b 80 97 f4 b9 5e da 6e bd
       0.030828465 0.007644791 -0.00046652183 -0.05831372
000070 28 c6 79 bc dc c2 1c 3c 71 44 15 3d df e6 34 3d
       -0.015244998 0.0095679425 0.036442224 0.04416549
000080 32 6b 04 bd 18 38 69 bc 87 13 69 bd c2 8e c8 3c
       -0.032328792 -0.014234565 -0.05690339 0.024482135
000090 11 8c 42 3d 6b 14 f3 bc 9e 7a 4b bd 50 51 72 3b
       0.04749686 -0.029672822 -0.049677484 0.0036974736
0000a0 80 69 ec ba e1 82 6f bd 8a 79 85 bc b0 a3 23 bd
       -0.0018036813 -0.058474425 -0.016293306 -0.039951026
0000b0 8d 24 31 3d 1b 19 6d 3d 98 bc 1a bd 70 a8 d7 bc
       0.04324775 0.05788527 -0.037777513 -0.026325434
0000c0 aa cb 84 3c 04 44 12 bd f3 75 2b 3d 52 51 ac 3c
       0.016210396 -0.035709396 0.041860532 0.02103487
0000d0 4c 1d 05 bd 08 fb cf 3b d7 64 50 3d b8 ec 7f bc
       -0.032498643 0.006347064 0.05087742 -0.015620403
0000e0 b6 f8 9a bc 74 b0 ae bc a8 ab 3f bd 38 0a 5a bc
       -0.018917423 -0.021324374 -0.046794564 -0.0133081
0000f0 c9 72 44 3d 1e f8 e5 3c 4a 64 49 bd 03 8c 64 3d
       0.04796103 0.028072413 -0.04916791 0.055797588
000100 d3 ef 5f 3d a6 03 2c bd 05 91 0a 3d 0c e2 b0 bc
       0.054672074 -0.041995667 0.033829708 -0.021592163
000110 b0 db 1b bb fa 18 bf bc db 69 6c 3d 9e e8 f8 bc
       -0.0023782067 -0.02332734 0.05771814 -0.030384358
000120 46 6e d4 3c e0 b5 1c bc b5 5e 28 3d c0 0d 2d 3a
       0.025931489 -0.009564847 0.041105945 0.0006601475
000130 8a b3 90 3c cd e7 37 3d f4 29 46 3c 5e 7f f1 3c
       0.017663736 0.044898797 0.012094963 0.029479679
000140 c2 44 bd 3c c4 ea 5d bd 0e 55 e7 3c c5 aa 59 bd
       0.023104075 -0.054178968 0.0282388 -0.053141374
000150 6c 31 61 bc 59 e3 1c 3d 98 c9 9f bc f0 a1 56 bb
       -0.013744693 0.038302753 -0.019505307 -0.003275033
000160 92 12 c7 3c f2 fa fe 3c 76 eb ea bc 35 4b fb bc
       0.024300847 0.03112552 -0.02867673 -0.03067551
000170 ea f3 fd bc 6a ec c5 3c 0b ba 35 bd c1 34 5a 3d
       -0.031000096 0.024160583 -0.044366878 0.053272966
000180 60 fa 40 bc 48 55 e2 3b 88 78 bb bb 35 06 2a 3d
       -0.011778444 0.006907139 -0.0057211556 0.041509826
000190 84 8b 1e bc 4b c3 45 3d a1 bf 5b 3d 46 72 29 bd
       -0.009676818 0.04828195 0.05364955 -0.041368745
0001a0 b4 5b 50 3c d3 62 05 3d a5 9d 6f bd 58 64 a3 3b
       0.012717176 0.03256495 -0.05849995 0.004986327
0001b0 59 7a 21 3d e7 56 4c 3d f0 b6 44 bc e2 0a c9 3c
       0.03942332 0.049887564 -0.012006506 0.024541322
0001c0 48 ef 40 bd d1 9b 56 3d bc c4 2a bd b6 72 ee 3c
       -0.047103196 0.05239469 -0.041691527 0.029107433
0001d0 e4 53 58 bd dc be 49 3c 72 3e a6 3c 86 45 ce bc
       -0.05281438 0.012313571 0.020293448 -0.025179636
0001e0 d2 b1 9e bc c0 76 d2 bc e3 17 71 3d 29 45 29 bd
       -0.0193719 -0.02569139 0.05886067 -0.041325722
0001f0 30 b9 a4 bb 58 34 89 bb 80 08 4b 3b 2c cb 34 bd
       -0.005026959 -0.004187148 0.0030980408 -0.044139072
000200 de a3 e4 3c 8c db 27 3c 13 3a 31 3d 8c 9a 06 3c
       0.02791017 0.010245215 0.043268275 0.008215558
000210 cd d1 10 3d 96 2d 97 3c 78 3d ef bb 6b 91 46 3d
       0.03535633 0.018454354 -0.007301029 0.048478525
000220 22 91 46 bd 38 05 cc bc 56 2b d5 3c 20 29 51 bc
       -0.048478253 -0.024904832 0.02602164 -0.012766153
000230 7c 77 66 3c 09 33 69 3d 6a 4d 65 bd 60 a9 d3 bc
       0.014066573 0.056933437 -0.05598203 -0.0258376
000240 95 d4 f8 bc 08 b7 46 bd 0c 5e 05 bd 96 bb 99 bc
       -0.030374805 -0.048514396 -0.032560393 -0.018766206
000250 24 aa 3c 3c ba 93 c3 bc 79 b2 4d 3d 28 7f d8 bb
       0.011515174 -0.023874152 0.050219033 -0.006606955
000260 86 f7 86 3c df 76 5c 3d 56 73 8d bc 1c 95 4f bd
       0.01647545 0.0538243 -0.01726691 -0.05067931
000270 64 19 04 bd f5 e8 53 3d 5b f8 69 3d 4c 74 11 3c
       -0.032250777 0.051735837 0.057121616 0.008877825
000280 03 4d 53 3d a0 9b 7d bb e6 23 07 bd cb 40 09 3d
       0.051587116 -0.0038697496 -0.03299322 0.033509057
000290 50 d0 2a bc 4a 2e 17 bd 8d 00 6f 3d cb b0 24 3d
       -0.010425642 -0.03690938 0.058350135 0.040207665
0002a0 6e 0a d1 bc 88 f4 9d 3b 60 00 56 bb d6 26 6f bd
       -0.025517669 0.00482041 -0.0032654032 -0.058386646
0002b0 f6 1b dd 3c ec b0 5a bd 0f 14 64 3d 56 e0 b1 3c
       0.026990872 -0.053391382 0.055683192 0.021713417
0002c0 c6 5d 81 3c dc 9c c9 bc 62 3d 6c bd 95 29 06 3d
       0.015791785 -0.02461093 -0.057675727 0.0327545
0002d0 86 be c4 3c c1 97 64 bd 30 2f 56 bd 4a a7 4a bd
       0.02401663 -0.055808786 -0.052291095 -0.049475946
0002e0 e3 79 1e 3d dc af 79 bc a0 fc 37 bc e6 6b 1e bd
       0.03869046 -0.015239682 -0.011229664 -0.03867712
0002f0 72 b0 e4 3c 65 8d 5e 3d 04 ed 02 bd 4c b8 46 bd
       0.027916167 0.054334063 -0.031964317 -0.048515603
000300 b2 93 68 bd 65 58 6f 3d cc e8 68 3c ea fe 62 bd
       -0.05678148 0.05843391 0.014215659 -0.055418886
000310 98 73 ec bb 48 65 40 bd fa 3d 82 3c e6 36 30 bd
       -0.0072159283 -0.04697159 0.015898693 -0.043021105
000320 bb f1 67 bd 8e f1 ef bc 10 da 52 3b 01 e5 34 bd
       -0.056627017 -0.029289987 0.0032173432 -0.044163708
000330 6c ca 10 bc aa e0 5d bd 60 07 92 bb 2d 15 2b 3d
       -0.008837324 -0.054169334 -0.0044564456 0.04176824
000340 b9 87 36 3d be 0d e3 3c ec 22 1e bc 7a 28 ab 3c
       0.04456303 0.027716514 -0.009651881 0.020893324
000350 d1 5e fd bc 22 b8 1b bd 6c ee 0e 3c 5c 25 0f 3c
       -0.030929001 -0.0380174 0.008723836 0.0087369345
000360 14 da 14 bc d1 32 66 3d b9 3e 3e 3d 40 27 24 3a
       -0.009085197 0.056200806 0.046446536 0.0006261952
000370 14 83 27 3c 7f e6 3a 3d a6 a1 32 bd 18 de 6c bc
       0.010224123 0.045629974 -0.04361119 -0.014457248
000380 8e d7 e0 3c 24 a0 8f bc 58 e2 4e bd 24 ea 29 bd
       0.027446534 -0.017532416 -0.050508827 -0.04148306
000390 58 3f da bb ee 54 8a 3c 0f 33 3c 3d 7f a1 59 bd
       -0.006660383 0.0168862 0.04594713 -0.05313253
0003a0 2c bd 32 bc ee 0d cb 3c 37 9b 14 3d dd c1 3e 3d
       -0.01090936 0.024786916 0.036280837 0.0465716
0003b0 fa 75 15 bd 28 b2 4c bc 6c 22 36 bd 29 04 4c bd
       -0.036489464 -0.012493648 -0.04446642 -0.049808655
0003c0 f8 38 fc 3b ce 54 29 bd 48 43 32 bc 7a d1 9a 3c
       0.007697221 -0.04134064 -0.010880299 0.018898714
0003d0 55 37 1a 3d a0 42 41 bb 11 45 4d bd e3 22 56 3d
       0.037650425 -0.0029489174 -0.050114695 0.052279364
0003e0 e8 fd a1 3b 68 86 b6 3b 0d 39 41 3d f5 cd 26 3d
       0.004943598 0.0055702217 0.04717355 0.04072376
0003f0 c0 47 39 bc 20 dc f1 ba c8 aa ca bc 38 27 1f bd
       -0.01130861 -0.0018452443 -0.024739638 -0.03885576

features.residual_block_0.conv2.bias f4 [32]
000000 1a 0e 37 bd c3 43 6e 3d 4c 36 22 bd e7 db 08 3d
       -0.044691183 0.05817009 -0.039602563 0.03341284
000010 90 b0 42 bd ba ef 6b bd f2 90 06 bd 9f 50 01 3d
       -0.047531664 -0.057601668 -0.032853074 0.031571027
000020 d8 b4 d5 bb b0 61 b7 bc 4d b6 05 3d f8 ba 3f bc
       -0.0065218024 -0.022385448 0.03264456 -0.011702292
000030 10 0f 3c bd 97 4d 29 3d a0 14 61 3b 52 a4 96 3c
       -0.045912802 0.04133376 0.003434457 0.0183889
000040 c2 a7 ce bc 3c 6a 86 bc e2 78 49 bd ae 22 ee bc
       -0.025226478 -0.016408078 -0.04918755 -0.029069271
000050 f0 de 51 3b 40 a9 06 bb d4 f5 1f bd 26 4a fa 3c
       0.003202375 -0.0020547658 -0.0390528 0.030552935
000060 5f 19 2c 3d 63 b2 3c 3d 02 3f 8b 3c d8 00 09 bc
       0.042016383 0.04606856 0.016997818 -0.008362018
000070 cd 5b 4c 3d c8 14 a4 bc f8 03 85 3b 4f 19 1c 3d
       0.049892236 -0.02002944 0.004059311 0.038110074

features.residual_block_0.bn2.weight f4 [32]
000000 00 00 80 3f 00 00 80 3f 00 00 80 3f 00 00 80 3f
       1.0 1.0 1.0 1.0
000010 00 00 80 3f 00 00 80 3f 00 00 80 3f 00 00 80 3f
       1.0 1.0 1.0 1.0
000020 00 00 80 3f 00 00 80 3f 00 00 80 3f 00 00 80 3f
       1.0 1.0 1.0 1.0
000030 00 00 80 3f 00 00 80 3f 00 00 80 3f 00 00 80 3f
       1.0 1.0 1.0 1.0
000040 00 00 80 3f 00 00 80 3f 00 00 80 3f 00 00 80 3f
       1.0 1.0 1.0 1.0
000050 00 00 80 3f 00 00 80 3f 00 00 80 3f 00 00 80 3f
       1.0 1.0 1.0 1.0
000060 00 00 80 3f 00 00 80 3f 00 00 80 3f 00 00 80 3f
       1.0 1.0 1.0 1.0
000070 00 00 80 3f 00 00 80 3f 00 00 80 3f 00 00 80 3f
       1.0 1.0 1.0 1.0

features.residual_block_0.bn2.bias f4 [32]
000000 00 00 00 00 00 00 00 00 00 00 00 00 00 00 00 00
       0.0 0.0 0.0 0.0
000010 00 00 00 00 00 00 00 00 00 00 00 00 00 00 00 00
       0.0 0.0 0.0 0.0
000020 00 00 00 00 00 00 00 00 00 00 00 00 00 00 00 00
       0.0 0.0 0.0 0.0
000030 00 00 00 00 00 00 00 00 00 00 00 00 00 00 00 00
       0.0 0.0 0.0 0.0
000040 00 00 00 00 00 00 00 00 00 00 00 00 00 00 00 00
       0.0 0.0 0.0 0.0
000050 00 00 00 00 00 00 00 00 00 00 00 00 00 00 00 00
       0.0 0.0 0.0 0.0
000060 00 00 00 00 00 00 00 00 00 00 00 00 00 00 00 00
       0.0 0.0 0.0 0.0
000070 00 00 00 00 00 00 00 00 00 00 00 00 00 00 00 00
       0.0 0.0 0.0 0.0

features.residual_block_0.bn2.running_mean f4 [32]
000000 00 00 00 00 00 00 00 00 00 00 00 00 00 00 00 00
       0.0 0.0 0.0 0.0
000010 00 00 00 00 00 00 00 00 00 00 00 00 00 00 00 00
       0.0 0.0 0.0 0.0
000020 00 00 00 00 00 00 00 00 00 00 00 00 00 00 00 00
       0.0 0.0 0.0 0.0
000030 00 00 00 00 00 00 00 00 00 00 00 00 00 00 00 00
       0.0 0.0 0.0 0.0
000040 00 00 00 00 00 00 00 00 00 00 00 00 00 00 00 00
       0.0 0.0 0.0 0.0
000050 00 00 00 00 00 00 00 00 00 00 00 00 00 00 00 00
       0.0 0.0 0.0 0.0
000060 00 00 00 00 00 00 00 00 00 00 00 00 00 00 00 00
       0.0 0.0 0.0 0.0
000070 00 00 00 00 00 00 00 00 00 00 00 00 00 00 00 00
       0.0 0.0 0.0 0.0

features.residual_block_0.bn2.running_var f4 [32]
000000 00 00 80 3f 00 00 80 3f 00 00 80 3f 00 00 80 3f
       1.0 1.0 1.0 1.0
000010 00 00 80 3f 00 00 80 3f 00 00 80 3f 00 00 80 3f
       1.0 1.0 1.0 1.0
000020 00 00 80 3f 00 00 80 3f 00 00 80 3f 00 00 80 3f
       1.0 1.0 1.0 1.0
000030 00 00 80 3f 00 00 80 3f 00 00 80 3f 00 00 80 3f
       1.0 1.0 1.0 1.0
000040 00 00 80 3f 00 00 80 3f 00 00 80 3f 00 00 80 3f
       1.0 1.0 1.0 1.0
000050 00 00 80 3f 00 00 80 3f 00 00 80 3f 00 00 80 3f
       1.0 1.0 1.0 1.0
000060 00 00 80 3f 00 00 80 3f 00 00 80 3f 00 00 80 3f
       1.0 1.0 1.0 1.0
000070 00 00 80 3f 00 00 80 3f 00 00 80 3f 00 00 80 3f
       1.0 1.0 1.0 1.0

features.batch_norm_0.weight f4 [32]
000000 00 00 80 3f 00 00 80 3f 00 00 80 3f 00 00 80 3f
       1.0 1.0 1.0 1.0
000010 00 00 80 3f 00 00 80 3f 00 00 80 3f 00 00 80 3f
       1.0 1.0 1.0 1.0
000020 00 00 80 3f 00 00 80 3f 00 00 80 3f 00 00 80 3f
       1.0 1.0 1.0 1.0
000030 00 00 80 3f 00 00 80 3f 00 00 80 3f 00 00 80 3f
       1.0 1.0 1.0 1.0
000040 00 00 80 3f 00 00 80 3f 00 00 80 3f 00 00 80 3f
       1.0 1.0 1.0 1.0
000050 00 00 80 3f 00 00 80 3f 00 00 80 3f 00 00 80 3f
       1.0 1.0 1.0 1.0
000060 00 00 80 3f 00 00 80 3f 00 00 80 3f 00 00 80 3f
       1.0 1.0 1.0 1.0
000070 00 00 80 3f 00 00 80 3f 00 00 80 3f 00 00 80 3f
       1.0 1.0 1.0 1.0

features.batch_norm_0.bias f4 [32]
000000 00 00 00 00 00 00 00 00 00 00 00 00 00 00 00 00
       0.0 0.0 0.0 0.0
000010 00 00 00 00 00 00 00 00 00 00 00 00 00 00 00 00
       0.0 0.0 0.0 0.0
000020 00 00 00 00 00 00 00 00 00 00 00 00 00 00 00 00
       0.0 0.0 0.0 0.0
000030 00 00 00 00 00 00 00 00 00 00 00 00 00 00 00 00
       0.0 0.0 0.0 0.0
000040 00 00 00 00 00 00 00 00 00 00 00 00 00 00 00 00
       0.0 0.0 0.0 0.0
000050 00 00 00 00 00 00 00 00 00 00 00 00 00 00 00 00
       0.0 0.0 0.0 0.0
000060 00 00 00 00 00 00 00 00 00 00 00 00 00 00 00 00
       0.0 0.0 0.0 0.0
000070 00 00 00 00 00 00 00 00 00 00 00 00 00 00 00 00
       0.0 0.0 0.0 0.0

features.batch_norm_0.running_mean f4 [32]
000000 00 00 00 00 00 00 00 00 00 00 00 00 00 00 00 00
       0.0 0.0 0.0 0.0
000010 00 00 00 00 00 00 00 00 00 00 00 00 00 00 00 00
       0.0 0.0 0.0 0.0
000020 00 00 00 00 00 00 00 00 00 00 00 00 00 00 00 00
       0.0 0.0 0.0 0.0
000030 00 00 00 00 00 00 00 00 00 00 00 00 00 00 00 00
       0.0 0.0 0.0 0.0
000040 00 00 00 00 00 00 00 00 00 00 00 00 00 00 00 00
       0.0 0.0 0.0 0.0
000050 00 00 00 00 00 00 00 00 00 00 00 00 00 00 00 00
       0.0 0.0 0.0 0.0
000060 00 00 00 00 00 00 00 00 00 00 00 00 00 00 00 00
       0.0 0.0 0.0 0.0
000070 00 00 00 00 00 00 00 00 00 00 00 00 00 00 00 00
       0.0 0.0 0.0 0.0

features.batch_norm_0.running_var f4 [32]
000000 00 00 80 3f 00 00 80 3f 00 00 80 3f 00 00 80 3f
       1.0 1.0 1.0 1.0
000010 00 00 80 3f 00 00 80 3f 00 00 80 3f 00 00 80 3f
       1.0 1.0 1.0 1.0
000020 00 00 80 3f 00 00 80 3f 00 00 80 3f 00 00 80 3f
       1.0 1.0 1.0 1.0
000030 00 00 80 3f 00 00 80 3f 00 00 80 3f 00 00 80 3f
       1.0 1.0 1.0 1.0
000040 00 00 80 3f 00 00 80 3f 00 00 80 3f 00 00 80 3f
       1.0 1.0 1.0 1.0
000050 00 00 80 3f 00 00 80 3f 00 00 80 3f 00 00 80 3f
       1.0 1.0 1.0 1.0
000060 00 00 80 3f 00 00 80 3f 00 00 80 3f 00 00 80 3f
       1.0 1.0 1.0 1.0
000070 00 00 80 3f 00 00 80 3f 00 00 80 3f 00 00 80 3f
       1.0 1.0 1.0 1.0

policy_head.0.weight f4 [256, 512]
000000 f3 79 32 3d 70 14 06 3b 55 ea 27 3d ce af b0 3c
       0.04357333 0.002045896 0.04099496 0.021568205
000010 26 76 f3 bc 15 76 d5 bc 98 ea a6 bb b4 ca cb bc
       -0.029719424 -0.026057282 -0.0050938837 -0.02487693
000020 e7 da 08 bd f2 8f 80 3c 72 76 cd 3c 2f 68 32 3d
       -0.033411887 0.015693638 0.025080893 0.04355639
000030 56 0a c6 3c 4a 42 de 3c 00 a9 59 ba 7a 20 95 3c
       0.02417485 0.027131218 -0.0008303076 0.018203963
000040 86 a6 fc bc 3a ce 9f bc 84 b3 5a 3c 2c 15 3a bc
       -0.030841123 -0.019507516 0.013348464 -0.011357587
000050 b7 1c 1a 3d 3a 1f 9e 3c ba a1 a1 3c f4 22 8c bc
       0.03762504 0.019302 0.019730438 -0.01710651
000060 17 a6 34 3d 57 37 d1 bc ca 2c af bc c0 99 70 3c
       0.044103708 -0.025539083 -0.021383662 0.014685094
000070 d8 97 d5 bb 6a f3 98 3c a8 65 66 3c 6c f1 62 3c
       -0.0065183453 0.018670756 0.014062323 0.013851505
000080 73 89 e6 bc d8 75 5f 3c 4e 9d 24 bd ce 60 0b bd
       -0.028141713 0.013638936 -0.04018908 -0.034027867
000090 1a 67 85 3c ca ba 14 bd d2 59 d6 3c 6d de fd bc
       0.016284514 -0.03631095 0.026165877 -0.03098985
0000a0 10 95 bf 3b b4 68 3c bc 03 e0 2d 3d e1 4a 1d 3d
       0.005846627 -0.011499573 0.042449962 0.03840149
0000b0 55 86 2e 3d 76 d9 e6 3c bd d7 ba bc cd f7 11 3d
       0.042608578 0.028179865 -0.02280795 0.035636712
0000c0 36 be c8 3c 53 9d 1b bd 80 88 ae b9 80 8b 32 ba
       0.024504762 -0.037991833 -0.00033289567 -0.0006810948
0000d0 78 86 a8 3b 59 f6 ee bc c2 fc 13 bd b8 05 dd bb
       0.005142983 -0.029170202 -0.03612972 -0.0067450665
0000e0 57 6e 22 3d b8 2a 59 3c 00 4e f4 3a 80 3b e0 3b
       0.03965601 0.013254814 0.0018638968 0.0068430305
0000f0 0e 70 f1 3c 96 21 b4 3c fe 47 e7 3c 1e 7b be 3c
       0.029472377 0.021988671 0.02823257 0.023252066
000100 eb a6 2a bd 37 73 18 3d 7f ae 25 3d 44 53 59 3c
       -0.04166309 0.037219252 0.040449616 0.013264481
000110 00 74 af 3a 0f 79 c8 bc a0 a4 93 3c 18 d9 3a 3c
       0.0013386011 -0.024471788 0.018022835 0.011404298
000120 ae 49 fc 3c 5c de fd bc 48 f4 52 bc 19 09 0d bd
       0.030796852 -0.030989818 -0.012875624 -0.034432504
000130 0a 9b 9f bc 6e 66 9f 3c 7a 11 b0 3c 60 bc 28 3b
       -0.019483108 0.019458022 0.021492708 0.0025747046
000140 f9 8e 2a 3d 94 ac 5f 3c 38 6b 10 bd 48 45 ca 3b
       0.041640256 0.013651986 -0.0352585 0.0061728097
000150 4e f8 98 3c d6 02 ae 3c 0e 42 9d 3c 38 30 e4 bb
       0.018673088 0.021241587 0.019196536 -0.006963756
000160 23 dd f4 bc 2e 2b ed 3c 14 44 5c bc 42 2a 0c bd
       -0.029890602 0.028951254 -0.013443965 -0.034219988
000170 46 50 bb 3c 13 c6 0d 3d d4 cf 49 bc c8 ea b1 3b
       0.022865426 0.034612726 -0.0123176165 0.0054295994
000180 58 a2 07 bc b1 28 26 bd 5a fa 27 bd 2f 49 10 3d
       -0.008278452 -0.04056615 -0.04101024 0.035226043
000190 f8 a2 45 3c eb 56 34 bd 3f 3a 01 3d 96 32 e7 3c
       0.012062781 -0.044028204 0.03154969 0.028222363
0001a0 f0 85 2a bb 7d 5f 01 3d 30 8d 21 3b 60 a4 bc bc
       -0.0026019774 0.031585205 0.0024650805 -0.023027599
0001b0 9e 17 eb 3c 5d 7e 16 3d f1 3f 2e 3d 22 01 92 bc
       0.028697785 0.036741603 0.042541448 -0.017822806
0001c0 c5 63 31 3d 0a 4d 15 bd 02 c2 e9 3c cc 5a 28 bc
       0.04330804 -0.036450423 0.028534893 -0.010275554
0001d0 eb 5e 27 bd 86 bf c5 3c 70 e3 50 bc f7 2e 24 3d
       -0.040862005 0.024139177 -0.012749538 0.04008385
0001e0 b9 e8 2a bd ec ca 11 bd a1 f9 8b bc 30 2b c3 3b
       -0.041725848 -0.035593912 -0.017086806 0.005956076
0001f0 60 65 fb bc 41 3a d3 bc 22 ac bd 3c 80 72 b9 3b
       -0.030687988 -0.025784614 0.023153368 0.0056594014
000200 5d 55 13 3d c0 fc 1a bd 43 35 e6 bc 80 a7 8f 3c
       0.03597008 -0.037838697 -0.028101569 0.017535925
000210 18 da d6 bb 68 b1 0c 3c 20 3e 4c 3c 10 11 7b bb
       -0.0065567605 0.008587219 0.012465984 -0.003830973
000220 a8 bf 18 bd de 5c f4 3c 86 1e b2 3c 6e cd b8 bc
       -0.037292153 0.029829439 0.02174307 -0.022558894
000230 d6 b5 c0 3c fa f2 f1 3c ce e7 6a bc 86 9e d8 3c
       0.023524206 0.029534806 -0.014337493 0.026442777
000240 fb 8a 34 3d b0 1b 13 bc 30 bf 21 bd 5c 4c 1e bc
       0.044077855 -0.008978769 -0.03948897 -0.00966176
000250 2a d5 9c 3c 88 9c 1d bc 57 12 23 bd 28 3b 73 bc
       0.019144613 -0.0096198395 -0.039812412 -0.014845647
000260 00 43 fe bb a8 7d 4f 3c 74 57 40 bc d2 22 e9 3c
       -0.007759452 0.012664236 -0.0117396 0.028458986
000270 66 00 9e bc e7 0a 02 bd 48 76 63 3c 3a 27 fe 3c
       -0.0192873 -0.03174868 0.013883181 0.031024564
000280 88 c4 4a 3c 1f 28 21 3d 44 a9 67 bc cc 4f 67 bc
       0.012375958 0.039344903 -0.014139477 -0.014118146
000290 08 72 d5 3b a3 02 ab bc 06 f8 ee 3c 48 4f d4 3b
       0.0065138377 -0.02087528 0.029171001 0.0064791776
0002a0 4a 3b 1e bd 34 8f 11 bc 17 6d 03 3d a4 43 57 3c
       -0.03863076 -0.00888424 0.032086458 0.013138685
0002b0 50 27 7b 3c b3 2e 06 bd 74 18 c1 bc a0 45 0b bc
       0.015329197 -0.03275938 -0.02357123 -0.008500487
0002c0 b8 12 28 bc 78 ab 52 3c d9 cc 1f 3d c6 29 c1 3c
       -0.010258369 0.012858264 0.039013717 0.02357949
0002d0 8e 0c e2 3c ec 78 84 3c f6 73 d6 3c 82 88 c4 3c
       0.027593877 0.016170941 0.026178341 0.023990873
0002e0 4e b5 a3 3c 12 a6 ab 3c 2a 08 c7 3c 2e 3c 62 bc
       0.019983914 0.020953212 0.024295885 -0.013808293
0002f0 a8 cd 28 bc 30 4b 00 bc 7c cc 8b bc 2a 0f fc 3c
       -0.0103029385 -0.007830426 -0.01706528 0.03076895
000300 b6 de a1 bc a4 d5 62 bc f3 21 11 3d 10 f8 16 3b
       -0.019759517 -0.013844881 0.035432767 0.002303604
000310 e0 a9 9d ba 5a 89 2a bd 42 68 e6 3c a0 66 d4 3b
       -0.0012028776 -0.041634895 0.028125886 0.0064819604
000320 68 a4 0b bd 56 1f 8e 3c 51 bf e1 bc 40 31 04 3b
       -0.034092337 0.017348927 -0.027557047 0.0020170957
000330 60 3a 32 3c 20 3a 17 bd bb d1 2b 3d 1f e0 95 bc
       0.0108781755 -0.036920667 0.04194806 -0.018295346
000340 10 8d a1 bc f8 d8 46 3c 88 8d 74 bc 4b b3 d3 bc
       -0.019720584 0.01213669 -0.014926322 -0.02584233
000350 30 83 92 3c 1c 00 5f bc de c7 34 bd f0 bc ff 3b
       0.01788482 -0.013610866 -0.04413592 0.0078045055
000360 b0 dc 1f bd 8a 12 ea 3c 98 30 f3 3b 3d a8 d8 bc
       -0.039028823 0.028573293 0.0074215643 -0.02644741
000370 af f7 26 3d a9 4a 34 3d ca 0d 5a bc 40 fe 6c bc
       0.040763553 0.044016514 -0.013308952 -0.014464915
000380 ff 2f 1f 3d 04 24 08 3c 63 c0 1c 3d 30 63 fa 3b
       0.038864132 0.008309368 0.03826941 0.0076412186
000390 2e d0 e2 3c 02 f2 b4 3c 9e 2c 1d bd 5c 65 63 bc
       0.027687158 0.022088055 -0.03837263 -0.013879146
0003a0 16 10 ad 3c 27 6e c8 bc e5 26 02 3d c1 8e 0d 3d
       0.021125834 -0.024466587 0.031775374 0.03455997
0003b0 eb c1 03 3d 4c 73 54 bc bc 8d 6b bc 60 13 c1 3b
       0.032167356 -0.012966942 -0.014377054 0.0058922023
0003c0 32 bf 0f bd 3d 67 1e 3d 60 5c 61 bb 92 ab d3 bc
       -0.035094447 0.038672674 -0.0034387335 -0.025838647
0003d0 7d 8b f6 bc a6 cb 86 bc 98 f5 43 bc a4 a2 ed bc
       -0.03009581 -0.016454529 -0.01196041 -0.029008217
0003e0 aa b8 8d bc 40 d2 70 ba 56 d6 fe 3c f8 8d cf bc
       -0.017299969 -0.0009186603 0.031108063 -0.02533625
0003f0 e8 18 8a 3c 38 28 64 3c 08 08 d3 3b 5a 74 ab 3c
       0.01685758 0.0139256045 0.0064401664 0.020929504

policy_head.0.bias f4 [256]
000000 50 68 f5 bb 53 96 09 3d 3c 2e 15 bd 22 24 5a bc
       -0.0074892417 0.033590626 -0.036421046 -0.013314279
000010 f7 1c fb bc 96 a6 b7 3c 80 ce 80 39 9f 5d 0d 3d
       -0.03065346 0.022418302 0.00024567917 0.034513112
000020 c3 9d 28 3d c4 79 f4 bc b6 5c b1 3c ca 0c e2 3c
       0.04116608 -0.029843219 0.021650653 0.027593989
000030 1f 91 d9 bc f6 c9 e6 3c 98 48 99 3b 5f 28 10 bd
       -0.026558457 0.028172474 0.0046778433 -0.03519475
000040 39 c9 23 3d ff 93 05 3d aa 40 25 bd 1d d8 06 bd
       0.039986823 0.032611843 -0.04034487 -0.032920945
000050 c0 b9 df ba ac f9 2f bd 56 ac f0 3c e0 90 89 3b
       -0.0017068908 -0.042962715 0.029379051 0.0041981786
000060 5a 65 28 bd 6c 87 8d bc 7a a3 b0 bc 9f f9 93 bc
       -0.04111228 -0.017276488 -0.021562327 -0.018063365
000070 7f b7 8f bc 10 be 28 bc 27 02 ea bc 30 a2 ee 3b
       -0.017543552 -0.010299221 -0.02856548 0.007282518
000080 19 5c 25 3d f3 89 18 3d 99 2e 25 bd 80 18 74 3c
       0.040371034 0.037240934 -0.040327642 0.014898419
000090 17 81 04 3d fe e7 e8 bc 58 d8 47 3c ea 4a ad 3c
       0.032349672 -0.028430935 0.012197576 0.021153886
0000a0 b5 a9 08 3d fa 21 a1 3c 70 7f 05 bd a9 69 19 3d
       0.03336497 0.019669522 -0.032592237 0.03745428
0000b0 a9 f0 95 bc 7f 72 bb bc c8 f3 e4 bc fb b8 32 3d
       -0.018303232 -0.022881744 -0.027948275 0.043633442
0000c0 a5 a9 01 3d c8 01 a0 bb 48 99 05 bd 14 74 14 3c
       0.031655926 -0.004883025 -0.032616884 0.009060878
0000d0 f6 58 89 bc 30 74 23 bb 54 83 3c bc 88 05 c6 bb
       -0.016766053 -0.002494108 -0.01150592 -0.00604314
0000e0 40 45 45 3c ec 25 73 3c 0e e8 f2 3c 3f cf e4 bc
       0.012040436 0.014840584 0.029651668 -0.027930854
0000f0 40 7e 86 3a 19 aa 1b 3d 00 1b f5 39 6c 88 6d 3c
       0.0010261014 0.038004015 0.00046750158 0.014497858
000100 20 25 dd 3a 25 24 26 bd 10 57 30 3c 0f 1a a3 bc
       0.0016872026 -0.040561814 0.010762945 -0.019909887
000110 00 99 18 3b b3 bb 2b 3d 80 fa af b9 f0 a1 ea bc
       0.0023284554 0.04192705 -0.00033565238 -0.028641671
000120 0e 4b 9a 3c d2 f3 c6 3c fa a6 91 bc 7d ad 0b bd
       0.018834617 0.024286184 -0.017779816 -0.034101
000130 40 6c 8b ba 94 f6 28 bd f1 ee 1b 3d 22 96 f3 3c
       -0.0010637119 -0.04125078 0.03806967 0.029734675
000140 07 be d8 bc ed 2d 1d 3d 74 fc c9 bc 78 44 b4 3b
       -0.0264578 0.038373876 -0.024656512 0.005501326
000150 50 45 61 3c 01 69 8d bc 6e 27 f8 3c 9a c9 0d bd
       0.013749436 -0.017261984 0.030292239 -0.03461609
000160 08 56 f9 bc db a3 1d bd 71 73 14 3d a2 7d b7 bc
       -0.03043653 -0.038486343 0.036242906 -0.022398774
000170 68 38 a1 bc be 15 f8 3c 6a d0 a0 3c f8 e0 20 bd
       -0.019680217 0.030283805 0.01963063 -0.039277047
000180 13 ad b1 bc d3 64 33 3d be 80 a5 bc af 59 82 bc
       -0.021688974 0.043797325 -0.02020299 -0.015911905
000190 40 19 5d bb 68 2b 8e 3b 5c 48 05 bc f6 f0 9f 3c
       -0.0033736974 0.0043386705 -0.008134928 0.019524079
0001a0 8e 25 e6 3c 3a 9c b5 3c 52 5c e9 3c 88 43 53 3c
       0.02809408 0.022169221 0.028486405 0.012894519
0001b0 fb 7d 26 bd 0a 13 c9 3c ce 24 65 bc 54 20 89 3c
       -0.040647488 0.024545211 -0.013985826 0.016739048
0001c0 c4 08 47 bc b8 e6 e5 bc f4 ec 16 bd c4 98 19 3c
       -0.012148086 -0.028064117 -0.03684707 0.009374801
0001d0 c9 9b 04 3d d4 68 73 3c 60 79 a4 ba 00 1c 60 b8
       0.03237513 0.014856536 -0.001254838 -5.343184e-05
0001e0 ea 97 b8 3c c0 a5 b7 3b 2f a7 b1 bc 33 cf 19 3d
       0.022533376 0.0056044757 -0.021686165 0.037551116
0001f0 c0 40 7e 3a 8e a0 da 3c 52 8d b7 bc 27 69 26 3d
       0.00096989796 0.026687887 -0.022406254 0.040627625
000200 78 3f b2 3b 1e 63 e7 3c 1d 10 02 3d 4e 7e 0b bd
       0.005439695 0.028245505 0.031753648 -0.034056
000210 86 86 a4 3c fa 23 e5 3c d0 1c 79 bb 50 4d af bb
       0.020083677 0.027971257 -0.0038011558 -0.0053497925
000220 32 5d 72 bc c4 a4 36 3c 62 d3 b0 bc 90 65 00 bb
       -0.014792727 0.011147682 -0.02158517 -0.0019591786
000230 24 03 2e bd 46 c0 e1 3c d6 dd d9 3c e0 f0 f8 3a
       -0.042483464 0.027557503 0.026595037 0.0018992685
000240 55 8a 2f bd b6 db d7 bc 10 90 ee 3b 7b b4 20 3d
       -0.042856533 -0.026349884 0.007280357 0.03923462
000250 a0 8d ae bb af 59 10 3d cc 42 35 3c e0 05 c7 bb
       -0.0053269416 0.03524178 0.011063289 -0.0060736984
000260 cc e8 24 bc 28 b5 80 3b a6 13 97 bc 90 25 4f bc
       -0.010065269 0.0039278455 -0.018441986 -0.012643233
000270 79 80 1e 3d 46 0a b5 bc 44 d5 26 3c 02 cf c5 bc
       0.03869674 -0.022099625 0.010182682 -0.02414656
000280 06 8a f6 3c 30 f5 32 bd a0 fb 34 3c 64 e6 4d 3c
       0.030095112 -0.04369086 0.01104632 0.012567136
000290 17 a8 29 3d a0 1b c5 3b e4 14 21 3c 58 82 76 bc
       0.04142007 0.006015256 0.009831641 -0.015045725
0002a0 2a bc f6 3c 68 29 15 3c 06 0d 9d 3c f0 14 01 bd
       0.03011902 0.00910411 0.01917125 -0.03151411
0002b0 fe 83 8c bc 2c 22 6e 3c 6e 45 e5 bc 95 55 08 3d
       -0.017152783 0.014534514 -0.027987208 0.033284742
0002c0 40 23 d9 bb 40 42 de 3a 30 7b 00 bd 08 d6 a5 bb
       -0.0066265166 0.0016957 -0.03136748 -0.005060915
0002d0 1c 96 d6 bc 1f 1a 23 3d e0 65 0a 3b 46 60 6c bc
       -0.026194625 0.039819833 0.002111785 -0.01442725
0002e0 08 31 c2 bc 18 7b 84 3b 6b ad 1b 3d 9b 47 8d bc
       -0.02370502 0.004042994 0.03800718 -0.017246058
0002f0 8c e6 f3 bc ee b8 82 3c d0 f1 25 bb c4 00 37 3c
       -0.02977302 0.015957322 -0.0025321133 0.011169616
000300 d0 b0 9f bb 2a 27 bc 3c 80 0a f1 bc 06 30 da 3c
       -0.0048733726 0.022967894 -0.029423952 0.026634227
000310 c4 09 24 bc 47 6a 02 bd 10 dc 96 bb 82 91 8d 3c
       -0.010012094 -0.031839635 -0.00460387 0.017281298
000320 ef 68 34 3d 61 76 21 bd cd 95 08 3d 7c 7d e0 bc
       0.044045385 -0.039419536 0.033345986 -0.027403586
000330 5f cc 0c bd 70 fa 38 3c 00 90 89 b8 0b 11 15 3d
       -0.03437459 0.011290178 -6.559491e-05 0.036393207
000340 3c 52 45 bc 38 7c 76 bc 12 cd b1 3c 0f 15 2a 3d
       -0.012043532 -0.0150442645 0.02170423 0.04152399
000350 27 a6 cb bc 50 47 3f 3b 57 e7 24 bd 40 ee 43 3c
       -0.024859501 0.0029186793 -0.040259685 0.011958659
000360 c9 fa 09 bd f1 5f be bc df 03 9f bc 90 30 31 bb
       -0.033686433 -0.023239108 -0.019411026 -0.0027037002
000370 2d 99 00 3d a0 48 b1 ba 05 aa cd bc 9c 39 80 bc
       0.03139608 -0.0013525672 -0.025105486 -0.01565247
000380 df f2 e1 bc 20 a3 0c bd 1a 69 e8 bc 06 d1 f1 3c
       -0.02758163 -0.034335256 -0.028370429 0.029518615
000390 2e cb c4 bc 8a 83 a3 3c a0 df 93 3c 65 f4 fa bc
       -0.024022665 0.019960184 0.018050969 -0.030634115
0003a0 a2 b8 a8 3c 70 b2 21 bd 56 fb c5 bc 3a da c3 3c
       0.020595852 -0.039476812 -0.024167698 0.02390777
0003b0 e8 83 2f 3c e0 cb b0 3b b5 22 dc bc 81 ae c5 bc
       0.010712601 0.0053953975 -0.026872018 -0.024131062
0003c0 4a 3f f8 bc ed 50 1e 3d c8 e8 10 bc f3 f2 15 bd
       -0.030303616 0.038651396 -0.008844562 -0.036608648
0003d0 f0 8b a4 bb 60 94 2c bd e8 bf d0 bb 94 c9 17 bc
       -0.0050215647 -0.04213369 -0.0063705333 -0.009264369
0003e0 9c f5 b7 bc f8 0d bd 3b b6 f1 bf 3c 08 ba 20 bd
       -0.022455983 0.0057694875 0.023430686 -0.039239913
0003f0 ba 4c ec 3c e8 42 08 bc 9d 30 0f 3d 40 ed 42 3b
       0.02884518 -0.008316733 0.03495847 0.0029743463
