models/weights_generation_4.pt (torch, 631044 bytes, 22 tensors)

features.0.weight f4 [32, 4, 3, 3]
0	0x3e21a150	0.15784192
1	0x3e45c41c	0.19313091
2	0xbd54ca63	-0.051950824
3	0xbe007fde	-0.12548777
4	0x3de188e4	0.11012438
5	0xbdd5f652	-0.104473725
6	0x3e4b1765	0.19833143
7	0x3d3b9417	0.045795526
8	0xbdc9298e	-0.09822379
9	0x3d902bc3	0.07039597
10	0x3e55e044	0.20886332
11	0x3d018819	0.031623933
12	0xbd1a12d3	-0.03761561
13	0x3e12c58b	0.14333169
14	0x3d7d53a6	0.06184735
15	0x3d174ea6	0.03694024
16	0xbd4b27d0	-0.049598515
17	0xbd44a184	-0.048005596
18	0xbdf5db30	-0.12004697
19	0xbdfbe2dc	-0.12299129
20	0x3db2a60b	0.087230764
21	0x3c383273	0.011242497
22	0xbd4a1fb9	-0.04934666
23	0x3e383642	0.17989448
24	0xbe0dd1db	-0.13849585
25	0x3dc6f3cf	0.097144715
26	0x3decee56	0.115688965
27	0xbd47a276	-0.04873892
28	0x3d99e986	0.07515244
29	0x3e0f9a11	0.14023615
30	0xbd796060	-0.060882926
31	0x3d52aff0	0.05143732
32	0x3e27e135	0.16394503
33	0x3df067e6	0.11738567
34	0xbb7ef400	-0.003890276
35	0xbdcdd2f8	-0.10050005
36	0xbdc82fb6	-0.09774725
37	0x3dfb5498	0.12271994
38	0x3e0b162e	0.1358268
39	0xbd273f24	-0.0408317
40	0xbd37414e	-0.044740014
41	0x3e37e823	0.17959647
42	0x3df6e0d2	0.120546
43	0xbcad1bff	-0.021131514
44	0xbc30cf7a	-0.010791654
45	0x3e14bcae	0.145251
46	0xbe056fb8	-0.13030899
47	0x3e19ac54	0.15007144
48	0x3e2afe0a	0.1669847
49	0x3e228fbb	0.15875141
50	0xbd0ade3a	-0.033903338
51	0xbd735b25	-0.059413094
52	0xbda8e4f3	-0.082467936
53	0x3e1913c6	0.14948949
54	0x3da489e0	0.0803411
55	0xbd877aee	-0.06615244
56	0x3e021d5d	0.12706514
57	0xbdd6cf6c	-0.10488781
58	0x3d094599	0.03351364
59	0xbe08c0b9	-0.13354768
60	0xbe106c18	-0.14103734
61	0xbd6a00b9	-0.057129595
62	0x3d89d6e2	0.06730439
63	0xbddbf963	-0.10740926
64	0xbe055cb8	-0.1302365
65	0xbdb0cdae	-0.0863298
66	0xbe29fea4	-0.16601044
67	0x3d9537da	0.072860435
68	0x3d921160	0.0713222
69	0x3cdf69c0	0.027272105
70	0x3df902e2	0.12158753
71	0x3ddd99f2	0.10820378
72	0x3db6b6d0	0.089215875
73	0x3e480535	0.19533236
74	0xbdc23260	-0.094822645
75	0x3dede02f	0.11615025
76	0xbdfed978	-0.124438226
77	0xbdaab3cf	-0.08335077
78	0xbbadcc4c	-0.005303895
79	0x3dbad140	0.091219425
80	0x3c772dc2	0.015086593
81	0x3d74ee8d	0.059797812
82	0x3d850b42	0.06496288
83	0xbdc38d84	-0.09548476
84	0xbdb3e986	-0.087847754
85	0xbdf9a6d4	-0.12190023
86	0x3c81e5b0	0.015856594
87	0x3e125e37	0.14293753
88	0xbbe06d1c	-0.0068489444
89	0xbcad5385	-0.02115799
90	0x3db98987	0.090594344
91	0xbdf07747	-0.117415
92	0x3d1bc899	0.0380331
93	0x3df063d5	0.117377914
94	0x3db1091d	0.08644316
95	0xbd8cab62	-0.06868626
96	0xbd8960e4	-0.067079335
97	0x3e44f795	0.1923507
98	0x3e3e70ab	0.18597667
99	0x3b909d20	0.004413262
100	0x3da74f18	0.08169383
101	0xbd0d7884	-0.03453876
102	0xbdcbf7b8	-0.09959358
103	0xbde31e6b	-0.11089786
104	0xbe1ad6ef	-0.15121053
105	0x3e24c5e5	0.16091116
106	0xbdcf6448	-0.10126549
107	0x3decfaba	0.1157126
108	0x3e12f071	0.14349534
109	0xbdc31450	-0.09525359
110	0x3dfcd9cf	0.12346231
111	0xbe1c3003	-0.1525269
112	0x3d6ac67f	0.057318207
113	0x3e158801	0.14602663
114	0xbe065537	-0.13118444
115	0x3e5efd38	0.21776283
116	0x3e1c772c	0.15279835
117	0x3e526fba	0.20550433
118	0x3cf84eca	0.030311007
119	0x3df0313a	0.11728139
120	0xbd429c13	-0.047512125
121	0xbdb19677	-0.08671277
122	0x3d93e78c	0.072218984
123	0x3c9b2463	0.018938249
124	0x3e5556b3	0.20833854
125	0x3dabbe74	0.083859354
126	0xbdc23b83	-0.09484007
127	0xbccdfdde	-0.025145467
128	0x3dded72d	0.10880885
129	0x3e26e80d	0.16299458
130	0x3dbfe978	0.093707025
131	0x3e22013d	0.15820785
132	0x3e510f45	0.20415981
133	0xbe07b64c	-0.13253134
134	0xbd84a2a9	-0.064763375
135	0x3e1cc25b	0.15308516
136	0x3e03c621	0.12868549
137	0x3e06b555	0.1315511
138	0x3d8e197a	0.06938453
139	0x3e2089f5	0.15677626
140	0xbda00d7e	-0.078150734
141	0x3e1329e3	0.14371447
142	0xbddaa07e	-0.10675143
143	0x3d74af5c	0.05973755
144	0x3ddb068a	0.106946066
145	0x3e10235d	0.1407599
146	0x3e0eeb65	0.13956983
147	0x3e130692	0.14357975
148	0xbd5289d5	-0.051400978
149	0x3da5c2e8	0.08093816
150	0xbd445329	-0.04793087
151	0xbc987ad0	-0.018613249
152	0x3e0c7eaf	0.13720201
153	0xbbc4d17f	-0.006006419
154	0x3d5134c9	0.05107573
155	0x3dc9e522	0.09858157
156	0x3b3ffef3	0.0029296249
157	0xbdaa55f9	-0.08317179
158	0xbd436271	-0.047701303
159	0xbda2b435	-0.07944528
160	0xbaff591d	-0.0019481514
161	0xbd6f4d70	-0.05842346
162	0xbdb48993	-0.08815303
163	0xbe1132ab	-0.14179485
164	0xbdd7cfc3	-0.10537674
165	0x3e62efeb	0.22161834
166	0x3d8d8794	0.06910625
167	0x3c5322b0	0.012886688
168	0xbe00b253	-0.12568025
169	0x3c71fe85	0.014770155
170	0x3c6fed4a	0.014643976
171	0x3d5eeeec	0.054427072
172	0x3e1a5729	0.15072311
173	0x3ddf5e02	0.109066024
174	0xbc0a3cc0	-0.0084373355
175	0xbe04c484	-0.1296559
176	0x3dc3e932	0.09565963
177	0x3d628fd4	0.055312946
178	0xbdd82cd8	-0.10555428
179	0x3dbd0482	0.092293754
180	0x3e0d7cf2	0.13817194
181	0xbcc35d04	-0.023848064
182	0xbe2e251d	-0.17006345
183	0xbe09b443	-0.1344767
184	0x3e46ba01	0.19406892
185	0xbd4d90d6	-0.050186954
186	0x3e13b28b	0.14423577
187	0xbd22da3b	-0.039758902
188	0x3e0d64eb	0.13808028
189	0xbd9d385b	-0.076767646
190	0x3e32a1e0	0.17444563
191	0xbbaaf193	-0.005216786
192	0x3b7584c1	0.003746316
193	0x3e2b02fc	0.16700357
194	0x3db5c685	0.08875755
195	0xbe05ab78	-0.13053691
196	0x3d8ae6d1	0.06782306
197	0xbe0e4024	-0.13891655
198	0x3e29b22f	0.16571878
199	0x3d4ffa52	0.050775833
200	0x3e41c83c	0.1892404
201	0x3e1ec5e4	0.15505177
202	0xbe698451	-0.22804381
203	0x3de6fa4f	0.11278211
204	0x3e032f38	0.12810981
205	0x3e150052	0.14550903
206	0xbdd2e7c8	-0.10298115
207	0x3d007f20	0.031371236
208	0xbc8df868	-0.017330363
209	0x3e11d42d	0.14241095
210	0x3c837dc0	0.016051173
211	0xbc5b27d0	-0.013376191
212	0xbda1bc43	-0.07897236
213	0xbe28dcfa	-0.16490546
214	0x3db2ef0a	0.08736999
215	0xbdd804c6	-0.105477855
216	0x3d317483	0.043324005
217	0x3d1754bc	0.036946043
218	0xbb15bdec	-0.0022848798
219	0xbb00a2d9	-0.0019628315
220	0x3e321908	0.17392361
221	0xbe1ba99b	-0.15201418
222	0x3e2c56b7	0.16829954
223	0xbbde43ab	-0.006782969
224	0xbdc6f06e	-0.09713827
225	0x3ce2275d	0.02760666
226	0x3b4f1153	0.003159602
227	0x3d87b7dd	0.06626866
228	0x3d072f4a	0.033004083
229	0x3e64101e	0.22271773
230	0x3d627b80	0.05529356
231	0x3e33d8ed	0.1756322
232	0x3d0b1009	0.03395084
233	0xbcd03373	-0.025415158
234	0x3e4042e7	0.18775521
235	0x3ca222d1	0.019791992
236	0xbdbdbddd	-0.09264729
237	0xbd6cb27c	-0.057787403
238	0xbe42deae	-0.19030258
239	0x3e3aaec7	0.18230735
240	0x3b9924d3	0.0046735792
241	0xbdce99d7	-0.10087936
242	0x3d826947	0.06367736
243	0xbb3c16c0	-0.0028700083
244	0xbe0f077a	-0.13967696
245	0x3dc997b6	0.0984339
246	0x3e0b8fcb	0.13629071
247	0xbe2354a2	-0.15950254
248	0x3df8daa6	0.12151079
249	0xbda99e0e	-0.082821
250	0x3cb92ea8	0.022605255
251	0x3cb199e0	0.021679819
252	0xbd7004e0	-0.0585984
253	0xbdecec97	-0.115685634
254	0x3e4783cc	0.1948387
255	0x3e22b7ce	0.15890428

features.0.bias f4 [32]
0	0x3e3ebf2f	0.18627618
1	0x3e12fb86	0.14353761
2	0x3ddaf839	0.10691876
3	0x3c91e80d	0.017810846
4	0xbde0cb21	-0.10976244
5	0x3cb6927b	0.022286644
6	0x3e42fbec	0.19041413
7	0xbc6951d0	-0.014240697
8	0xbdce9d82	-0.10088636
9	0x3e2f5faf	0.17126344
10	0xbc8fde82	-0.017562155
11	0xbd693b18	-0.05694112
12	0x3da769b4	0.08174458
13	0x3d190ac6	0.03736379
14	0xbc4c7f72	-0.012481557
15	0xbd365cb3	-0.044522
16	0x3dfcf7c6	0.123519465
17	0x3dabdc02	0.083915725
18	0x3d8867fb	0.06660458
19	0x3d918469	0.07105333
20	0x3d8d6fdb	0.069061
21	0x3be24cad	0.006906113
22	0xbd7e781c	-0.062126264
23	0xbd8c050f	-0.06836902
24	0xbddeba68	-0.10875398
25	0xbd9240b7	-0.071412496
26	0x3d180b31	0.037120048
27	0x3d94c3cd	0.072639085
28	0xbd2d863c	-0.042364344
29	0x3d7e9b27	0.062159684
30	0xbd45607e	-0.048187725
31	0xbda06517	-0.07831781

features.residual_block_0.conv1.weight f4 [32, 32, 3, 3]
0	0xbd4e0f7a	-0.05030773
1	0xbd8cd124	-0.06875828
2	0x3b0342b6	0.0020028776
3	0x39ee1651	0.00045411524
4	0xbd15f1c0	-0.036607504
5	0x3d97501c	0.073883265
6	0xbd9e59af	-0.077319495
7	0xbd473d17	-0.048642244
8	0x3d6fed71	0.05857605
9	0xbcd5665e	-0.026049789
10	0x3d829693	0.06376376
11	0x3c2cc73c	0.010545548
12	0x3d0247b2	0.031806655
13	0x3d8e7236	0.06955378
14	0x3d8ce40e	0.068794355
15	0xb938c3f4	-0.00017620606
16	0xbd6bd676	-0.057577573
17	0x3d94c24c	0.07263622
18	0xbd0e5cfa	-0.034756638
19	0xbd91786f	-0.07103049
20	0x3cd7a657	0.026324434
21	0xbd4cfeeb	-0.050047796
22	0x3cc56285	0.02409483
23	0x3d0c1279	0.034197304
24	0x3d5a074e	0.053229623
25	0x3d4c1bf9	0.049831364
26	0x3d215d87	0.039395835
27	0x3cafb8be	0.021450397
28	0x3d47e964	0.048806563
29	0xbcada6a5	-0.021197626
30	0x3c2f1ac1	0.010687531
31	0x3d5e19c4	0.05422379
32	0x3d49b71f	0.049246904
33	0xbd3b37f0	-0.045707643
34	0x3da47037	0.08029216
35	0x3d51b807	0.051200893
36	0xbc2b7816	-0.010465642
37	0xbd8fbe77	-0.0701875
38	0xbd1b2cda	-0.03788457
39	0x3c92ed76	0.017935496
40	0x3d979e52	0.07403244
41	0x3d4dee12	0.05027587
42	0x3bafa031	0.0053596725
43	0x3d8db7b9	0.06919808
44	0x3af72969	0.0018856946
45	0xbd168d19	-0.036755655
46	0x3d53c20c	0.05169873
47	0x3cd480fe	0.025940415
48	0xbd4988eb	-0.04920284
49	0xbcf76715	-0.03020052
50	0x3b1cd832	0.0023932573
51	0xbd310904	-0.04322149
52	0x3d302833	0.043007087
53	0xbd0cd4bb	-0.034382563
54	0xbd4cd8f9	-0.05001161
55	0xbd1ab60e	-0.037771277
56	0x3d283bbe	0.0410726
57	0x3c9eed15	0.019400159
58	0x3cafb9e0	0.021450937
59	0x3d32bbfe	0.043636315
60	0xbd8f92dc	-0.07010433
61	0x3d26294e	0.040566735
62	0xbd28c8ce	-0.041207127
63	0x3d74b416	0.059742056
64	0x3d52c588	0.05145791
65	0x3d977154	0.073946625
66	0x3c7c4238	0.015396647
67	0xbd425f6f	-0.047454294
68	0x3c94ec4d	0.018179083
69	0x3d3d04c6	0.04614713
70	0x3a6ba829	0.00089895964
71	0x3d843216	0.06454866
72	0xbd915ce7	-0.07097798
73	0xbc8d34ba	-0.017237056
74	0x3d95c0a2	0.073121324
75	0xbba44be6	-0.0050139306
76	0xbc66ea6b	-0.014093976
77	0xbc84f3ba	-0.0162295
78	0xbd483c30	-0.048885524
79	0x3beb9823	0.007189767
80	0xbc97d058	-0.018531963
81	0xbce9eca5	-0.028555224
82	0x3d5d5c6d	0.054043222
83	0x3d17af51	0.03703243
84	0x3cd40f79	0.025886284
85	0xbccb7bd8	-0.024839327
86	0xbcca58f9	-0.024700629
87	0x3d28ce09	0.041212115
88	0x3c6668a4	0.014063034
89	0x3bec5704	0.0072125215
90	0x3d70e209	0.058809314
91	0xbbf0efa4	-0.007352786
92	0xbca687d9	-0.02032845
93	0x3c090ee1	0.008365364
94	0xbd8cda52	-0.06877579
95	0xbb8e5466	-0.004343557
96	0x3d11d098	0.03559932
97	0xbd74413f	-0.059632536
98	0x3ce553a6	0.027993988
99	0x3d1da71a	0.03848944
100	0x3d28acae	0.041180305
101	0xbcb71c4b	-0.022352358
102	0x3d3ca2ba	0.046053626
103	0xbc82b1e6	-0.01595397
104	0xbd0a4a1a	-0.033762075
105	0x3d92467b	0.07142349
106	0x3ccc016f	0.024903027
107	0x3d502219	0.050813768
108	0x3c1f0384	0.009705428
109	0x3d25d365	0.040484805
110	0xbd196243	-0.037447225
111	0x3baa3577	0.005194362
112	0xbd32ebd4	-0.043681934
113	0x3c415ac0	0.011801422
114	0x3d135d5b	0.035977703
115	0x39f2b706	0.000462942
116	0x3d1f00e2	0.0388192
117	0x3b24a303	0.0025121577
118	0x3d89c21c	0.067264766
119	0xbc49d6fa	-0.012319321
120	0x3d1384d4	0.036015347
121	0x3dad676a	0.0846699
122	0xbb9063f6	-0.0044064475
123	0xbd05c480	-0.0326581
124	0x39cb6e3f	0.00038801317
125	0xbd87daf8	-0.06633562
126	0x3c1be47a	0.009514922
127	0x3d8e88ec	0.069597095
128	0x3bb37b21	0.0054773246
129	0x3c30daec	0.010794383
130	0xbd1050c2	-0.035233267
131	0xbd3028c8	-0.043007642
132	0xbd8942d0	-0.067021966
133	0x3b3446eb	0.002750809
134	0xbd7d02ad	-0.06177013
135	0x3aeabbb3	0.0017908722
136	0x3c0db6ad	0.00864951
137	0xbd36a51c	-0.044591054
138	0x3d560624	0.05225195
139	0xbc540207	-0.0129399365
140	0x3cbf3977	0.023342831
141	0xbd00ac60	-0.03141439
142	0x3cabd979	0.020977722
143	0xbb4a41ac	-0.0030861897
144	0x3d5f29be	0.054483168
145	0x3ccd9943	0.025097495
146	0x3d064737	0.03278276
147	0x3cde95f3	0.02717111
148	0x3b346eed	0.0027531937
149	0x3c41c700	0.01182723
150	0xbc919514	-0.017771281
151	0xbbc965ff	-0.006146192
152	0x3cc7eb91	0.024404319
153	0xbd0e5254	-0.034746483
154	0x3d4b74eb	0.04967205
155	0x3ad30e08	0.0016102204
156	0xbda71320	-0.08157945
157	0xbd8972ae	-0.067113265
158	0x3d269772	0.040671773
159	0x3b7ccb21	0.0038573223
160	0x3c84dde2	0.016219083
161	0xbc209d0a	-0.009803066
162	0xbb80be4c	-0.003928935
163	0xbc18599d	-0.009298709
164	0xbc09fc0e	-0.008421911
165	0xbc266021	-0.010154755
166	0xbcca8b3d	-0.024724597
167	0xb941ae25	-0.00018470788
168	0xbd8e75e5	-0.0695608
169	0x3c89a32d	0.016801441
170	0xbd739896	-0.05947169
171	0xbcccb182	-0.024986986
172	0x3da55e7b	0.08074661
173	0xbca342b0	-0.01992926
174	0xbda62209	-0.081119604
175	0xbbf3a4a3	-0.0074353977
176	0x3c9af1aa	0.018914063
177	0x3bb9fd16	0.005675922
178	0x3d508071	0.05090374
179	0x3d721a10	0.059106886
180	0xbd7572b8	-0.059923857
181	0xbb958886	-0.004563394
182	0x3d3edb82	0.046596058
183	0x3b46a359	0.0030309765
184	0xbd7386dd	-0.059454788
185	0xbd69f658	-0.057119697
186	0x3cec486f	0.028843133
187	0x3d3b4b62	0.045726188
188	0xbae52a46	-0.0017483912
189	0xbcf0c7ec	-0.029392205
190	0x3d4293b5	0.047504146
191	0xbd4d1a73	-0.050074052
192	0x3ce6ca8f	0.02817276
193	0x3dab7609	0.08372123
194	0xbc3a4112	-0.011368053
195	0x3ca91cb6	0.020643573
196	0xbca3d029	-0.01999672
197	0x3d2ed9b0	0.04268807
198	0x3c9d1291	0.019173892
199	0x3cc40da9	0.023932295
200	0x3cd86aa0	0.02641803
201	0x3ce29363	0.02765817
202	0x3d8cf0e0	0.06881881
203	0x3d2f5124	0.04280199
204	0xbcfece24	-0.031104155
205	0x3b7cad2e	0.0038555372
206	0xbc6b1032	-0.014347123
207	0xbd42c480	-0.04755068
208	0x3c96b641	0.018397452
209	0x3d32c3c0	0.043643713
210	0x3d91da95	0.07121769
211	0x3d3b5476	0.045734845
212	0xbc8c648c	-0.017137788
213	0x3bb6110e	0.0055562323
214	0xbaa4d740	-0.0012576357
215	0x3d24e183	0.040254127
216	0x3d1d8fdf	0.038467284
217	0x3cdebb6d	0.027188981
218	0x3cf7ef2e	0.030265417
219	0x3d86a3ae	0.06574188
220	0xbd0d5256	-0.03450235
221	0x3b999b88	0.00468773
222	0x3d680a84	0.056650653
223	0xbd80f085	-0.062958755
224	0x3d6b234f	0.05740672
225	0x3d192ed5	0.037398178
226	0x3d733d37	0.05938455
227	0x3cd54c96	0.026037496
228	0x3ace34de	0.0015732308
229	0x3d81b5a5	0.06333474
230	0x3b99deba	0.0046957405
231	0xbc624a37	-0.0138116395
232	0x3baa8290	0.0052035525
233	0xbbf6d0bd	-0.0075322078
234	0xbb2be9cb	-0.002623188
235	0x3dbd4285	0.09241203
236	0xbcdb61d1	-0.026780041
237	0xbd913467	-0.07090073
238	0x3dd1431a	0.10217877
239	0x3cdff34c	0.027337693
240	0xbd982bce	-0.0743023
241	0x3d335be9	0.043788824
242	0x3d64f390	0.05589634
243	0xbd6cdb8b	-0.05782656
244	0xbd9f87d3	-0.07789578
245	0xbd336ab5	-0.043802936
246	0xbc511af7	-0.012762777
247	0x3bd2d2c8	0.0064338185
248	0x3c29c602	0.01036215
249	0xbc3b71e8	-0.011440732
250	0x3d07eb1b	0.0331832
251	0xbc95d006	-0.01828767
252	0xbceed31a	-0.029153395
253	0xbc070c50	-0.008242682
254	0xbc967e3a	-0.018370736
255	0xba675d41	-0.00088258466

features.residual_block_0.conv1.bias f4 [32]
0	0x3cee25f2	0.029070828
1	0x3d025fa2	0.031829484
2	0x3d51afe2	0.051193126
3	0x3d049b1e	0.032374494
4	0x3cd916f1	0.026500197
5	0x3d064a21	0.03278554
6	0xbd3486ca	-0.044073857
7	0x3d220563	0.03955592
8	0xbc81aa7c	-0.015828364
9	0x3c762654	0.015023787
10	0x3a4f2843	0.0007902423
11	0x3d605848	0.05477169
12	0x3b9077cb	0.0044088117
13	0x3d2b4dd0	0.041822255
14	0x3d59d09d	0.053177465
15	0xbcb2161d	-0.02173906
16	0xbcb05115	-0.021523038
17	0x3d6c67d2	0.0577162
18	0x3d5dbfe8	0.054138094
19	0x3bdfb353	0.006826797
20	0xbcc7cc2e	-0.024389353
21	0xbb377343	-0.0027992285
22	0x3d814a17	0.0631296
23	0xbca53efd	-0.020171637
24	0xbd011e32	-0.031522937
25	0xbb339562	-0.0027402272
26	0x3cd7ff56	0.02636687
27	0xbcc3e5f4	-0.023913361
28	0x3d095a3f	0.03353333
29	0xbc3be88e	-0.01146902
30	0x3d5b553a	0.053548075
31	0xbb8bc2b3	-0.0042651533

features.residual_block_0.bn1.weight f4 [32]
0	0x3f8813e5	1.0631071
1	0x3f85be6f	1.0448741
2	0x3f886c1c	1.0657992
3	0x3f8554d7	1.0416516
4	0x3f87c8f2	1.0608199
5	0x3f866eb6	1.0502536
6	0x3f866024	1.049809
7	0x3f852711	1.0402547
8	0x3f87b6cc	1.060266
9	0x3f85fb61	1.046734
10	0x3f89bef1	1.0761396
11	0x3f8b6bcb	1.0892271
12	0x3f8a938b	1.0826277
13	0x3f8723d3	1.0557808
14	0x3f84702c	1.0346732
15	0x3f86c94e	1.0530183
16	0x3f8a95b4	1.0826936
17	0x3f8a68cf	1.0813235
18	0x3f861e2a	1.0477955
19	0x3f896061	1.0732538
20	0x3f89d17e	1.0767057
21	0x3f87b48b	1.0601972
22	0x3f874feb	1.0571264
23	0x3f8893ad	1.0670067
24	0x3f89ecea	1.0775425
25	0x3f8667b9	1.0500404
26	0x3f87d2d8	1.061122
27	0x3f85e30d	1.0459915
28	0x3f85ddd5	1.0458323
29	0x3f88d9f3	1.0691513
30	0x3f8818c4	1.0632558
31	0x3f8aed24	1.085362

features.residual_block_0.bn1.bias f4 [32]
0	0x3c5ffe30	0.013671443
1	0x3ca9fe56	0.02075116
2	0x3c8e8be9	0.017400699
3	0x3b9abd97	0.004722308
4	0x3c4ce687	0.012506134
5	0x3c87a53a	0.016558278
6	0x3c0d957f	0.0086416
7	0x3bae9efe	0.005329012
8	0x3c22b08b	0.009929786
9	0x3c69f960	0.014280647
10	0x3c96404c	0.018341206
11	0x3ce8a682	0.02839971
12	0x3c7ad867	0.015310383
13	0x3c877665	0.016535947
14	0x3c076f1f	0.008266239
15	0x3be34884	0.006936135
16	0x3d0614af	0.03273457
17	0x3ca88d11	0.020575078
18	0x3c6215ff	0.01379919
19	0x3cb4f526	0.022089552
20	0x3c84df3d	0.01621973
21	0x3c730f89	0.014835247
22	0x3c127791	0.00893964
23	0x3ca73b0e	0.020413902
24	0x3c9af044	0.018913396
25	0x3c8c0228	0.017090872
26	0x3c8d496a	0.01724692
27	0x3c282cd1	0.010264591
28	0x3c8c0a3b	0.017094722
29	0x3cb28142	0.02179015
30	0x3be00279	0.0068362323
31	0x3c892ad1	0.01674405

features.residual_block_0.bn1.running_mean f4 [32]
0	0x00000000	0.0
1	0x00000000	0.0
2	0x00000000	0.0
3	0x00000000	0.0
4	0x00000000	0.0
5	0x00000000	0.0
6	0x00000000	0.0
7	0x00000000	0.0
8	0x00000000	0.0
9	0x00000000	0.0
10	0x00000000	0.0
11	0x00000000	0.0
12	0x00000000	0.0
13	0x00000000	0.0
14	0x00000000	0.0
15	0x00000000	0.0
16	0x00000000	0.0
17	0x00000000	0.0
18	0x00000000	0.0
19	0x00000000	0.0
20	0x00000000	0.0
21	0x00000000	0.0
22	0x00000000	0.0
23	0x00000000	0.0
24	0x00000000	0.0
25	0x00000000	0.0
26	0x00000000	0.0
27	0x00000000	0.0
28	0x00000000	0.0
29	0x00000000	0.0
30	0x00000000	0.0
31	0x00000000	0.0

features.residual_block_0.bn1.running_var f4 [32]
0	0x3f800000	1.0
1	0x3f800000	1.0
2	0x3f800000	1.0
3	0x3f800000	1.0
4	0x3f800000	1.0
5	0x3f800000	1.0
6	0x3f800000	1.0
7	0x3f800000	1.0
8	0x3f800000	1.0
9	0x3f800000	1.0
10	0x3f800000	1.0
11	0x3f800000	1.0
12	0x3f800000	1.0
13	0x3f800000	1.0
14	0x3f800000	1.0
15	0x3f800000	1.0
16	0x3f800000	1.0
17	0x3f800000	1.0
18	0x3f800000	1.0
19	0x3f800000	1.0
20	0x3f800000	1.0
21	0x3f800000	1.0
22	0x3f800000	1.0
23	0x3f800000	1.0
24	0x3f800000	1.0
25	0x3f800000	1.0
26	0x3f800000	1.0
27	0x3f800000	1.0
28	0x3f800000	1.0
29	0x3f800000	1.0
30	0x3f800000	1.0
31	0x3f800000	1.0

features.residual_block_0.conv2.weight f4 [32, 32, 3, 3]
0	0x3cfbcac3	0.030736333
1	0x3d5f1272	0.05446095
2	0x3d189d91	0.037259642
3	0xbba1e460	-0.0049405545
4	0x3ca464b3	0.020067548
5	0x3d50e3dc	0.050998554
6	0xbd28659c	-0.041112527
7	0xbc95ae03	-0.018271452
8	0x3d0c383e	0.034233324
9	0xbd5a795f	-0.053338405
10	0xbd59161b	-0.052999597
11	0xbd01fd95	-0.031735975
12	0xbd8de729	-0.06928856
13	0xbbcea69c	-0.0063064825
14	0xbd2a9e62	-0.041654952
15	0x3c0cd1c4	0.008594934
16	0xba926377	-0.0011168559
17	0xbbc53e6f	-0.0060194056
18	0x3cf5d376	0.030008059
19	0xbc5f986b	-0.013647179
20	0x3d3b62cd	0.04574852
21	0x3c789813	0.015172976
22	0x3d6ad920	0.057335973
23	0x3db1c9d1	0.086810715
24	0x3d09f332	0.033679195
25	0x3ced1ea0	0.028945267
26	0xbc8830fd	-0.016624922
27	0xbd84f60d	-0.06492243
28	0xbc5cccb7	-0.013476542
29	0x3c1a4754	0.00941642
30	0x3cf7e5a1	0.030260863
31	0x3d9fd7cf	0.07804834
32	0xbd0517f1	-0.032493535
33	0xbc674034	-0.014114428
34	0xbd77a95c	-0.060464248
35	0x3cc9d509	0.024637716
36	0x3d190612	0.037359305
37	0x39a113b0	0.0003072298
38	0xbd59d99e	-0.05318605
39	0x3c37a290	0.0112081915
40	0xbce7eb38	-0.028310403
41	0xbd9f1f1a	-0.07769604
42	0xbad69f91	-0.0016374459
43	0xbcc63466	-0.024194907
44	0x3d3e623d	0.046480406
45	0x3db738a3	0.089463495
46	0xbd4b9505	-0.049702663
47	0xbabfcf54	-0.0014633932
48	0x3d0b33fb	0.03398512
49	0xbcc3667a	-0.023852576
50	0x3d64da08	0.055871993
51	0x3cf247a8	0.029575184
52	0xbd005078	-0.03132674
53	0x3b87ccd1	0.004144289
54	0x3d175eec	0.03695576
55	0xbb658629	-0.0035022593
56	0xbc90dc42	-0.017683152
57	0x3bb98baf	0.0056624035
58	0xbdb1a30e	-0.08673678
59	0x3b9abfef	0.0047225873
60	0x3d8a9d34	0.06768265
61	0x3b83b1eb	0.004019012
62	0xbd07ac3e	-0.033123247
63	0x3d241196	0.040055834
64	0x3d9feff0	0.07809436
65	0xbd1565f7	-0.036474194
66	0x3d29f562	0.04149378
67	0x3a7c2a1f	0.00096193136
68	0xbc54bcbb	-0.01298445
69	0xbc18d538	-0.009328179
70	0x3d56982a	0.05239121
71	0xbcfdd923	-0.030987328
72	0x3ccebf29	0.025237637
73	0xbcca7350	-0.024713188
74	0x3d524741	0.051337484
75	0xbccee13f	-0.02525389
76	0xb9a58c90	-0.0003157598
77	0x3d940787	0.07227998
78	0x3ccaab3b	0.024739852
79	0x3d1ef0ab	0.038803738
80	0x3cd72884	0.026264437
81	0xbd8ce113	-0.06878867
82	0x3c41b10d	0.011821997
83	0xbd6a2bdf	-0.057170745
84	0xbcb913b6	-0.022592407
85	0x3d8b7234	0.06808892
86	0xbcce07c2	-0.025150184
87	0x3a5dfb02	0.0008467884
88	0x3ca9cd58	0.020727798
89	0x3d04d200	0.032426834
90	0xbc853494	-0.016260423
91	0xbc7e50ac	-0.015522163
92	0xbc43302f	-0.011913343
93	0x3d07c2bb	0.033144694
94	0xbd8f1bd0	-0.06987727
95	0x3d8b093f	0.06788873
96	0xbc99ed7b	-0.018789997
97	0x3d1578ef	0.036492284
98	0x3b6d3e9e	0.0036200653
99	0x3d553377	0.052051034
100	0xbc351f52	-0.011054831
101	0x3d4f31f2	0.05058474
102	0x3d9b484e	0.075821504
103	0xbce9e9e0	-0.028553903
104	0xbc9cca4a	-0.019139428
105	0x3cd9894b	0.026554724
106	0xbd9824f9	-0.07428927
107	0x3ce3e0bc	0.027817123
108	0x3d945e82	0.072445884
109	0x3d0bb28d	0.034105826
110	0x3c0f0630	0.008729503
111	0x3c9e0619	0.019290017
112	0xbda0f961	-0.07860065
113	0x3d5e5ef6	0.05428978
114	0xbda5aaa6	-0.08089189
115	0x3d65e1b2	0.056123443
116	0xbd8a2561	-0.06745411
117	0x3c25f814	0.010129947
118	0xbba1a2fb	-0.004932759
119	0xbc66b62a	-0.014081517
120	0x3bc4548e	0.005991525
121	0xbd2b644b	-0.041843694
122	0x3db6d74e	0.08927785
123	0xbd8b7521	-0.0680945
124	0xbbf08711	-0.00734032
125	0xbb993a79	-0.00467616
126	0x3cbed79d	0.023296172
127	0xbd28e494	-0.041233614
128	0x3d28e592	0.04123456
129	0x3c17f488	0.009274609
130	0x3d74a475	0.05972715
131	0x3c050ecd	0.008121205
132	0x3d29eaa8	0.04148355
133	0x3d0127cb	0.03153209
134	0xbcc5d18d	-0.024147773
135	0x3d3875a6	0.045034073
136	0xbd6397cd	-0.05556469
137	0xbcb9013c	-0.022583596
138	0x3d3b1687	0.04567578
139	0xbd4f068c	-0.050543353
140	0x3d15030f	0.03637987
141	0x3d98ebb0	0.07466829
142	0xbd927fef	-0.07153308
143	0xbc4efca8	-0.01263348
144	0xbd374cd9	-0.044751022
145	0xbd83e62b	-0.064403854
146	0xbd0fad74	-0.035077527
147	0x3b0cc67c	0.002148061
148	0x3ca6e5be	0.020373221
149	0xbb5fe872	-0.0034165648
150	0x3d789ad2	0.060694523
151	0x3c245fef	0.010032638
152	0x3c875dfe	0.016524311
153	0x3db6e1f2	0.089298144
154	0xbd07abda	-0.033122875
155	0xbcadf94c	-0.021237038
156	0xbd71fda6	-0.05907979
157	0x3db7dedc	0.08978054
158	0x3da15b29	0.078787155
159	0x3cf9016b	0.030396184
160	0x3d6b8f11	0.057509486
161	0xba54a0ce	-0.000811112
162	0xbb54cfa1	-0.003247239
163	0x3d14f864	0.036369696
164	0xbc162048	-0.00916297
165	0xbd0d67bc	-0.034522757
166	0x3d866a8a	0.065632895
167	0x3cf4f29c	0.029900841
168	0xba23c639	-0.0006247494
169	0x3bad80c6	0.005294892
170	0xbcc50d5c	-0.024054222
171	0xbd5da3ac	-0.054111168
172	0x3c34a644	0.011025969
173	0xbd4f4312	-0.050601073
174	0x3d974bd7	0.07387512
175	0x3c463e8d	0.012099874
176	0x3cc2655c	0.023729973
177	0xbd199b3b	-0.037501555
178	0xbd221d5f	-0.03957879
179	0x3d3ed313	0.046588015
180	0x3d6ce989	0.057839904
181	0xbd598ce8	-0.053112894
182	0xbd1b0cc3	-0.037853967
183	0xbd435207	-0.04768565
184	0x3d8a1041	0.067413814
185	0x3b8badf9	0.0042626825
186	0x3c095e78	0.0083843395
187	0xbd7804f2	-0.06055159
188	0x3c7a24d2	0.015267568
189	0x3d84f4ab	0.06491979
190	0xbd04e167	-0.032441523
191	0xbd220b7f	-0.039561745
192	0xbcdbdf33	-0.026839828
193	0x3da7267b	0.081616364
194	0x3c1ad881	0.009451033
195	0xbd5b5b26	-0.053553723
196	0x3bc516b0	0.0060146675
197	0xbd32745f	-0.04356801
198	0x3b6ed0ef	0.0036440452
199	0xbd847d4d	-0.06469212
200	0xbd36f6cd	-0.04466896
201	0xbd49eacb	-0.04929618
202	0x3d5281bc	0.051393256
203	0xbce9045c	-0.028444462
204	0x3a779148	0.0009443951
205	0xbd53f801	-0.051750187
206	0xbd21a483	-0.03946353
207	0x3cc0220c	0.023453735
208	0x3d099138	0.033585757
209	0x3d546e88	0.051863223
210	0xbc288a9d	-0.010286954
211	0x3b67e3e9	0.0035383648
212	0xbc21a2d4	-0.009865481
213	0xbd2e1249	-0.042497907
214	0x3c85cb17	0.016332192
215	0x3d24e9ca	0.04026202
216	0xbcd35a6c	-0.025799952
217	0x3d817bcd	0.06322441
218	0x3d6f2ab3	0.05839033
219	0x3d1da9fc	0.038492188
220	0xbcd43892	-0.025905881
221	0x3d86d375	0.06583301
222	0xbd668014	-0.05627449
223	0x3bf0d16e	0.0073491847
224	0x3d5791f5	0.05262943
225	0xbd3b9589	-0.045796905
226	0xbd8be8ed	-0.068315364
227	0xbcdf7dec	-0.027281724
228	0xba36bdbc	-0.00069710216
229	0x3c03768e	0.008023871
230	0x3da221f9	0.07916636
231	0xbd2ebdfc	-0.042661652
232	0x3c6e9ed6	0.014564237
233	0x3d0f4fd8	0.034988254
234	0x3d871ca2	0.06597258
235	0x3dc386c9	0.095471926
236	0xbd474779	-0.048652146
237	0xbc196b82	-0.009364011
238	0xbd130c26	-0.035900258
239	0xbd7b9abf	-0.061426874
240	0x3c40071a	0.011720443
241	0xbcb3aee8	-0.021933988
242	0xbc990586	-0.018679392
243	0x3c92855d	0.017885858
244	0x3bffc0e5	0.0078049772
245	0x3bcbbc30	0.006217502
246	0xbd21ff25	-0.039549965
247	0x3d52e69f	0.05148947
248	0x3cb710b0	0.022346824
249	0x3bd148b2	0.00638684
250	0x3d24f4b8	0.040272444
251	0x3d652fa7	0.055953648
252	0x3bc532cc	0.0060180184
253	0x3c650fa1	0.013980777
254	0xbcc462c3	-0.023972875
255	0xbd4e73bf	-0.050403353

features.residual_block_0.conv2.bias f4 [32]
0	0xbd229ef2	-0.039702363
1	0x3d804ef1	0.06265057
2	0xbcc7a79c	-0.024371915
3	0x3d443720	0.047904134
4	0xbd2411bf	-0.040055986
5	0xbd26474e	-0.040595345
6	0xbc77a745	-0.015115564
7	0x3d0e57c7	0.03475168
8	0x38e3657a	0.00010843105
9	0xbc263b44	-0.010145966
10	0x3d2051b9	0.039140437
11	0xbc0fdfb6	-0.008781364
12	0xbd077851	-0.033073727
13	0x3d481059	0.048843715
14	0x3c8dc364	0.017305084
15	0x3cae4754	0.021274246
16	0xbca11458	-0.019663021
17	0xbb9614fb	-0.004580138
18	0xbcf1cca2	-0.029516522
19	0xbc41fa0e	-0.011839403
20	0x3bec7a86	0.0072167544
21	0x3bc643e4	0.0060505737
22	0xbcf71396	-0.030160706
23	0x3d0fda38	0.03512022
24	0x3d56082f	0.0522539
25	0x3d5d61b7	0.054048266
26	0x3cbe327c	0.023217432
27	0xbbc15196	-0.0058996184
28	0x3d53eb60	0.051738143
29	0xbc06582e	-0.008199735
30	0x3c32ca24	0.010912452
31	0x3d330206	0.0437031

features.residual_block_0.bn2.weight f4 [32]
0	0x3f87a783	1.0597996
1	0x3f8740e5	1.0566679
2	0x3f8615ee	1.0475442
3	0x3f882c98	1.0638609
4	0x3f86c68a	1.0529339
5	0x3f89750c	1.0738845
6	0x3f8a3103	1.0796207
7	0x3f872cd2	1.0560553
8	0x3f874325	1.0567366
9	0x3f86c1f5	1.0527941
10	0x3f866a0c	1.0501113
11	0x3f83e52d	1.0304314
12	0x3f891f3e	1.0712659
13	0x3f88fd9d	1.0702397
14	0x3f882626	1.0636642
15	0x3f852acd	1.0403687
16	0x3f82f108	1.0229807
17	0x3f865f4f	1.0497836
18	0x3f89f581	1.0778047
19	0x3f8a8f4a	1.0824978
20	0x3f849593	1.0358146
21	0x3f86a040	1.0517654
22	0x3f87413b	1.0566782
23	0x3f886b85	1.0657812
24	0x3f887269	1.0659915
25	0x3f872087	1.0556802
26	0x3f88550a	1.0650952
27	0x3f83d36c	1.0298896
28	0x3f863d83	1.0487522
29	0x3f8909f5	1.0706164
30	0x3f88a63f	1.0675734
31	0x3f89202f	1.0712947

features.residual_block_0.bn2.bias f4 [32]
0	0x3ba34112	0.004982122
1	0x3b92a3bc	0.004475085
2	0x3c794e21	0.015216381
3	0x3c6d2722	0.014474662
4	0x3bf527a6	0.007481533
5	0x3c8b289d	0.01698714
6	0x3c911c94	0.017713822
7	0x3b4fc1c7	0.0031701194
8	0x3bd8dda8	0.0066182204
9	0x3c48270b	0.01221634
10	0x3bd4a39b	0.00648923
11	0x3b40062e	0.0029300558
12	0x3c51b9f8	0.012800686
13	0x3bf57be2	0.0074915746
14	0x3c62dedd	0.01384708
15	0x3b3d6fa8	0.0028905664
16	0x3bb5f465	0.0055528157
17	0x3c41493e	0.011797247
18	0x3ca0ea55	0.019642988
19	0x3c8cd9cf	0.017193703
20	0x3b834e9f	0.004007175
21	0x3c044aee	0.008074505
22	0x3c11b5f4	0.008893479
23	0x3b95228b	0.004551237
24	0x3c275dbd	0.01021522
25	0x3c0261bd	0.007957873
26	0x3bca74f5	0.006178493
27	0x3b217298	0.0024634954
28	0x3af13a15	0.0018404151
29	0x3c4181f9	0.011810773
30	0x3be02221	0.006840006
31	0x3bb660a8	0.0055657215

features.residual_block_0.bn2.running_mean f4 [32]
0	0x00000000	0.0
1	0x00000000	0.0
2	0x00000000	0.0
3	0x00000000	0.0
4	0x00000000	0.0
5	0x00000000	0.0
6	0x00000000	0.0
7	0x00000000	0.0
8	0x00000000	0.0
9	0x00000000	0.0
10	0x00000000	0.0
11	0x00000000	0.0
12	0x00000000	0.0
13	0x00000000	0.0
14	0x00000000	0.0
15	0x00000000	0.0
16	0x00000000	0.0
17	0x00000000	0.0
18	0x00000000	0.0
19	0x00000000	0.0
20	0x00000000	0.0
21	0x00000000	0.0
22	0x00000000	0.0
23	0x00000000	0.0
24	0x00000000	0.0
25	0x00000000	0.0
26	0x00000000	0.0
27	0x00000000	0.0
28	0x00000000	0.0
29	0x00000000	0.0
30	0x00000000	0.0
31	0x00000000	0.0

features.residual_block_0.bn2.running_var f4 [32]
0	0x3f800000	1.0
1	0x3f800000	1.0
2	0x3f800000	1.0
3	0x3f800000	1.0
4	0x3f800000	1.0
5	0x3f800000	1.0
6	0x3f800000	1.0
7	0x3f800000	1.0
8	0x3f800000	1.0
9	0x3f800000	1.0
10	0x3f800000	1.0
11	0x3f800000	1.0
12	0x3f800000	1.0
13	0x3f800000	1.0
14	0x3f800000	1.0
15	0x3f800000	1.0
16	0x3f800000	1.0
17	0x3f800000	1.0
18	0x3f800000	1.0
19	0x3f800000	1.0
20	0x3f800000	1.0
21	0x3f800000	1.0
22	0x3f800000	1.0
23	0x3f800000	1.0
24	0x3f800000	1.0
25	0x3f800000	1.0
26	0x3f800000	1.0
27	0x3f800000	1.0
28	0x3f800000	1.0
29	0x3f800000	1.0
30	0x3f800000	1.0
31	0x3f800000	1.0

features.batch_norm_0.weight f4 [32]
0	0x3f88395f	1.0642508
1	0x3f874078	1.0566549
2	0x3f87aef0	1.0600262
3	0x3f8a2d22	1.0795023
4	0x3f877ba2	1.0584605
5	0x3f897f93	1.0742058
6	0x3f8b7bd2	1.0897162
7	0x3f868047	1.0507897
8	0x3f883286	1.0640419
9	0x3f86e08d	1.0537277
10	0x3f8672db	1.0503801
11	0x3f8538d9	1.0407974
12	0x3f88b589	1.06804
13	0x3f89bb43	1.0760273
14	0x3f88c00b	1.0683607
15	0x3f863db4	1.048758
16	0x3f82f6f6	1.0231616
17	0x3f862ece	1.0483034
18	0x3f8bc8a3	1.0920604
19	0x3f8b1ee3	1.0868801
20	0x3f84d2ea	1.0376866
21	0x3f86d6a0	1.0534248
22	0x3f89e970	1.0774364
23	0x3f891328	1.0708971
24	0x3f891032	1.0708067
25	0x3f87f4f7	1.0621632
26	0x3f893616	1.0719631
27	0x3f84d409	1.0377208
28	0x3f876740	1.0578384
29	0x3f89e342	1.0772479
30	0x3f8932cd	1.0718628
31	0x3f88dd75	1.0692583

features.batch_norm_0.bias f4 [32]
0	0xbaf7b21f	-0.0018897689
1	0xb91b4b49	-0.00014809998
2	0xbb0c17d9	-0.002137652
3	0xba246374	-0.0006270923
4	0xb9b57fad	-0.00034618136
5	0x38d85e2b	0.00010317223
6	0x3a481180	0.0007632002
7	0xbad2d425	-0.0016084953
8	0x3983214d	0.00025011078
9	0xb9c8aa05	-0.00038273647
10	0xb9973178	-0.0002883782
11	0xb9f81cae	-0.00047323614
12	0xb9d3f1a6	-0.00040425098
13	0xba56e12d	-0.0008197006
14	0xb9848644	-0.00025277038
15	0xba2c6171	-0.0006575799
16	0x3a5c6632	0.0008407562
17	0xba18cb30	-0.0005828617
18	0xb939aa7a	-0.00017706482
19	0xb8ef9f6e	-0.00011426104
20	0xbb1245dd	-0.0022319474
21	0xbb829547	-0.0039850804
22	0xba4b6f35	-0.00077604066
23	0xbab20c9b	-0.0013584079
24	0xba88bdd6	-0.0010432552
25	0xb9dd1504	-0.00042168063
26	0x381b122c	3.6971804e-05
27	0xbadbdee0	-0.0016774796
28	0x384e694d	4.9212296e-05
29	0xbafbf8ad	-0.0019223891
30	0x38e40c65	0.00010874196
31	0xba06d0ac	-0.0005142789

features.batch_norm_0.running_mean f4 [32]
0	0x00000000	0.0
1	0x00000000	0.0
2	0x00000000	0.0
3	0x00000000	0.0
4	0x00000000	0.0
5	0x00000000	0.0
6	0x00000000	0.0
7	0x00000000	0.0
8	0x00000000	0.0
9	0x00000000	0.0
10	0x00000000	0.0
11	0x00000000	0.0
12	0x00000000	0.0
13	0x00000000	0.0
14	0x00000000	0.0
15	0x00000000	0.0
16	0x00000000	0.0
17	0x00000000	0.0
18	0x00000000	0.0
19	0x00000000	0.0
20	0x00000000	0.0
21	0x00000000	0.0
22	0x00000000	0.0
23	0x00000000	0.0
24	0x00000000	0.0
25	0x00000000	0.0
26	0x00000000	0.0
27	0x00000000	0.0
28	0x00000000	0.0
29	0x00000000	0.0
30	0x00000000	0.0
31	0x00000000	0.0

features.batch_norm_0.running_var f4 [32]
0	0x3f800000	1.0
1	0x3f800000	1.0
2	0x3f800000	1.0
3	0x3f800000	1.0
4	0x3f800000	1.0
5	0x3f800000	1.0
6	0x3f800000	1.0
7	0x3f800000	1.0
8	0x3f800000	1.0
9	0x3f800000	1.0
10	0x3f800000	1.0
11	0x3f800000	1.0
12	0x3f800000	1.0
13	0x3f800000	1.0
14	0x3f800000	1.0
15	0x3f800000	1.0
16	0x3f800000	1.0
17	0x3f800000	1.0
18	0x3f800000	1.0
19	0x3f800000	1.0
20	0x3f800000	1.0
21	0x3f800000	1.0
22	0x3f800000	1.0
23	0x3f800000	1.0
24	0x3f800000	1.0
25	0x3f800000	1.0
26	0x3f800000	1.0
27	0x3f800000	1.0
28	0x3f800000	1.0
29	0x3f800000	1.0
30	0x3f800000	1.0
31	0x3f800000	1.0

policy_head.0.weight f4 [256, 512]
0	0x3d49235e	0.049105994
1	0x3c358c8b	0.011080871
2	0x3d3a2c00	0.045452118
3	0x3c356470	0.011071309
4	0xbcf49285	-0.029855022
5	0xbd0534c9	-0.032521043
6	0xbbfac56d	-0.0076529295
7	0xbd2efc22	-0.04272092
8	0xbd251fda	-0.04031358
9	0x3ca0c14c	0.019623421
10	0x3cd49982	0.025952104
11	0x3d1e77e7	0.038688567
12	0x3cdf8b0d	0.027287984
13	0x3d20cdc3	0.03925873
14	0x3969d888	0.00022301276
15	0x3d059d9e	0.03262102
16	0xbd0ae739	-0.033911917
17	0xbccb65e5	-0.02482886
18	0xbba81def	-0.0051305215
19	0xbc960653	-0.018313562
20	0x3d01c821	0.031685
21	0x3c9006c7	0.017581357
22	0x3c96fb98	0.018430516
23	0xbca2ddcc	-0.019881152
24	0x3d47437c	0.048648342
25	0xbcc53c8c	-0.024076723
26	0xbb456c9d	-0.0030124553
27	0x3b5ae025	0.003339776
28	0x3be2e3bf	0.006924122
29	0x3c93d7f2	0.018047307
30	0x3b8b2719	0.004246604
31	0x3c74a153	0.014931041
32	0xbceab275	-0.028649548
33	0x3ce758c5	0.02824057
34	0xbd124435	-0.03570958
35	0xbcda0055	-0.026611486
36	0x3bc607de	0.0060434183
37	0xbd19dae5	-0.03756227
38	0x3cf85aee	0.030316796
39	0xbd2c6b73	-0.04209466
40	0xbb49c208	-0.0030785818
41	0xbc5390ad	-0.012912911
42	0x3d2aefcc	0.041732594
43	0x3ce258e6	0.02763028
44	0x3d15371e	0.036429517
45	0x3ca9072d	0.020633304
46	0xbc9bbc42	-0.019010667
47	0x3d3c7b0f	0.046015795
48	0x3cfdf13b	0.030998817
49	0xbd30f7fd	-0.04320525
50	0x3bdd2d25	0.0067497664
51	0x3c9cf038	0.019157514
52	0x3c715548	0.014729805
53	0xbcc6419d	-0.024201209
54	0xbd01c071	-0.031677667
55	0xbc565271	-0.013081179
56	0x3d54807e	0.051880352
57	0x3bd8f317	0.0066207754
58	0xbc867216	-0.016411822
59	0x3c07f30a	0.008297691
60	0x3cbd691b	0.023121407
61	0x3cb19524	0.021677561
62	0x3cf8b6f9	0.030360686
63	0x3d0eef07	0.034895923
64	0xbd080bb9	-0.033214305
65	0x3cbc3155	0.022972742
66	0x3d1ca28f	0.038240965
67	0x3c84fab5	0.016232828
68	0xbb26f7e9	-0.0025477356
69	0xbcafdf0b	-0.02146866
70	0x3cb1def3	0.021712756
71	0x3b707230	0.0036689155
72	0x3d2c24c8	0.042027265
73	0xbd18325b	-0.037157398
74	0xbc8b3eea	-0.016997773
75	0xbd268ea5	-0.04066338
76	0xbc9a60f8	-0.018845066
77	0x3c9a0c2c	0.018804632
78	0x3d0834da	0.03325353
79	0x3c43bc7f	0.011946796
80	0x3d0e72b1	0.034777347
81	0xb9fa2e7f	-0.00047718358
82	0xbd088c9d	-0.033337224
83	0xbc557c51	-0.013030128
84	0x3d18f3a4	0.03734173
85	0x3c8e7063	0.017387575
86	0x3cd0eb2c	0.025502764
87	0xbbf5fa49	-0.007506643
88	0xbc869d6c	-0.016432486
89	0x3cfeaca8	0.031088188
90	0xbc646f94	-0.013942618
91	0xbce9af1b	-0.02852588
92	0x3ca7ea3b	0.020497432
93	0x3d247b5b	0.040156703
94	0xbce25d25	-0.027632305
95	0x3bcc70de	0.0062390408
96	0x393c3d5b	0.00017951934
97	0xbd47fa2e	-0.048822574
98	0xbd53a7b4	-0.051673606
99	0x3c059aa7	0.008154548
100	0x3cba4cea	0.022741754
101	0xbd2b8fb4	-0.041885093
102	0x3ce3153d	0.027720088
103	0x3d26fc72	0.040768094
104	0x3b2c7d74	0.0026319893
105	0x3d2d3860	0.04229009
106	0x3b8bdce9	0.004268278
107	0xbc5a82fa	-0.013336891
108	0x3d144a94	0.036203936
109	0x3d46a7ea	0.04849998
110	0x3d224e4c	0.03962545
111	0xbd12ac9f	-0.035809156
112	0x3cea8a60	0.028630435
113	0xbd31c704	-0.043402687
114	0x3c5ac3a9	0.013352313
115	0xbce7c743	-0.028293258
116	0xbd15c91d	-0.03656875
117	0x3cf68b00	0.030095577
118	0xbc623b53	-0.013808089
119	0x3d28a368	0.04117146
120	0xbd096e43	-0.03355242
121	0xbd0bef2b	-0.034163635
122	0xbc3bcef2	-0.011462914
123	0x3c3e5ecd	0.011619282
124	0xbd0313ff	-0.03200149
125	0xbd020fc4	-0.031753317
126	0x3d0913d3	0.03346617
127	0xbbe30e75	-0.0069292136
128	0x3d13c55f	0.0360769
129	0xbd195f88	-0.03744462
130	0xbd2155cb	-0.03938846
131	0xbbabc158	-0.005241554
132	0x3bce8435	0.0063023814
133	0x3c80e191	0.015732558
134	0x3c5090e6	0.012729859
135	0x3a9cf564	0.0011974988
136	0xbce0e713	-0.027453935
137	0x3d39b0b4	0.045334533
138	0x3cb3d858	0.021953747
139	0xbcadfd62	-0.021238986
140	0x3ce3bf0d	0.027801061
141	0x3d36cd01	0.0446291
142	0xbcb07810	-0.021541625
143	0x3bca2990	0.0061695054
144	0x3d4e5bc6	0.05038049
145	0xbc21cfa7	-0.009876168
146	0xbd2a6f00	-0.041609764
147	0x3be8a212	0.0070993984
148	0x3c807070	0.015678614
149	0xbc04cebd	-0.008105931
150	0xbd0628e3	-0.032753836
151	0xbc88543a	-0.016641725
152	0xbbf313aa	-0.0074181156
153	0x3bdaa05b	0.006671948
154	0xbc317b1c	-0.010832574
155	0x3cdc32d0	0.026879698
156	0xbca22cde	-0.019796785
157	0xbd1b4b14	-0.037913397
158	0x3bfc84e4	0.0077062715
159	0x3cff4b71	0.031163903
160	0x3c8c1a0f	0.01710227
161	0x3d2128e7	0.03934565
162	0xbb102e25	-0.002200016
163	0xbc9a50e5	-0.018837402
164	0x3c8b7c5c	0.017027073
165	0xbc9428d4	-0.018085875
166	0x3d17b612	0.03703887
167	0x3c8bce19	0.017066048
168	0xbd23d06a	-0.03999368
169	0xbc302d7d	-0.010753033
170	0x3d0064b0	0.031346023
171	0x3c83ea62	0.016102973
172	0x3c181bee	0.009284003
173	0xbd06b10f	-0.0328837
174	0xbd06edbb	-0.03294156
175	0xbc1989d3	-0.009371239
176	0xbc38458b	-0.011247049
177	0x3c9c8f4b	0.019111296
178	0x3d3a9c82	0.045559414
179	0x3cee86df	0.029117046
180	0x3bd20d27	0.0064102593
181	0x3b2aaf3a	0.0026044385
182	0x3cafbeb8	0.021453246
183	0x3c9677b6	0.01836763
184	0x3c372e7f	0.011180519
185	0x3c0c7768	0.008573391
186	0x3cd0cc6f	0.025488107
187	0xbc914b29	-0.017736034
188	0x3b46f6c1	0.003035948
189	0xbbfce4d4	-0.007717708
190	0xbc825bf7	-0.015912993
191	0x3d2d9167	0.042374995
192	0xbcafd925	-0.021465847
193	0xbbd71988	-0.006564323
194	0x3cedb0d1	0.029014977
195	0x3bd677f0	0.0065450594
196	0xbc0580d4	-0.008148391
197	0xbd12f70b	-0.03588013
198	0x3ca6346f	0.020288674
199	0x3bf3680e	0.007428176
200	0xbd4fbf3f	-0.050719496
201	0x3c95a01c	0.018264823
202	0xbc5061ee	-0.012718661
203	0xbc6466a8	-0.013940491
204	0x3c6b9e0e	0.014380945
205	0xbd196d42	-0.037457712
206	0x3d595ff4	0.053070024
207	0xbc869fa0	-0.016433537
208	0xbcdbcec8	-0.026832
209	0x39838b91	0.00025090252
210	0xbcb6ff18	-0.022338435
211	0xbca485ce	-0.020083334
212	0x3c78af87	0.015178568
213	0xbc5cd627	-0.013478792
214	0xbd3931a1	-0.045213345
215	0x3c5ab139	0.013347917
216	0xbd212b9d	-0.039348233
217	0x3ced835e	0.028993305
218	0x3b5cac5d	0.0033672072
219	0xbcdaced9	-0.02670996
220	0x3d281234	0.041032985
221	0x3d16861d	0.036748994
222	0xbc476317	-0.012169621
223	0xbc9a1385	-0.018808136
224	0x3ce8eb2e	0.028432455
225	0x3b475f2a	0.0030421712
226	0x3d42d8ad	0.04756992
227	0x3b7762cd	0.00377481
228	0x3d1daf79	0.038497422
229	0x3c8a3389	0.016870277
230	0xbd2d4f2a	-0.042311825
231	0xbc10c45b	-0.008835877
232	0x3ca4c6ff	0.02011442
233	0xbcd70cdd	-0.02625125
234	0x3cc98d18	0.024603412
235	0x3d221d96	0.039578997
236	0x3d1010dd	0.035172332
237	0xbc3ab4f8	-0.011395685
238	0xbcabad1b	-0.020956567
239	0x3c840867	0.016117288
240	0xbd06b571	-0.03288788
241	0x3d055854	0.03255494
242	0xbae09216	-0.0017133381
243	0xbc7e812e	-0.0155337285
244	0xbcecce4d	-0.028906966
245	0xbcbc83b1	-0.023012014
246	0xbbd5bb2d	-0.006522557
247	0xbced171e	-0.028941687
248	0xbbb3d326	-0.0054878173
249	0x3b8c073f	0.0042733247
250	0x3c8aeed6	0.016959589
251	0xbcb0d633	-0.021586513
252	0x3c901900	0.017590046
253	0x3c383954	0.011244137
254	0x3c1336e6	0.008985257
255	0x3cc35716	0.023845237

policy_head.0.bias f4 [256]
0	0xbc039e4b	-0.008033345
1	0x3d1958ed	0.03743832
2	0xbd0774c6	-0.03307035
3	0xbc4d9dd0	-0.012549832
4	0xbcd36fbc	-0.025810115
5	0x3ccb0d58	0.024786636
6	0x3b9d4bb5	0.0048002847
7	0x3d05cc4a	0.03266553
8	0x3d469ffd	0.04849242
9	0xbcccaa16	-0.024983447
10	0x3ce92ec9	0.028464692
11	0x3ccbfddd	0.024901325
12	0xbcaf87da	-0.021427084
13	0x3cdcaa0c	0.026936553
14	0x3bcb2a9b	0.0062001473
15	0xbce6aa7a	-0.028157461
16	0x3d47550a	0.048665084
17	0x3d1abdf5	0.037778813
18	0xbd125306	-0.03572371
19	0xbcdb646b	-0.026781281
20	0xbadfb9c0	-0.0017068908
21	0xbd1f1286	-0.038836025
22	0x3cc68a7e	0.02423596
23	0x3b2a02ce	0.0025941613
24	0xbd10cba9	-0.035350475
25	0xbc9a46a8	-0.01883252
26	0xbc78078e	-0.01513852
27	0xbc93f99f	-0.018063365
28	0xbc5f4e7d	-0.013629553
29	0xbc44105e	-0.011966793
30	0xbcc7a94d	-0.024372721
31	0x3c69bafb	0.014265771
32	0x3d27b8ee	0.040947847
33	0x3d1889f3	0.037240934
34	0xbd1c255e	-0.038121574
35	0x3c80adae	0.015707817
36	0x3d10b4b1	0.03532857
37	0xbccc4363	-0.024934476
38	0x3c759cf9	0.0149910385
39	0x3ce8b194	0.028404988
40	0x3ced9139	0.028999912
41	0x3cd55c8c	0.026045106
42	0xbcef212e	-0.029190626
43	0x3d2e3a63	0.04253615
44	0xbc58a344	-0.013222519
45	0xbc935906	-0.017986786
46	0xbca75d13	-0.020430123
47	0x3d442954	0.047890976
48	0x3d10227e	0.035189144
49	0x3a1ea4a3	0.00060517545
50	0xbcca7a89	-0.024716632
51	0x3c86e527	0.01646669
52	0xbc9ebccf	-0.01937714
53	0x3a5fec06	0.0008541945
54	0xbc0a3650	-0.008435801
55	0xbb2b81ec	-0.0026169969
56	0x3c9c396d	0.019070351
57	0x3c89e66f	0.016833512
58	0x3d07b0df	0.03312766
59	0xbcd1aa8f	-0.025594024
60	0xb9f61304	-0.00046934944
61	0x3d1b3a08	0.03789714
62	0x3b966a18	0.004590284
63	0x3c98e5bd	0.018664235
64	0x3b28598c	0.002568814
65	0xbd05d776	-0.032676183
66	0x3c805975	0.015667656
67	0xbcab1070	-0.020881861
68	0x39839c97	0.00025102936
69	0x3d41fb9b	0.04735909
70	0xbbabbb38	-0.005240824
71	0xbcffc05a	-0.03121965
72	0x3c8ca1e8	0.017167047
73	0x3cc6f3d2	0.024286184
74	0xbc85e7a8	-0.016345814
75	0xbd1a2c55	-0.037639935
76	0xba8b6c40	-0.0010637119
77	0xbd3574cb	-0.044300836
78	0x3d32a614	0.043615416
79	0x3d04c884	0.03241779
80	0xbcce7d60	-0.025206268
81	0x3d128445	0.035770673
82	0xbcc7954e	-0.024363186
83	0x3c17802e	0.009246869
84	0x3c98ac13	0.018636739
85	0xbcabdaa8	-0.020978287
86	0x3d073a92	0.03301484
87	0xbd043a36	-0.032282077
88	0xbcd51af5	-0.02601383
89	0xbd11fe54	-0.035642937
90	0x3d147371	0.036242906
91	0xbcd04047	-0.025421275
92	0xbc8ca16c	-0.017166816
93	0x3d100dbc	0.035169348
94	0x3ccf2466	0.02528591
95	0xbd20e0f8	-0.039277047
96	0xbca09bd2	-0.01960555
97	0x3d2bafd9	0.04191575
98	0xbc6e3cd2	-0.014540868
99	0xbc362492	-0.0111171175
100	0x3a8f6970	0.0010941457
101	0x3c081938	0.008306794
102	0xba5d5859	-0.0008443646
103	0x3caaef04	0.020865925
104	0x3cffc581	0.031222107
105	0x3c9ea643	0.01936639
106	0x3d02c60d	0.031927157
107	0x3c9e65e8	0.019335702
108	0xbd17c2bc	-0.037050948
109	0x3cdd91d7	0.02704708
110	0xbc8a3ca3	-0.016874617
111	0x3c61b6e4	0.013776515
112	0xbc05690d	-0.008142722
113	0xbcc979c7	-0.0245942
114	0xbd20e9f4	-0.039285615
115	0x3c591029	0.013248482
116	0x3d247301	0.04014874
117	0x3c91d5b8	0.017802104
118	0x3b93f6e1	0.0045155142
119	0x3b838525	0.004013675
120	0x3ceba91e	0.028767165
121	0x3c1b2c20	0.009470969
122	0xbc78d5bd	-0.015187678
123	0x3d2e677e	0.042579167
124	0x3a7e40c0	0.00096989796
125	0x3cc3fd83	0.023924595
126	0xbccfce86	-0.025367033
127	0x3d313267	0.043260958
128	0x3be91ba0	0.007113889
129	0x3cd0b5e6	0.025477361
130	0x3d23ba2a	0.03997246
131	0xbd183a9d	-0.037165273
132	0x3caefc1f	0.021360455
133	0x3cd77ab4	0.026303627
134	0xbbb11d94	-0.0054051373
135	0xbbb3d769	-0.0054883254
136	0xbc926835	-0.017871955
137	0x3c170f4c	0.009219956
138	0xbcac6875	-0.021045903
139	0x3b341fcb	0.002748477
140	0xbd2b93a1	-0.041888837
141	0x3cf30415	0.029665032
142	0x3cd9ddd6	0.026595037
143	0x3be2cd60	0.0069214553
144	0xbd1e5c6e	-0.038662367
145	0xbcc880a1	-0.024475398
146	0x3bafcb8f	0.0053648422
147	0x3d2b0539	0.041753028
148	0xbb4e025b	-0.003143451
149	0x3d173da8	0.036924034
150	0x3c4d2e81	0.012523294
151	0xbc04b6d0	-0.0081002265
152	0xbbbf01c6	-0.005829069
153	0x3bb4ed29	0.0055214358
154	0xbc81a712	-0.015826736
155	0xbc7bd718	-0.015371107
156	0x3d28794e	0.04113131
157	0xbc9ecc57	-0.019384546
158	0x3c4e1583	0.012578371
159	0xbc97f3a9	-0.018548803
160	0x3d10c072	0.03533978
161	0xbd1eb850	-0.038749993
162	0x3c783f28	0.015151776
163	0x3c322af6	0.0108745005
164	0x3d251a8b	0.040308516
165	0x3c45f0fe	0.012081383
166	0x3c740cf1	0.014895664
167	0xbc6857f4	-0.014181126
168	0x3d117c9f	0.03551924
169	0x3c61ea82	0.013788821
170	0x3c696636	0.01424556
171	0xbccf02ce	-0.025269892
172	0xbc1f5b8e	-0.009726418
173	0x3c80299f	0.015644846
174	0xbcc3c34c	-0.023896836
175	0x3d149334	0.036273196
176	0xbb302f90	-0.0026883818
177	0x3b9edd19	0.0048481342
178	0xbd0123c3	-0.031528246
179	0xbbe86ed3	-0.0070932894
180	0xbcba7fab	-0.022765955
181	0x3d284515	0.041081507
182	0x3bea912a	0.007158418
183	0xbc82cc3f	-0.015966533
184	0xbca6922a	-0.020333368
185	0x3c1e0082	0.009643676
186	0x3d226593	0.03964765
187	0xbc86723b	-0.016411891
188	0xbcbd4e92	-0.023108754
189	0x3ca685af	0.020327417
190	0x3b21bec8	0.0024680365
191	0x3c5e8f27	0.013583935
192	0xbb909961	-0.0044128154
193	0x3cc27a36	0.023739915
194	0xbd0b33c4	-0.033984914
195	0x3d0485f8	0.032354325
196	0xbbdc408c	-0.006721562
197	0xbcbfdefe	-0.02342176
198	0xbbca4279	-0.006172475
199	0x3cb941ae	0.022614326
200	0x3d4a699e	0.04941713
201	0xbd28d786	-0.041221164
202	0x3d24a454	0.040195778
203	0xbcf59d8d	-0.029982353
204	0xbd03a586	-0.032140277
205	0x3c47bd8c	0.012191188
206	0x3b846d55	0.0040413537
207	0x3d2dff1c	0.04247962
208	0xbbc58f4f	-0.0060290466
209	0xbc94e4b5	-0.018175462
210	0x3ce993d0	0.028512865
211	0x3d35ef13	0.044417452
212	0xbce2bd02	-0.027678017
213	0xb94e029e	-0.00019646666
214	0xbd19e32a	-0.037570156
215	0x3c8e5f94	0.01737956
216	0xbcf4bd33	-0.029875373
217	0xbcb2db3b	-0.021833053
218	0xbc8cd83f	-0.017192958
219	0x3b125ced	0.002233322
220	0x3d1ba34b	0.037997525
221	0x3af461b5	0.0018644842
222	0xbcc7085e	-0.024295982
223	0xbc3067a2	-0.0107668955
224	0xbcb52a73	-0.022114968
225	0xbd0aca4e	-0.03388434
226	0xbcba2b59	-0.022725748
227	0x3cff25f1	0.031146022
228	0xbcd38d46	-0.0258242
229	0x3cbf98ce	0.023388293
230	0x3cc518a1	0.024059596
231	0xbd08c93c	-0.033395037
232	0x3cd2f7b4	0.02575288
233	0xbd1357c8	-0.035972387
234	0xbcc5fb56	-0.024167698
235	0x3cb5a59f	0.0221737
236	0x3c7fc2f4	0.015610445
237	0x3b8eb0b7	0.004354562
238	0xbcdc22b5	-0.026872018
239	0xbca7e217	-0.02049355
240	0xbcf70834	-0.030155279
241	0x3d22eea3	0.039778363
242	0xbb1c04b9	-0.0023806526
243	0xbd1cc784	-0.03827621
244	0xbba48bf0	-0.0050215647
245	0xbd12c2ef	-0.035830434
246	0xbabe705c	-0.0014529335
247	0xbbb854ad	-0.0056253285
248	0xbcda964e	-0.026682999
249	0x3c104b01	0.008806945
250	0x3cf2bfba	0.029632438
251	0xbd2f93cc	-0.04286556
252	0x3d01c129	0.031678353
253	0xbc004c6b	-0.007830719
254	0x3d0a6ec4	0.03379704
255	0x3bf0c64b	0.007347857
